result_norm/IMDBMulti/N2Gim/sum_none_pGinFalse_woNodeattFalse_woGraphattFalse/minvaild_0.pt (torch, 281822 bytes, 36 tensors)

weight f4 [64, 64]
000000 00 00 00 00 00 00 00 00 00 00 00 00 00 00 00 00
       0.0 0.0 0.0 0.0
000010 00 00 00 00 00 00 00 00 00 00 00 00 00 00 00 00
       0.0 0.0 0.0 0.0
000020 00 00 00 00 00 00 00 00 00 00 00 00 00 00 00 00
       0.0 0.0 0.0 0.0
000030 00 00 00 00 00 00 00 00 00 00 00 00 00 00 00 00
       0.0 0.0 0.0 0.0
000040 00 00 00 00 00 00 00 00 00 00 00 00 00 00 00 00
       0.0 0.0 0.0 0.0
000050 00 00 00 00 00 00 00 00 00 00 00 00 00 00 00 00
       0.0 0.0 0.0 0.0
000060 00 00 00 00 00 00 00 00 00 00 00 00 00 00 00 00
       0.0 0.0 0.0 0.0
000070 00 00 00 00 00 00 00 00 00 00 00 00 00 00 00 00
       0.0 0.0 0.0 0.0
000080 00 00 00 00 00 00 00 00 00 00 00 00 00 00 00 00
       0.0 0.0 0.0 0.0
000090 00 00 00 00 00 00 00 00 00 00 00 00 00 00 00 00
       0.0 0.0 0.0 0.0
0000a0 00 00 00 00 00 00 00 00 00 00 00 00 00 00 00 00
       0.0 0.0 0.0 0.0
0000b0 00 00 00 00 00 00 00 00 00 00 00 00 00 00 00 00
       0.0 0.0 0.0 0.0
0000c0 00 00 00 00 00 00 00 00 00 00 00 00 00 00 00 00
       0.0 0.0 0.0 0.0
0000d0 00 00 00 00 00 00 00 00 00 00 00 00 00 00 00 00
       0.0 0.0 0.0 0.0
0000e0 00 00 00 00 00 00 00 00 00 00 00 00 00 00 00 00
       0.0 0.0 0.0 0.0
0000f0 00 00 00 00 00 00 00 00 00 00 00 00 00 00 00 00
       0.0 0.0 0.0 0.0
000100 00 00 00 00 00 00 00 00 00 00 00 00 00 00 00 00
       0.0 0.0 0.0 0.0
000110 00 00 00 00 00 00 00 00 00 00 00 00 00 00 00 00
       0.0 0.0 0.0 0.0
000120 00 00 00 00 00 00 00 00 00 00 00 00 00 00 00 00
       0.0 0.0 0.0 0.0
000130 00 00 00 00 00 00 00 00 00 00 00 00 00 00 00 00
       0.0 0.0 0.0 0.0
000140 00 00 00 00 00 00 00 00 00 00 00 00 00 00 00 00
       0.0 0.0 0.0 0.0
000150 00 00 00 00 00 00 00 00 00 00 00 00 00 00 00 00
       0.0 0.0 0.0 0.0
000160 00 00 00 00 00 00 00 00 00 00 00 00 00 00 00 00
       0.0 0.0 0.0 0.0
000170 00 00 00 00 00 00 00 00 00 00 00 00 00 00 00 00
       0.0 0.0 0.0 0.0
000180 00 00 00 00 00 00 00 00 00 00 00 00 00 00 00 00
       0.0 0.0 0.0 0.0
000190 00 00 00 00 00 00 00 00 00 00 00 00 00 00 00 00
       0.0 0.0 0.0 0.0
0001a0 00 00 00 00 00 00 00 00 00 00 00 00 00 00 00 00
       0.0 0.0 0.0 0.0
0001b0 00 00 00 00 00 00 00 00 00 00 00 00 00 00 00 00
       0.0 0.0 0.0 0.0
0001c0 00 00 00 00 00 00 00 00 00 00 00 00 00 00 00 00
       0.0 0.0 0.0 0.0
0001d0 00 00 00 00 00 00 00 00 00 00 00 00 00 00 00 00
       0.0 0.0 0.0 0.0
0001e0 00 00 00 00 00 00 00 00 00 00 00 00 00 00 00 00
       0.0 0.0 0.0 0.0
0001f0 00 00 00 00 00 00 00 00 00 00 00 00 00 00 00 00
       0.0 0.0 0.0 0.0
000200 00 00 00 00 00 00 00 00 00 00 00 00 00 00 00 00
       0.0 0.0 0.0 0.0
000210 00 00 00 00 00 00 00 00 00 00 00 00 00 00 00 00
       0.0 0.0 0.0 0.0
000220 00 00 00 00 00 00 00 00 00 00 00 00 00 00 00 00
       0.0 0.0 0.0 0.0
000230 00 00 00 00 00 00 00 00 00 00 00 00 00 00 00 00
       0.0 0.0 0.0 0.0
000240 00 00 00 00 00 00 00 00 00 00 00 00 00 00 00 00
       0.0 0.0 0.0 0.0
000250 00 00 00 00 00 00 00 00 00 00 00 00 00 00 00 00
       0.0 0.0 0.0 0.0
000260 00 00 00 00 00 00 00 00 00 00 00 00 00 00 00 00
       0.0 0.0 0.0 0.0
000270 00 00 00 00 00 00 00 00 00 00 00 00 00 00 00 00
       0.0 0.0 0.0 0.0
000280 00 00 00 00 00 00 00 00 00 00 00 00 00 00 00 00
       0.0 0.0 0.0 0.0
000290 00 00 00 00 00 00 00 00 00 00 00 00 00 00 00 00
       0.0 0.0 0.0 0.0
0002a0 00 00 00 00 00 00 00 00 00 00 00 00 00 00 00 00
       0.0 0.0 0.0 0.0
0002b0 00 00 00 00 00 00 00 00 00 00 00 00 00 00 00 00
       0.0 0.0 0.0 0.0
0002c0 00 00 00 00 00 00 00 00 00 00 00 00 00 00 00 00
       0.0 0.0 0.0 0.0
0002d0 00 00 00 00 00 00 00 00 00 00 00 00 00 00 00 00
       0.0 0.0 0.0 0.0
0002e0 00 00 00 00 00 00 00 00 00 00 00 00 00 00 00 00
       0.0 0.0 0.0 0.0
0002f0 00 00 00 00 00 00 00 00 00 00 00 00 00 00 00 00
       0.0 0.0 0.0 0.0
000300 00 00 00 00 00 00 00 00 00 00 00 00 00 00 00 00
       0.0 0.0 0.0 0.0
000310 00 00 00 00 00 00 00 00 00 00 00 00 00 00 00 00
       0.0 0.0 0.0 0.0
000320 00 00 00 00 00 00 00 00 00 00 00 00 00 00 00 00
       0.0 0.0 0.0 0.0
000330 00 00 00 00 00 00 00 00 00 00 00 00 00 00 00 00
       0.0 0.0 0.0 0.0
000340 00 00 00 00 00 00 00 00 00 00 00 00 00 00 00 00
       0.0 0.0 0.0 0.0
000350 00 00 00 00 00 00 00 00 00 00 00 00 00 00 00 00
       0.0 0.0 0.0 0.0
000360 00 00 00 00 00 00 00 00 00 00 00 00 00 00 00 00
       0.0 0.0 0.0 0.0
000370 00 00 00 00 00 00 00 00 00 00 00 00 00 00 00 00
       0.0 0.0 0.0 0.0
000380 00 00 00 00 00 00 00 00 00 00 00 00 00 00 00 00
       0.0 0.0 0.0 0.0
000390 00 00 00 00 00 00 00 00 00 00 00 00 00 00 00 00
       0.0 0.0 0.0 0.0
0003a0 00 00 00 00 00 00 00 00 00 00 00 00 00 00 00 00
       0.0 0.0 0.0 0.0
0003b0 00 00 00 00 00 00 00 00 00 00 00 00 00 00 00 00
       0.0 0.0 0.0 0.0
0003c0 00 00 00 00 00 00 00 00 00 00 00 00 00 00 00 00
       0.0 0.0 0.0 0.0
0003d0 00 00 00 00 00 00 00 00 00 00 00 00 00 00 00 00
       0.0 0.0 0.0 0.0
0003e0 00 00 00 00 00 00 00 00 00 00 00 00 00 00 00 00
       0.0 0.0 0.0 0.0
0003f0 00 00 00 00 00 00 00 00 00 00 00 00 00 00 00 00
       0.0 0.0 0.0 0.0

bias f4 [64, 64]
000000 00 00 00 00 00 00 00 00 00 00 00 00 00 00 00 00
       0.0 0.0 0.0 0.0
000010 00 00 00 00 00 00 00 00 00 00 00 00 00 00 00 00
       0.0 0.0 0.0 0.0
000020 00 00 00 00 00 00 00 00 00 00 00 00 00 00 00 00
       0.0 0.0 0.0 0.0
000030 00 00 00 00 00 00 00 00 00 00 00 00 00 00 00 00
       0.0 0.0 0.0 0.0
000040 00 00 00 00 00 00 00 00 00 00 00 00 00 00 00 00
       0.0 0.0 0.0 0.0
000050 00 00 00 00 00 00 00 00 00 00 00 00 00 00 00 00
       0.0 0.0 0.0 0.0
000060 00 00 00 00 00 00 00 00 00 00 00 00 00 00 00 00
       0.0 0.0 0.0 0.0
000070 00 00 00 00 00 00 00 00 00 00 00 00 00 00 00 00
       0.0 0.0 0.0 0.0
000080 00 00 00 00 00 00 00 00 00 00 00 00 00 00 00 00
       0.0 0.0 0.0 0.0
000090 00 00 00 00 00 00 00 00 00 00 00 00 00 00 00 00
       0.0 0.0 0.0 0.0
0000a0 00 00 00 00 00 00 00 00 00 00 00 00 00 00 00 00
       0.0 0.0 0.0 0.0
0000b0 00 00 00 00 00 00 00 00 00 00 00 00 00 00 00 00
       0.0 0.0 0.0 0.0
0000c0 00 00 00 00 00 00 00 00 00 00 00 00 00 00 00 00
       0.0 0.0 0.0 0.0
0000d0 00 00 00 00 00 00 00 00 00 00 00 00 00 00 00 00
       0.0 0.0 0.0 0.0
0000e0 00 00 00 00 00 00 00 00 00 00 00 00 00 00 00 00
       0.0 0.0 0.0 0.0
0000f0 00 00 00 00 00 00 00 00 00 00 00 00 00 00 00 00
       0.0 0.0 0.0 0.0
000100 00 00 00 00 00 00 00 00 00 00 00 00 00 00 00 00
       0.0 0.0 0.0 0.0
000110 00 00 00 00 00 00 00 00 00 00 00 00 00 00 00 00
       0.0 0.0 0.0 0.0
000120 00 00 00 00 00 00 00 00 00 00 00 00 00 00 00 00
       0.0 0.0 0.0 0.0
000130 00 00 00 00 00 00 00 00 00 00 00 00 00 00 00 00
       0.0 0.0 0.0 0.0
000140 00 00 00 00 00 00 00 00 00 00 00 00 00 00 00 00
       0.0 0.0 0.0 0.0
000150 00 00 00 00 00 00 00 00 00 00 00 00 00 00 00 00
       0.0 0.0 0.0 0.0
000160 00 00 00 00 00 00 00 00 00 00 00 00 00 00 00 00
       0.0 0.0 0.0 0.0
000170 00 00 00 00 00 00 00 00 00 00 00 00 00 00 00 00
       0.0 0.0 0.0 0.0
000180 00 00 00 00 00 00 00 00 00 00 00 00 00 00 00 00
       0.0 0.0 0.0 0.0
000190 00 00 00 00 00 00 00 00 00 00 00 00 00 00 00 00
       0.0 0.0 0.0 0.0
0001a0 00 00 00 00 00 00 00 00 00 00 00 00 00 00 00 00
       0.0 0.0 0.0 0.0
0001b0 00 00 00 00 00 00 00 00 00 00 00 00 00 00 00 00
       0.0 0.0 0.0 0.0
0001c0 00 00 00 00 00 00 00 00 00 00 00 00 00 00 00 00
       0.0 0.0 0.0 0.0
0001d0 00 00 00 00 00 00 00 00 00 00 00 00 00 00 00 00
       0.0 0.0 0.0 0.0
0001e0 00 00 00 00 00 00 00 00 00 00 00 00 00 00 00 00
       0.0 0.0 0.0 0.0
0001f0 00 00 00 00 00 00 00 00 00 00 00 00 00 00 00 00
       0.0 0.0 0.0 0.0
000200 00 00 00 00 00 00 00 00 00 00 00 00 00 00 00 00
       0.0 0.0 0.0 0.0
000210 00 00 00 00 00 00 00 00 00 00 00 00 00 00 00 00
       0.0 0.0 0.0 0.0
000220 00 00 00 00 00 00 00 00 00 00 00 00 00 00 00 00
       0.0 0.0 0.0 0.0
000230 00 00 00 00 00 00 00 00 00 00 00 00 00 00 00 00
       0.0 0.0 0.0 0.0
000240 00 00 00 00 00 00 00 00 00 00 00 00 00 00 00 00
       0.0 0.0 0.0 0.0
000250 00 00 00 00 00 00 00 00 00 00 00 00 00 00 00 00
       0.0 0.0 0.0 0.0
000260 00 00 00 00 00 00 00 00 00 00 00 00 00 00 00 00
       0.0 0.0 0.0 0.0
000270 00 00 00 00 00 00 00 00 00 00 00 00 00 00 00 00
       0.0 0.0 0.0 0.0
000280 00 00 00 00 00 00 00 00 00 00 00 00 00 00 00 00
       0.0 0.0 0.0 0.0
000290 00 00 00 00 00 00 00 00 00 00 00 00 00 00 00 00
       0.0 0.0 0.0 0.0
0002a0 00 00 00 00 00 00 00 00 00 00 00 00 00 00 00 00
       0.0 0.0 0.0 0.0
0002b0 00 00 00 00 00 00 00 00 00 00 00 00 00 00 00 00
       0.0 0.0 0.0 0.0
0002c0 00 00 00 00 00 00 00 00 00 00 00 00 00 00 00 00
       0.0 0.0 0.0 0.0
0002d0 00 00 00 00 00 00 00 00 00 00 00 00 00 00 00 00
       0.0 0.0 0.0 0.0
0002e0 00 00 00 00 00 00 00 00 00 00 00 00 00 00 00 00
       0.0 0.0 0.0 0.0
0002f0 00 00 00 00 00 00 00 00 00 00 00 00 00 00 00 00
       0.0 0.0 0.0 0.0
000300 00 00 00 00 00 00 00 00 00 00 00 00 00 00 00 00
       0.0 0.0 0.0 0.0
000310 00 00 00 00 00 00 00 00 00 00 00 00 00 00 00 00
       0.0 0.0 0.0 0.0
000320 00 00 00 00 00 00 00 00 00 00 00 00 00 00 00 00
       0.0 0.0 0.0 0.0
000330 00 00 00 00 00 00 00 00 00 00 00 00 00 00 00 00
       0.0 0.0 0.0 0.0
000340 00 00 00 00 00 00 00 00 00 00 00 00 00 00 00 00
       0.0 0.0 0.0 0.0
000350 00 00 00 00 00 00 00 00 00 00 00 00 00 00 00 00
       0.0 0.0 0.0 0.0
000360 00 00 00 00 00 00 00 00 00 00 00 00 00 00 00 00
       0.0 0.0 0.0 0.0
000370 00 00 00 00 00 00 00 00 00 00 00 00 00 00 00 00
       0.0 0.0 0.0 0.0
000380 00 00 00 00 00 00 00 00 00 00 00 00 00 00 00 00
       0.0 0.0 0.0 0.0
000390 00 00 00 00 00 00 00 00 00 00 00 00 00 00 00 00
       0.0 0.0 0.0 0.0
0003a0 00 00 00 00 00 00 00 00 00 00 00 00 00 00 00 00
       0.0 0.0 0.0 0.0
0003b0 00 00 00 00 00 00 00 00 00 00 00 00 00 00 00 00
       0.0 0.0 0.0 0.0
0003c0 00 00 00 00 00 00 00 00 00 00 00 00 00 00 00 00
       0.0 0.0 0.0 0.0
0003d0 00 00 00 00 00 00 00 00 00 00 00 00 00 00 00 00
       0.0 0.0 0.0 0.0
0003e0 00 00 00 00 00 00 00 00 00 00 00 00 00 00 00 00
       0.0 0.0 0.0 0.0
0003f0 00 00 00 00 00 00 00 00 00 00 00 00 00 00 00 00
       0.0 0.0 0.0 0.0

weight f4 [64, 64]
000000 2c aa 7c be 07 94 c5 ba 00 dd 67 3d 84 24 ef 3d
       -0.2467429 -0.0015074023 0.056607246 0.11676887
000010 a3 a9 d5 bd 64 3a c6 3e 7b ee 4c 3d ac 44 c6 3d
       -0.10432746 0.38716424 0.05003212 0.09681067
000020 a5 be 71 be 01 75 f2 3d 9a 70 55 3e fb 31 11 bb
       -0.23607881 0.11838723 0.20843735 -0.0022155035
000030 45 73 a0 be 14 e5 e4 3d f8 e2 21 be a3 a9 51 be
       -0.31337944 0.11176506 -0.15809238 -0.20474868
000040 72 bb 42 3e b5 bc 9d bc 82 a8 d3 be 70 90 cc 3e
       0.19016817 -0.019255022 -0.413395 0.39953947
000050 42 dc 47 3e e2 e0 d1 3c dc f7 20 3e f2 c0 4d 3e
       0.19517615 0.025619928 0.15719551 0.20093134
000060 eb 47 46 bd aa 6e e5 3d f3 7d e4 be 71 42 0d 3e
       -0.04840843 0.11202748 -0.44627342 0.13794877
000070 3f 1a 66 3d 75 59 d3 3d 71 6d 4e bc 5c 22 fc bd
       0.056177374 0.10319797 -0.012599335 -0.12311241
000080 e2 63 5d 3e 21 fe d3 3d 96 99 60 be 50 63 6a bd
       0.21620134 0.103512056 -0.21933588 -0.057223618
000090 72 2e a3 3d b8 22 1b 3d cc 51 aa 3b 58 9b 15 3d
       0.07967843 0.037874907 0.005197739 0.0365251
0000a0 0e f3 0d be fb 68 03 3e df 95 db bb 43 93 26 3e
       -0.1386225 0.12833016 -0.0067012156 0.16267113
0000b0 76 d1 86 3e c7 b3 f7 bd 51 46 5a bf 2d 96 84 3d
       0.2633168 -0.12094837 -0.85263544 0.06473956
0000c0 d9 46 2d 3e b0 49 cb 3d 8c ad a3 3d 3f ff 0a 3e
       0.16921557 0.09926164 0.07992086 0.13573931
0000d0 6a ac 3f be 22 1b 07 3c 58 33 36 3d 07 64 f5 3d
       -0.18718114 0.008246215 0.04448256 0.11981969
0000e0 88 a3 2e bc 68 d3 e4 3d 4a fa d5 3d b7 7c 4e bd
       -0.010659106 0.11173135 0.104481295 -0.050411906
0000f0 b6 5a a1 3e 2b 5d 1f be 75 f6 fa bd 04 fd e1 3d
       0.3151452 -0.15562885 -0.12254039 0.11034587
000100 ba 59 70 bb 46 ae 8c bd cf 80 03 bc 36 0a c0 bd
       -0.0036674575 -0.068691775 -0.008026316 -0.093769476
000110 23 27 1a 3e 30 04 61 3d 10 5e 22 bd 29 cf 49 3d
       0.15053992 0.054935634 -0.039640486 0.04926983
000120 fb ac 0d 3e 77 8e 31 3e 43 5e 0f 3e bb 74 03 3e
       0.13835518 0.17339502 0.14000802 0.12837498
000130 12 2c 9c 3c 92 9f aa 3d 31 63 13 3e d8 fc 39 3e
       0.019063983 0.08331217 0.14393307 0.18162858
000140 cc f9 f6 be 25 27 26 bd a4 d1 1e 3e 4d e7 e4 3c
       -0.48237455 -0.040564675 0.15509659 0.027942324
000150 b8 9e 3b bd 21 c6 f6 3d 96 ea 6b 3e 50 45 76 3d
       -0.045805663 0.12049509 0.23038706 0.060124695
000160 9b 45 5f be 9c e9 f4 3d ec 9f 50 3e bf 22 12 3d
       -0.21803896 0.1195862 0.20373505 0.035677668
000170 f8 28 05 3e 38 d8 f6 3d 6f 54 24 3e e5 a5 56 3e
       0.1300391 0.12052959 0.16047834 0.20961721
000180 81 a5 27 3d 26 27 de 3c 17 e0 33 bd 72 a4 d5 bc
       0.04092932 0.027118277 -0.04391488 -0.02607939
000190 e0 ff b7 bd 54 a6 31 3d 33 d2 3f 3d 32 4b c5 3c
       -0.08984351 0.043371513 0.04683132 0.024083707
0001a0 d9 12 4f bd c9 23 0e 3e 0f f0 e9 3d 6b 18 12 3e
       -0.050555084 0.13880838 0.11422741 0.14267127
0001b0 58 d6 37 be 87 6f 97 3d 07 52 01 3e aa cd 58 3d
       -0.1795286 0.07394319 0.12628947 0.05293051
0001c0 40 ba c2 3d 0f a3 aa bd 8a 40 3a bd eb 12 ce 3a
       0.095081806 -0.08331882 -0.045471705 0.0015722191
0001d0 10 c1 16 3e 6c 56 55 3d 59 c6 1d 3d 9e 43 a2 3d
       0.14722085 0.05208437 0.038519237 0.07923053
0001e0 81 e0 05 3e 30 89 10 bd 09 e4 18 3c 8b be fb 3b
       0.13073923 -0.035287082 0.009331712 0.0076826266
0001f0 8b 8c fb 3d bf 67 a3 bd 0b 2a 50 3d 4b a5 15 3e
       0.12282666 -0.07978772 0.050821345 0.14613836
000200 77 8e ee be 97 15 21 be 6d a7 cf 3c 71 0e 8e 3e
       -0.46593067 -0.15730892 0.02534839 0.27745393
000210 78 b5 42 3e 88 01 1a 3e 2b 9d 25 3e b1 cc 68 3e
       0.19014537 0.15039647 0.16173236 0.22734334
000220 22 93 bd be 3b 03 73 3e f1 3c af be 8a 8c f8 be
       -0.37026316 0.23731701 -0.34226182 -0.48544723
000230 86 5d ad 3d ba 6f e7 3d be 2e bf bc a9 3c 85 3d
       0.08465104 0.11300607 -0.023337718 0.06505711
000240 f6 be 86 be bf 83 54 3d 14 ea ff be 97 b3 70 3e
       -0.26317567 0.051883455 -0.49983275 0.23506008
000250 5e 68 2a bf 90 da 9b 3d e4 55 49 be 05 c9 72 3e
       -0.665655 0.07610047 -0.19661671 0.23709495
000260 b6 88 5c bc 22 b7 62 be de ff 09 3d 2a 1c 64 be
       -0.013460329 -0.22140172 0.03369128 -0.22276369
000270 e6 42 01 3f c9 6e c1 bd e2 c0 5d bd 7f 35 af 3e
       0.50492704 -0.09444959 -0.054139026 0.34220502
000280 7c 67 6b bd 1d 0d 63 3e e7 5f 01 be e5 e6 e4 3c
       -0.057471737 0.22172971 -0.1263424 0.02794213
000290 19 d1 d3 3c 14 f0 bb 3e 89 85 5a 3b f7 15 2d be
       0.025856541 0.36706603 0.0033343753 -0.1690291
0002a0 f4 24 99 be dd 26 8b be 09 68 e0 3e 14 dd 8c bd
       -0.29911005 -0.27178088 0.43829373 -0.06878105
0002b0 2e 7b 05 3e 5e 4c 51 be 11 e3 27 3c b1 f7 7d 3e
       0.1303527 -0.20439288 0.010247008 0.24801518
0002c0 10 08 1e be cb 42 88 3d 76 47 86 3d 49 0f 8c bd
       -0.15432763 0.06653365 0.06556599 -0.06838853
0002d0 51 a9 e9 bc 6a c1 02 be 31 5f 0f 3e 4d 09 90 3e
       -0.02852312 -0.12769094 0.14001156 0.28132096
0002e0 a5 ee a0 3d f3 27 0b bd ee 16 01 3e 7a 5e 28 3d
       0.07858018 -0.033973645 0.12606403 0.041105725
0002f0 00 34 96 be 1c 51 3e 3e 8b 9b 7b bd 11 14 25 3e
       -0.29336548 0.18585628 -0.061427634 0.16120936
000300 a3 8c da 3d 09 6b 60 be a0 02 b4 3d 19 1d ba 3d
       0.106713556 -0.2191583 0.08789563 0.09087581
000310 42 bc d7 3d 84 2c 7e 3e 8f 0d 1d 3b 70 01 82 bd
       0.10533954 0.24821669 0.002396438 -0.063479304
000320 dc bf 45 3d 7d 34 13 be b3 ed 5f bc 76 f6 e5 bc
       0.048278674 -0.14375491 -0.013667512 -0.028071623
000330 40 cf f3 3d 07 72 84 be 8f e0 48 3e b1 f7 87 3d
       0.11904764 -0.25868246 0.19616912 0.0663904
000340 e5 94 a3 bd 15 76 53 3e b9 e8 2f be 76 2e c2 bd
       -0.07987384 0.20650513 -0.1717862 -0.09481518
000350 30 bc 07 be a0 64 86 be 2e 25 5f 3e 47 42 92 3d
       -0.13255382 -0.26248646 0.21791527 0.07141548
000360 4d 78 01 3e bb 02 ee 3d ff 0e 82 be 2c df bd bb
       0.12643547 0.116216145 -0.25402066 -0.0057944264
000370 aa f0 ee 3d ec 50 87 bf 20 6f db 3d 63 d6 31 bd
       0.11666997 -1.057157 0.10714555 -0.043417346
000380 43 14 21 3e 6a b6 eb 3e 42 51 a0 3d 91 1b f6 3d
       0.15730385 0.46037608 0.07827999 0.120169766
000390 7c 26 33 3e 8a 03 3d 3e db 91 7c 3b fe 1b 5b 3e
       0.1749515 0.18458381 0.0038539085 0.21397397
0003a0 58 04 4b be 63 cc 71 3d 36 c0 39 be 8e 6c 93 bc
       -0.19825876 0.05903281 -0.18139729 -0.017996099
0003b0 27 a3 8a be 87 73 3b bf b6 24 61 be da 5e b7 bc
       -0.270776 -0.73223156 -0.2198666 -0.022384096
0003c0 da 06 ae 3d aa 29 07 bb 63 05 fd 3d cc 32 03 be
       0.084974006 -0.00206242 0.12354543 -0.12812346
0003d0 03 7e f3 3c 3d ec 46 3e df 5d 3a 3e fe 4f e4 3d
       0.029723173 0.19426055 0.18199871 0.1114807
0003e0 f5 38 2c bf f9 b4 a5 3d 93 77 39 3e 51 a5 09 3e
       -0.6727441 0.080911584 0.1811202 0.1344197
0003f0 5c 5e bc 3e c7 2d 2b 3d c3 36 9e 3d ad ac 0e 3e
       0.3679074 0.041791704 0.07725289 0.13933058

bias f4 [64]
000000 f7 ce 75 be 3f 24 12 be e0 9b df 3e 77 e5 bf 3d
       -0.24004732 -0.1427164 0.4367361 0.09369939
000010 69 23 69 3e c5 91 87 bc d4 07 4c bd 5e 12 03 bf
       0.22767414 -0.016549 -0.049812153 -0.511999
000020 6e 9f 8c 3d b3 99 10 3e a3 66 3e bd e8 a1 c4 be
       0.06866346 0.14121132 -0.0464846 -0.38404775
000030 14 a8 d1 3e f5 c9 e4 3d 21 45 30 be 19 c5 51 be
       0.40948546 0.11171333 -0.1721387 -0.20485343
000040 9e 13 31 3d a0 fd d8 bb 41 cb 1b 3e c3 2c 8c 3d
       0.0432316 -0.0066220313 0.15214254 0.06844475
000050 ea 5b 47 bd 50 6a 34 3d 23 b4 cd 3d 13 e9 03 3e
       -0.04867164 0.0440467 0.10044124 0.1288188
000060 53 44 03 be 1c 37 e5 be 0b e6 ad bd d2 16 86 3e
       -0.12819032 -0.44768608 -0.08491143 0.26189286
000070 04 dc 5e be d3 35 fd 3e 81 74 d8 3d ec 22 5b 3d
       -0.21763617 0.49455127 0.10569096 0.0535001
000080 30 cb 67 3e 46 b8 46 bd 79 af 6a 3e 5c bd d8 bd
       0.22636104 -0.04851558 0.229185 -0.105829924
000090 5d 0a e5 3d 90 f4 4f 3e 88 e3 05 be 97 8e 87 be
       0.11183617 0.20308137 -0.13075078 -0.26475975
0000a0 f7 a1 aa be ef 02 af 3d 3a 99 82 3e 2d bf 78 3e
       -0.33326694 0.085454814 0.25507528 0.24291678
0000b0 d2 a2 fa 3e d4 95 ac bd 1b f2 84 3e ce 61 8e 3e
       0.48952347 -0.08427015 0.25965962 0.27808994
0000c0 2d b0 2f 3d c1 4d 8a be 13 25 76 be ce 28 cd 3e
       0.042892624 -0.27012447 -0.2403758 0.40070194
0000d0 8a 96 59 3e bf fe 1d bd 38 f2 65 3e 9e 36 61 3e
       0.21248832 -0.038573023 0.2245568 0.21993491
0000e0 d2 79 97 3d f2 ba 4b 3e cb c3 86 3d b6 a5 44 be
       0.07396282 0.19895533 0.06580313 -0.19203839
0000f0 af 34 0c 3e 90 05 0d 3e 17 d2 88 3d 9d 26 8d 3c
       0.13691972 0.13771653 0.066806965 0.017230326

weight f4 [64, 89]
000000 dd b6 c9 3d 2f f1 08 3f 2a da b2 3f 44 bb a3 bc
       0.098493315 0.53493017 1.3972828 -0.019986756
000010 63 54 3d 3e cc 86 89 3d 0f b9 5c bb 25 64 1f 3e
       0.18489222 0.067151636 -0.003367964 0.15565546
000020 ee d2 25 be ac 86 c8 3c e1 d3 06 bd f4 fb 26 be
       -0.16193745 0.024478279 -0.032916907 -0.1630705
000030 78 6d f7 3d 72 42 1c 3e 30 03 83 3d 07 c6 90 be
       0.120814264 0.15259722 0.06397092 -0.28276083
000040 7e 86 85 be da 16 2c be af d1 a4 be 37 00 f7 be
       -0.26079172 -0.16805592 -0.32191226 -0.4824235
000050 9a bf bc be 99 0c cd bd 04 69 55 3e 1a f3 5b 3e
       -0.3686493 -0.100121684 0.20840842 0.21479455
000060 ad 47 b2 3e cf 9e 3a bf 17 80 b5 3e 2a 26 54 3e
       0.3482031 -0.7289857 0.35449287 0.20717683
000070 db 9c 80 3f 64 71 67 bd 87 3c 72 3d c9 5e ea bd
       1.0047868 -0.056504622 0.059139755 -0.1144386
000080 b4 89 68 3d fe 43 33 3d d0 24 68 bd 76 4f c1 3d
       0.05677195 0.043766014 -0.056675732 0.09438984
000090 12 24 f5 bd cd 1d 6a be 35 a1 94 3d d2 5e fb 3c
       -0.119697705 -0.2286293 0.0725731 0.030684862
0000a0 fa 19 35 3b 77 74 1a 39 ff 33 9a 3f bd 16 42 3e
       0.0027633891 0.00014729971 1.2047118 0.18953986
0000b0 0d 54 84 be df c2 e3 3e 01 5a 19 3d 93 0a 47 bf
       -0.25845376 0.44484612 0.03743935 -0.7775051
0000c0 78 52 0e 3e 58 5d d9 3e 67 04 38 bd f6 d7 c3 bd
       0.13898647 0.42454028 -0.044926073 -0.09562676
0000d0 da 04 88 3d 69 b6 23 3c fb 78 b5 3d 5e 06 30 bc
       0.0664155 0.00999222 0.08860966 -0.010743706
0000e0 10 37 b1 bc 2a b7 92 3d 24 67 d6 3c 32 31 0c bd
       -0.021632701 0.07163842 0.026172228 -0.034226604
0000f0 46 eb 35 3c fd 2a 43 3d c3 16 43 3e ae 83 bd bd
       0.011103457 0.04764842 0.19051652 -0.092536315
000100 12 72 86 bd 71 32 46 bc a6 ef 9c 3d 43 6b 53 3e
       -0.06564726 -0.012096987 0.07662897 0.20646386
000110 ad 42 e8 bb d9 dc ca bc d1 36 e9 bc 89 0c bf bd
       -0.0070880265 -0.024763511 -0.028468521 -0.09328563
000120 c6 3c 92 bd 4f 25 40 bd 0b c9 9d bd 2f 3c 3d 3d
       -0.07140498 -0.04691058 -0.077043615 0.046199974
000130 20 31 b1 3d 78 a1 8c 3e cf 23 cb bd e0 2c 32 bc
       0.08651948 0.2746694 -0.09918939 -0.010874957
000140 c1 48 24 3d 7b 62 94 3c 29 2b 98 3d 80 19 49 bc
       0.040108446 0.018113365 0.07430107 -0.012274146
000150 2f 6f f8 bc b0 ff 95 3d 34 ba 96 3d 77 8e a7 bd
       -0.030326454 0.07324159 0.07359734 -0.0818147
000160 90 0c 91 3d 54 55 c5 bc 6d 3d 6b be 89 9b 70 3e
       0.07082474 -0.02408854 -0.22972651 0.23496832
000170 d2 30 5b 3c a6 61 96 be d2 98 4a be 96 8e 3a 3d
       0.013378339 -0.29371375 -0.19784859 0.045546137
000180 e4 e7 17 3e 4a 67 e7 3d fb 36 dc 3d f9 1c 73 3e
       0.14834553 0.11298998 0.10752674 0.23741521
000190 eb aa 8f 3d 14 03 b4 3d 92 2a 10 3d 7a ad 8f 3e
       0.07015022 0.087896496 0.03519685 0.2806204
0001a0 53 ce 5d be bd c3 05 bd 6c 1c 66 3c ee 7d 2f bd
       -0.21660738 -0.032657374 0.014044862 -0.042844705
0001b0 78 f6 ac bd ef c9 17 3e 7b 9f 94 be 63 10 4f bf
       -0.08445448 0.14823125 -0.29027924 -0.8088438
0001c0 a0 8f 49 bf 84 ca ea 3e c8 8c bf bf ba 96 a2 bd
       -0.7873478 0.45857632 -1.4964838 -0.07938905
0001d0 ed 7b 0e 3f a9 d8 b5 3d 7a 7f 8c 3e 86 e0 19 bd
       0.55657846 0.08879215 0.27441007 -0.037567638
0001e0 0e 79 4a 3e ea 9f 1c 3f ac 56 e0 3e da 7a db be
       0.19772741 0.6118151 0.43816125 -0.42867166
0001f0 5e 21 46 3e 60 3d d5 be 69 01 67 3e a8 66 c9 3e
       0.19348666 -0.41648388 0.22559132 0.39336133
000200 0a 2d b4 3f d2 69 b3 bd af 42 5d 3b 76 7e 32 3e
       1.4076245 -0.08760418 0.003376167 0.17431054
000210 18 c7 b6 3e 3a 7d 4d 3f 3f fe 23 bf 6e 70 82 bd
       0.3569877 0.80269206 -0.64059824 -0.063691005
000220 cf 69 a8 3f fb 04 24 3f e4 35 98 3e db 60 29 3f
       1.315729 0.640701 0.29728615 0.66163415
000230 99 40 d8 3d 42 b9 86 bd c0 e0 bc bd db 38 89 bd
       0.10559196 -0.06578304 -0.09222555 -0.067002974
000240 c3 b6 f8 3c fe c2 ba bd b7 e3 1f 3d 43 14 c3 3e
       0.030360585 -0.09119223 0.039035525 0.38101396
000250 7c 44 a3 3c b1 4d 61 3d 51 17 31 bc 2d d9 a8 3e
       0.019930117 0.055005733 -0.010808782 0.32978192
000260 d1 8d 5f bd 78 e9 b9 3d f7 fb 17 bc c8 a7 66 3d
       -0.054578606 0.09077734 -0.009276382 0.056312352
000270 0d 52 bd 3e 3b 4e 88 3d 1e f2 0c bd 33 74 5d 3d
       0.36976662 0.06655546 -0.03441059 0.054065894
000280 d1 05 cd bd 39 51 ab 3d ab 69 3c 3c d4 48 82 bd
       -0.10010875 0.08365101 0.011499803 -0.06361547
000290 59 05 35 bd 30 1c 56 bd d7 7c 85 3e c8 73 34 3d
       -0.044194553 -0.052272975 0.26071808 0.04405573
0002a0 d4 04 52 3d 29 54 bb 3c 87 19 88 bd 3c 06 a2 3d
       0.051274136 0.02286728 -0.06645494 0.07911345
0002b0 9f 35 bc 3c 2a 52 8c 3c c7 fb 47 bb 23 86 c1 3d
       0.022974787 0.017129023 -0.0030515061 0.09449413
0002c0 ce ec fc bb 15 3f 7b 3d fc 40 3a bc c6 4d 15 3f
       -0.007718659 0.061339457 -0.011368033 0.583218
0002d0 52 b5 66 be df e2 c9 bc a1 e7 4d 3e 70 0d bf 3d
       -0.22530106 -0.024644313 0.2010789 0.09328735
0002e0 5b 55 f0 3d c6 af 4c be b0 c1 98 3d 34 37 bb bd
       0.1173503 -0.19988927 0.07458818 -0.091413885
0002f0 14 8c 20 be 34 7e 61 3d 38 7c 64 be 31 28 f1 be
       -0.15678436 0.055051997 -0.2231301 -0.47100976
000300 4d 3b ef bd 2d 26 9b be 20 9c 00 bf 70 bf 2b 3e
       -0.116812326 -0.30302563 -0.5023823 0.16772246
000310 da 14 13 3e 5c be 80 3c c2 6b 08 bf de 1b 23 be
       0.14363423 0.01571577 -0.53289425 -0.15928599
000320 10 14 14 bf f0 54 76 3f 85 77 60 be 39 aa e1 3e
       -0.5784311 0.96223354 -0.21920593 0.44075182
000330 30 f7 4f 3e f4 1e 43 3e b3 09 9d be 0a 44 e3 3d
       0.20309138 0.19054776 -0.30671462 0.11096962
000340 02 7f 40 3e 2e 1d c5 be 2a 78 13 3f 21 5d 1f 3e
       0.1879845 -0.38498825 0.5760523 0.1556287
000350 2a ea 2e be 13 24 0a 3e 0d 70 f9 be bf aa b2 bd
       -0.17081514 0.13490324 -0.487183 -0.087239735
000360 cc f9 83 3c f3 f4 1c bf fe 10 f9 39 8d d8 c3 bd
       0.016110323 -0.6131126 0.0004750564 -0.09562788
000370 b9 1b 0b 3d 37 8d a5 bf 6b 3c 0b be 62 e8 82 bc
       0.033961985 -1.293372 -0.13597266 -0.01597995
000380 77 e2 44 bd bc 9c 8a 3f f4 e9 e7 3c 5f d0 b2 be
       -0.048067536 1.0829082 0.0283098 -0.349246
000390 ed d2 7c be e5 06 9c bc 1f c1 e9 3c aa f1 ab 3d
       -0.24689837 -0.019046256 0.02853447 0.08395703
0003a0 0b 24 fc bb f7 19 e6 3c c7 42 32 3d 91 73 ae 3c
       -0.0076947263 0.028088553 0.043520715 0.02129534
0003b0 cd d5 af bd 5b dd 98 3d ac 1c 9f bd 2c 43 b1 bd
       -0.08585701 0.07464095 -0.077691406 -0.0865539
0003c0 d4 f2 92 bf ae be d4 3d 34 db 27 bc 9f 9a 35 3d
       -1.1480355 0.10387932 -0.010245133 0.04433691
0003d0 be d6 55 3c 58 8b 10 3e 02 02 8a bd 0f dd 7a 3d
       0.013051687 0.14115655 -0.06738664 0.061245974
0003e0 f8 c1 aa bc e3 37 a4 3c 26 be 92 3d 7b 1f c3 bd
       -0.020844445 0.02004618 0.07165174 -0.09527489
0003f0 b2 76 69 bd eb fe aa bc 79 15 a7 bd 42 11 2b bc
       -0.056997962 -0.020873507 -0.081583925 -0.010441126

bias f4 [64]
000000 36 5b e6 3c 29 e1 03 bd 9d 60 7f bd 2f d3 22 bc
       0.028119665 -0.03219715 -0.062347997 -0.009938045
000010 18 cd b0 3d a5 85 23 be 37 3f d8 3c 8d 19 db 3d
       0.086328685 -0.1596895 0.02639733 0.10698233
000020 7c 32 1b bd e1 5d 03 3d 4a 8c 89 3d a9 ae 4e 3b
       -0.037889943 0.03207195 0.06716211 0.003153721
000030 e8 29 b3 bc 75 04 60 3d c4 ef 8d 3d af 6e 91 bc
       -0.021870568 0.05469175 0.06930497 -0.017752973
000040 8e 76 08 3e 26 30 9e 3d 60 0e a6 3c 0f 41 0f 3d
       0.13326475 0.07724027 0.020270526 0.034974154
000050 60 a1 f3 bc cc 11 80 3c 4c e3 20 3c ca 97 c2 bd
       -0.029740036 0.015633486 0.009819817 -0.09501608
000060 ff d7 ea bc c4 55 b1 3c 6a f6 5d bd 3c 66 8e 3d
       -0.028667448 0.021647342 -0.054190077 0.069530934
000070 a9 63 38 bd ef 2a af 3d c4 87 1d bd 31 a8 d7 bd
       -0.04501692 0.08553111 -0.038459554 -0.10530127
000080 68 7c 4e 3d 9c 7b ca 3d 99 f2 b8 3c c8 0e 8d bd
       0.05041161 0.09886858 0.022576617 -0.06887585
000090 3a 57 e8 ba 49 87 24 3d 1a 81 d5 3c 41 7c 55 3d
       -0.0017726191 0.04016808 0.026062537 0.05212045
0000a0 3e 5c 4d 3d 80 97 86 bd 5e d1 80 bd 29 c4 f0 bd
       0.050136797 -0.06571865 -0.062899336 -0.117561646
0000b0 fb 9b 05 3e 2f df 57 bd 0c 5b 12 bb 3f 65 4c be
       0.13047783 -0.05270308 -0.00223321 -0.19960497
0000c0 b0 d2 a4 bc c8 b0 23 3d 74 64 17 3d b2 b9 a4 bd
       -0.020119995 0.039963514 0.036961034 -0.08043231
0000d0 0d 75 d6 bc aa 56 11 3e 24 50 8d 3c f9 80 56 3d
       -0.026178861 0.14193216 0.017250128 0.05236909
0000e0 e4 ee ef 3c 37 12 ec 3c bb 68 73 bd d8 0f 03 bd
       0.029288717 0.02881728 -0.05942605 -0.03199753
0000f0 e3 21 d5 bd c7 5d 5d 3b a1 3b 4d bd 31 fa 13 3d
       -0.10406854 0.003377782 -0.050105695 0.036127273

weight f4 [64, 64]
000000 e3 22 65 be 26 92 41 3e a8 4b 0a 3f e1 91 27 be
       -0.2237659 0.18903407 0.5402169 -0.16364242
000010 be 65 1d be 11 61 ae 3e 21 2b e3 bd f0 dc 2b 3e
       -0.15370843 0.3405843 -0.110922106 0.167835
000020 07 52 93 bd 66 24 a4 be 8e fb 3b be b5 b8 6f 3e
       -0.0719338 -0.3205902 -0.18357679 0.23410304
000030 bc 9f b9 3e 80 20 b2 3e 86 14 12 bf 4c 62 10 be
       0.3625468 0.3479042 -0.57062566 -0.14099997
000040 e9 90 34 bd fd c3 06 bf de 81 28 3d a5 0d 49 3e
       -0.04408351 -0.52642804 0.041139476 0.19634111
000050 b6 a2 44 be 9d 46 da 3c 13 99 e0 3c 11 b5 82 3e
       -0.19202694 0.026645 0.027416741 0.25528768
000060 f9 43 bd 3e d6 54 fa bd cb 84 d5 3e 67 9c 51 bd
       0.36965922 -0.122232124 0.41702875 -0.051174548
000070 8d 91 64 be ef 56 07 3e fa e2 bc be cb 06 2e bd
       -0.22321148 0.13216756 -0.3689192 -0.042486947
000080 97 18 0d 3d 92 05 a2 bd b8 94 0f 3e 67 e6 3f 3d
       0.03444728 -0.07911219 0.14021575 0.04685059
000090 7f 5a 1b 3d 39 b0 ba be 2d 75 01 bc f2 30 15 bf
       0.0379281 -0.36462572 -0.007901472 -0.5827781
0000a0 1d 42 b5 be c3 ef 15 3e f6 d8 f0 bd f7 6a 0e 3f
       -0.35402003 0.14642243 -0.11760132 0.55631965
0000b0 0f ca 21 bf 37 3c 76 3b fa a4 19 3f 21 3a 1a 3f
       -0.6319894 0.0037572512 0.6001736 0.6024495
0000c0 27 d6 38 be 5f 07 03 3e 78 bb 4c be aa fe ef 3c
       -0.18050443 0.1279578 -0.19993389 0.029296238
0000d0 7a 44 c1 be 6b 67 86 3a 4f d1 a7 be 7f 40 7f be
       -0.37747556 0.001025421 -0.32776877 -0.24926947
0000e0 1e d4 b7 be 22 93 6e be 63 c6 e3 3e 91 04 7b 3e
       -0.3590402 -0.23298314 0.44487295 0.2451346
0000f0 94 ad 7b 3d b3 ad 4a 3e f0 49 2f 3f 44 83 d0 be
       0.061444834 0.19792823 0.68472195 -0.40725148
000100 ab 65 2c be fa b4 a9 3d 26 1c bd 3d 49 b8 bf bd
       -0.16835658 0.08286472 0.092338845 -0.093613215
000110 18 b6 df bd 9e f3 a0 3d 12 25 67 3e eb 88 6f 3d
       -0.109234035 0.07858966 0.22572735 0.058480185
000120 06 29 a2 3d 81 75 01 be 02 7f 70 3e 3a a9 b4 3d
       0.07917981 -0.1264248 0.2348595 0.0882134
000130 57 11 5d bc 2d 7f 5c 3d af 0c 53 3c 7a 90 9f 3e
       -0.013492904 0.05383222 0.012881442 0.31164914
000140 69 1c a2 bd 6f 9b bf be cf b1 98 be cc 74 b3 3c
       -0.07915575 -0.37423274 -0.29823157 0.021906279
000150 f7 38 8f 3e 8e 7c 11 3e 90 a6 44 3e 5d 48 8c 3d
       0.27973148 0.1420767 0.19204164 0.0684974
000160 54 87 aa 3d 11 b2 bc 3d 64 81 b8 3e f4 62 3d 3e
       0.08326593 0.09213651 0.36036217 0.18494779
000170 63 3a 99 3b 13 66 f8 bc 6c 00 20 be 7e 67 19 3d
       0.0046761497 -0.03032211 -0.15625161 0.037452213
000180 fc 29 b5 3c 36 ec 03 be 8e 49 9d bd 8a ed b5 3d
       0.022114746 -0.12883076 -0.07680045 0.088831976
000190 e5 3e 72 bd c0 5f ae be 14 c0 e6 3c fc a4 ce 3d
       -0.059142012 -0.34057426 0.028167762 0.10090062
0001a0 18 8c 97 be 25 d7 55 3c dd c7 85 be 54 4a 00 3e
       -0.2959907 0.013051783 -0.26129046 0.12528354
0001b0 36 0d ff bd 10 08 95 be b1 88 92 be d2 64 7b 3e
       -0.12453692 -0.29107714 -0.28619912 0.24550179
0001c0 cd 23 d1 bd 52 6f 1e be dc 42 6a be 94 81 fe 3d
       -0.102119066 -0.15472153 -0.22877067 0.12427059
0001d0 48 3d 93 be 8b c4 f9 3b a1 3d c5 bd 4c fe ab bd
       -0.2875769 0.0076223067 -0.096308954 -0.08398113
0001e0 f2 ce 71 3d f9 09 eb 3d f0 02 94 3e aa 47 e6 bd
       0.05903525 0.114765115 0.2890849 -0.112441376
0001f0 75 5e 48 3e c6 e1 2f be 6a 4b c6 3e 12 26 14 be
       0.19567282 -0.1717597 0.3872941 -0.14467648
000200 ce fa c0 bd 6d 89 59 3e 9c c2 8d bd 05 b4 15 3b
       -0.09422837 0.2124383 -0.069218844 0.0022842896
000210 d7 09 9a be be 7a 10 bc df 00 ba 3e 8c e4 75 3e
       -0.30085632 -0.0088183265 0.3632879 0.24012965
000220 a6 f4 9d 3e 3e 1b 41 be 0f 98 62 3e 8e 56 05 bd
       0.30850714 -0.18858048 0.22128318 -0.032553248
000230 e0 a6 02 bf 7d 25 3c 3d 6f fb 64 be 77 17 4a 3e
       -0.5103588 0.04593419 -0.2236154 0.19735514
000240 b2 cf 66 bd ef 61 c1 be 7a 80 1c be 94 01 70 be
       -0.056350417 -0.3777003 -0.15283385 -0.23438102
000250 3b 2c 22 be 55 9e d6 3d 4d 18 98 bd a0 42 3b ba
       -0.15837185 0.10479418 -0.0742651 -0.0007143412
000260 ce 1c 84 bd 78 44 d1 3e fd ed a2 3e 7a 17 08 3e
       -0.064508066 0.4087255 0.31822196 0.13290206
000270 b1 8a 8d 3e a4 ba 8c be 87 a5 b5 be 20 77 85 be
       0.27644876 -0.27486145 -0.3547785 -0.26067448
000280 6c 47 11 bd cb 08 b6 3c e2 dc 2c 3e f4 92 21 be
       -0.035468504 0.02222099 0.16881135 -0.15778714
000290 7a 43 94 3e 87 7d 94 be 75 10 c6 bd d2 73 96 bd
       0.2895773 -0.2900202 -0.09671108 -0.0734631
0002a0 7b 15 db bd 5f cc a5 3e e8 f9 9f be 27 9d ff 3d
       -0.106974564 0.32382485 -0.3124535 0.12481146
0002b0 11 02 91 bd 00 a6 bc bd 9e 1e 48 be 26 4c cb 3d
       -0.07080472 -0.092113495 -0.1954293 0.099266335
0002c0 b6 d7 ba bc 59 00 e7 3c ad d4 d8 be 63 19 2d bd
       -0.022807937 0.028198408 -0.4234976 -0.04226054
0002d0 9c 4d 3b 3d 82 b6 be 3c 73 5e 8e 3c 91 d7 ae bd
       0.04572831 0.023280386 0.017379021 -0.0853721
0002e0 95 75 ca 3d 0b a4 5c 3e 25 fd b0 3e 69 62 fb 3d
       0.09885708 0.21546952 0.34568134 0.122746296
0002f0 7e 2b 85 bb 90 d4 01 bd 24 31 0d be ac de da bd
       -0.0040640226 -0.031696856 -0.13788277 -0.106870025
000300 23 32 f0 3e 80 a8 11 3f 1f 6a 6b 3e 24 91 93 be
       0.4691325 0.56897736 0.229897 -0.2882167
000310 73 45 43 be 38 ed d5 3d b8 6e 03 3e 3e 8c 2c 3d
       -0.19069462 0.104456365 0.12835205 0.042125933
000320 d2 9b ab bd 1a e2 90 be 1b e8 90 be 62 1e 06 be
       -0.0837933 -0.28297502 -0.28302082 -0.13097528
000330 5c 27 f8 3e ab a0 98 be 39 8c 80 bd 78 1f bd 3d
       0.4846753 -0.2981008 -0.06276745 0.09234518
000340 57 34 8e be 41 7d ed be 8b 8e b8 bd cc 98 89 bd
       -0.27774307 -0.46384624 -0.09011563 -0.06718597
000350 66 54 7e 3b 06 3f 86 bd 7a 83 b6 3e 8c 18 df bd
       0.003880763 -0.065549895 0.35647184 -0.10893354
000360 0d b1 1a 3e 01 59 8d bd 71 d8 c1 3e 7c 28 a4 3e
       0.15106602 -0.06901742 0.37860444 0.32062137
000370 e3 4c cd bd 4f 8f 21 3e 16 55 c2 be 6d 2d 7c 3e
       -0.100244306 0.15777324 -0.3795554 0.24626704
000380 3a 97 b3 3e c3 a2 e3 bd 7e 81 65 3d f3 f3 a7 bd
       0.35076314 -0.11115029 0.056031696 -0.082008265
000390 62 7f a8 be 1e e3 86 be e7 30 02 3d 86 be b7 be
       -0.32909685 -0.26345152 0.03178492 -0.35887545
0003a0 b6 a9 94 bd 47 9d ca bd 6a b3 5a bc 4c 44 66 3e
       -0.07258932 -0.098932795 -0.01334844 0.2248699
0003b0 9e a0 60 bf 76 72 a0 3d 63 d7 ea 3d dc 9a a4 3e
       -0.8774508 0.07834332 0.11466863 0.32149398
0003c0 b4 39 6a 3d 7e ad b3 3b 71 63 8d be a4 d7 a9 bd
       0.057183936 0.0054833284 -0.2761493 -0.08293083
0003d0 ed cb 87 3e 04 83 ff be bc b5 48 3c 46 98 91 be
       0.2652277 -0.49904644 0.01225036 -0.28436488
0003e0 4e 6a f0 3d ff 3b 64 3c ff 43 b3 3b aa 2d de be
       0.11739026 0.01393032 0.0054707523 -0.43394214
0003f0 a7 5d 83 3e b7 36 fd 3d 37 15 54 3e c3 8f 05 3d
       0.2565739 0.12363952 0.20711218 0.032607805

bias f4 [64]
000000 66 ec a6 be e6 5e a0 bd 4c d8 4d 3e 38 e4 e4 bc
       -0.32602233 -0.078306004 0.20102042 -0.027940854
000010 d0 e8 f7 3c e6 4b cb bc 54 d2 39 3e b8 0d 52 3e
       0.03026238 -0.024816465 0.1814664 0.20513046
000020 d1 7a f9 bc 78 71 c0 3d 45 9f 48 bd 3b 94 3c bd
       -0.030454071 0.093966424 -0.048980016 -0.0460398
000030 5e 3c 73 be fc ad ad 3e 2e f0 35 3e a2 a4 37 3e
       -0.23753497 0.33921802 0.17767403 0.17933896
000040 73 56 26 3d 25 9d bc bc e6 0f 0e bd fb e8 97 ba
       0.04060979 -0.023024151 -0.03468313 -0.0011589819
000050 8e 8f a9 3e 08 a9 8d 3e 4d 69 50 be aa 26 1e bd
       0.33117336 0.27668023 -0.20352669 -0.03861109
000060 61 7d b8 bc e1 b4 00 be 14 36 28 be 37 06 8a 3d
       -0.022520723 -0.12569 -0.16426879 0.06739467
000070 0c af 22 be cb f5 13 be 31 32 c6 3d c2 1e 21 bd
       -0.15887088 -0.14449231 0.09677542 -0.039335974
000080 f6 0f 4c 3e 15 f1 d9 bb f6 51 dd bd 6c de 16 be
       0.19927964 -0.0066510537 -0.108066484 -0.14733285
000090 83 b3 0a 3d fe 0f 97 be aa 2f 9a bd 1a c7 ce be
       0.033862602 -0.2950439 -0.075286224 -0.40386277
0000a0 11 19 b6 3d df 85 a2 be 51 43 15 be 1f 85 0c be
       0.088915 -0.3174276 -0.1457646 -0.13722657
0000b0 0a c2 6a be e4 a9 4a be c1 eb ed bd 6b eb 0b 3e
       -0.22925583 -0.1979137 -0.11617232 0.13664024
0000c0 05 71 dc bd ff 96 e9 bd 47 ae d1 ba 2c a1 99 3d
       -0.10763744 -0.11405753 -0.0015997373 0.07501444
0000d0 fc 29 93 3e f7 44 a7 be f6 2a af be 16 cf a6 be
       0.2874297 -0.32669804 -0.34212464 -0.3257987
0000e0 98 97 4f be 51 fb 6f be 57 e4 70 3d 11 9b 09 3f
       -0.20272672 -0.23435713 0.05881151 0.5375224
0000f0 8e 05 39 bd f9 6b 95 3e 52 81 34 bc 52 7a a3 3d
       -0.045171313 0.2918394 -0.0110171605 0.07982315

weight f4 [64, 64]
000000 e4 10 89 3d e6 fa d7 3d d6 0b 91 3d 2f ca c0 3c
       0.06692675 0.10545902 0.07082336 0.023533909
000010 dd 3b 0f bd 5b 8f 9a bd 3d a8 38 3e 05 33 43 be
       -0.0349692 -0.07546874 0.18032928 -0.19062431
000020 98 a7 94 3d 9f 6e 9a be ca ab 6f 3e fe 82 0b be
       0.072585285 -0.30162522 0.23405376 -0.13624188
000030 67 8f d9 3c 96 fc ad 3c e6 16 cd bd 06 f8 16 be
       0.026557637 0.021238606 -0.10014133 -0.14743051
000040 83 36 af bd a8 a8 87 3d f2 e2 09 bf b5 ef 65 3d
       -0.08555319 0.066239655 -0.53861916 0.056136806
000050 ee 3e 95 3c 1b 00 32 3e c8 b1 86 3e 46 07 99 be
       0.018218484 0.17382853 0.2630751 -0.29888362
000060 f7 eb 97 3d 31 d1 1d bd dd 44 13 3d 64 fc 9d 3c
       0.074180536 -0.03852958 0.035954345 0.019285388
000070 ef 19 21 bf 5c de 1a be e5 94 ab be 14 54 a1 bd
       -0.62930197 -0.15123886 -0.33512035 -0.07877365
000080 d2 c6 10 3e d5 4c 0a 3e fb 53 13 3d b4 93 94 3e
       0.14138344 0.13505872 0.035968762 0.2901894
000090 47 3d 5c be 0a 0d 6e be 59 9f b7 be 85 cc cc 3b
       -0.2150775 -0.23247162 -0.3586376 0.0062499666
0000a0 93 71 29 be 66 e5 10 be b0 18 0b 3e 71 aa 2a 3e
       -0.16547231 -0.14150009 0.13583636 0.1666658
0000b0 fb 1a 01 bc bc 07 3c be 77 58 73 3e eb ae 0b 3d
       -0.007879968 -0.18362325 0.23764215 0.03410236
0000c0 5b 1e de bc e5 06 09 bd 88 d5 0e bf 67 cb 3e 3d
       -0.027114084 -0.03345384 -0.5579457 0.0465807
0000d0 df 81 06 bf 8a 9d 8e bc cd 07 a8 3d f9 88 50 3e
       -0.5254192 -0.017409105 0.08204613 0.20364751
0000e0 2b 23 78 be ca d3 31 bf a9 4b f3 3e d4 03 8f 3d
       -0.24232166 -0.6946379 0.47518662 0.06983152
0000f0 9a 23 c2 3d 2b 1b 0f 3d e3 96 08 bf 93 c4 66 be
       0.09479447 0.03493802 -0.53355235 -0.22535925
000100 2d f3 83 3e e7 f9 3d 3d dd 4f 73 bd 47 19 a1 bd
       0.25771466 0.046380904 -0.059402335 -0.078661494
000110 27 e6 0c be 93 4c 87 bd 11 3f 2d be 87 66 2b 3d
       -0.13759671 -0.06606402 -0.16918589 0.041845825
000120 2c e6 70 be 5e dd 81 3d 4e ec 01 be 56 be 01 be
       -0.23525304 0.063410506 -0.126878 -0.12670264
000130 c8 ad 46 3e c8 22 00 be a0 42 97 bd b7 20 2d 3e
       0.1940223 -0.12513268 -0.073857546 0.16907011
000140 08 3c 84 3c b6 7b 89 bd e3 a4 88 be 8e 53 e2 bd
       0.016141906 -0.06713049 -0.266883 -0.11051093
000150 53 47 02 be e4 ef 09 be 9a 86 49 3d a4 9f 41 bd
       -0.1272252 -0.13470417 0.04920063 -0.047271386
000160 76 81 47 3d 64 7c fc bd 05 6a 00 be 85 65 75 3e
       0.048707448 -0.12328413 -0.12540443 0.23964508
000170 24 f8 c7 3d e5 e7 cf 3e 8a bc a6 3d 9a b5 31 3e
       0.09764126 0.4060661 0.0814143 0.17354432
000180 62 c1 15 bc 4c ff 92 be 35 f7 3f 3e b8 77 cc 3e
       -0.009140344 -0.287104 0.18746646 0.39935088
000190 a3 bb 1a be aa a4 bb 3d 96 e2 10 3e e3 fd 87 3e
       -0.1511064 0.091622666 0.14148936 0.26560888
0001a0 f1 95 67 be 8f 26 00 be 7e 55 8e 3e fc b9 88 3e
       -0.22615792 -0.12514709 0.277996 0.26704395
0001b0 89 a0 c5 3e 0f bb 67 bc 00 d4 be 3d bf ff 6d 3d
       0.3859904 -0.014143719 0.093177795 0.058105227
0001c0 3d 34 92 bc 68 ce fd 3d 26 b1 2a bd 3e 5f bb bd
       -0.017847175 0.123928845 -0.04167285 -0.091490254
0001d0 a4 a4 b9 3e bd b0 b2 bc f3 8f 17 3e 08 38 18 bb
       0.36258423 -0.021812791 0.14801006 -0.0023226757
0001e0 d2 59 70 3e 40 26 6d 3e ac b3 95 3e f5 02 4c 3e
       0.23471764 0.23159122 0.2923864 0.19923003
0001f0 09 98 36 3d 9c b8 22 3d df 15 f3 bd 72 c5 8d 3d
       0.044578586 0.03972684 -0.11869406 0.06922425
000200 e6 8d 28 bf b0 97 33 3d 16 6c 5c 3e 87 46 6a bf
       -0.6584152 0.043845832 0.21525607 -0.91513866
000210 6a 29 c9 be f9 32 85 3e 09 e2 82 be ae c2 54 be
       -0.3928941 0.26015452 -0.25563076 -0.2077739
000220 b2 84 d9 be 07 1f a2 be 64 c4 a5 3d 0b bc ed be
       -0.4248405 -0.31664297 0.08094099 -0.46432528
000230 e3 9c e0 be 61 12 a2 3d f5 29 e9 bd ca 05 08 be
       -0.43869695 0.07913662 -0.11384956 -0.13283458
000240 24 b7 2b bd d4 57 5f be a7 9a e4 bd 21 4c 53 3e
       -0.041922703 -0.21810848 -0.1116231 0.2063451
000250 db 8f 19 bd a1 ce a2 be d3 fa 44 be 54 73 cf bd
       -0.037490707 -0.3179827 -0.19236307 -0.10129419
000260 46 e3 20 be 1c 28 43 be 5d a2 42 be d6 d2 01 bf
       -0.15711698 -0.1905827 -0.19007249 -0.50712335
000270 28 3a b4 3e 3f a7 77 be 4d 07 83 3e 3c d7 30 3f
       0.3520062 -0.24184893 0.25591508 0.6907842
000280 2a 9e 19 3e 7a 32 b4 be 87 84 dc be d3 15 8f bd
       0.15001741 -0.3519476 -0.4306986 -0.069865845
000290 1b a9 96 be 9a e7 09 be 0b cf f9 3d 61 12 d4 be
       -0.29425892 -0.13467255 0.121976934 -0.41420272
0002a0 10 cb 49 be 40 80 6f 3d 9f 66 9c be 6a ed 2d 3e
       -0.19706368 0.058471918 -0.30547044 0.16985098
0002b0 c0 96 74 be 4a 47 0e bf 01 87 ee 3e a9 12 ce be
       -0.23885632 -0.5557753 0.46587375 -0.40248612
0002c0 2b 3e 88 be 58 27 fd bd 93 b2 97 be d4 bc 51 be
       -0.2660993 -0.1236102 -0.2962843 -0.20482188
0002d0 cc e6 bd bd 02 8d fe be dc e2 d1 3c a5 b2 af be
       -0.09272537 -0.49716955 0.02562087 -0.34315982
0002e0 82 36 fa 3d 34 af 00 3e 1c 04 f3 be 11 81 73 be
       0.12217428 0.12566835 -0.47464073 -0.23779704
0002f0 9d d5 1d be e4 78 dc bd 9c 53 bf bb 58 3e 82 be
       -0.15413518 -0.107652456 -0.0058388244 -0.2543819
000300 fd b6 ba be 0d d4 44 bd 4c 1e ff bd 6b 52 99 be
       -0.36467734 -0.04805379 -0.124569505 -0.29945692
000310 77 bb 19 be e2 0d bc 3d a4 bb 0f be 7e a3 a4 3d
       -0.15012918 0.091823354 -0.14036423 0.08038996
000320 ce e8 9f be ad 7a 2d be e8 69 30 3e 08 27 7b be
       -0.31232303 -0.16941328 0.172279 -0.24526608
000330 91 82 86 be b5 35 0f be fe 8f 5b be 26 56 3f bf
       -0.2627149 -0.13985331 -0.21441647 -0.7474083
000340 d6 c8 84 3d 22 86 f9 be 2e 2e 20 be 5b 83 e3 3e
       0.06483619 -0.48735148 -0.15642616 0.44436154
000350 cd 57 c6 be 0d 08 84 be 5e 25 90 be f4 df 75 be
       -0.38738862 -0.25787392 -0.2815351 -0.24011213
000360 4d 79 80 3d 7a 11 93 be 59 cc 1f bf b3 ce 3d be
       0.06273136 -0.2872427 -0.62421185 -0.1853588
000370 03 66 81 3e 8d a1 30 bd bf 78 d7 bd df 69 5d 3f
       0.2527314 -0.043122817 -0.10521077 0.8648967
000380 44 2a 95 be 7f 32 b2 bd dc 27 c9 3d 10 0a 97 3e
       -0.2913381 -0.087010376 0.09822056 0.29499865
000390 9d 9a e0 be 6d b5 81 be 67 74 9d 3d 4e a4 08 bf
       -0.4386796 -0.2533373 0.076882176 -0.5337571
0003a0 f9 76 1a be 5b db 21 3f 91 b7 06 bf 03 18 af 3e
       -0.15084447 0.63225335 -0.5262385 0.34198007
0003b0 6d cc 98 be f5 22 03 bf 10 f8 81 be 24 ed a9 be
       -0.29843464 -0.51225215 -0.2538457 -0.33188736
0003c0 22 a0 31 bd 75 4d 23 bf 13 4f 9b be 4a 57 e4 bd
       -0.043365605 -0.63790065 -0.30333766 -0.111494616
0003d0 35 0b 48 bd b9 b8 d0 be 90 35 41 3c 86 0d 9f be
       -0.048838813 -0.40765932 0.011792555 -0.31065005
0003e0 75 85 ee 3e 20 95 8d 3e 50 54 bf bd f3 53 08 bf
       0.46586195 0.27652836 -0.09342253 -0.53253096
0003f0 86 cc 25 bf 97 71 81 bd 59 ca 8f bd 11 f0 e5 bd
       -0.64765203 -0.06320494 -0.07021017 -0.1122743

bias f4 [64]
000000 49 09 d4 3d 99 1e b5 3d 8d e5 85 be a7 c0 95 bb
       0.103533335 0.08843727 -0.26151696 -0.004570085
000010 19 af 0f 3e f0 df 1b bf d2 3a 2a 3e 27 34 6d bd
       0.14031638 -0.60888577 0.16624 -0.057911064
000020 25 ff 98 3d b7 64 58 bd 7b 24 57 3d 7e 11 19 3d
       0.0747054 -0.052830424 0.052525025 0.037370197
000030 e4 cc 3d be 43 23 44 3e bd 67 d7 bd fb ed 0b be
       -0.18535191 0.19154076 -0.105178334 -0.13665001
000040 51 1b 22 be 07 8d 3d be 82 55 5c 3c a4 ec 2d 3c
       -0.15830733 -0.18510829 0.013448121 0.010615502
000050 47 68 8a 3c 75 0f f1 be 13 bd 73 bd 7f f5 b1 3e
       0.016895426 -0.47082105 -0.059506487 0.3475761
000060 36 0f c5 3d d9 8c 47 be 53 6b 1b be 5f 3b f6 3c
       0.09622042 -0.19487323 -0.1517766 0.030057607
000070 25 32 3d be 80 e1 4d bd 55 0c af 3e a3 cb b4 3d
       -0.1847616 -0.05026388 0.34189096 0.08827903
000080 fb 83 d0 3e c7 41 38 bf 86 98 5f bd 5c b6 5e 3e
       0.40725693 -0.7197537 -0.054588817 0.21749252
000090 17 2b 93 bd 10 6c 87 3c a1 f8 b5 3e a6 e1 d9 3d
       -0.07185953 0.01653102 0.3554125 0.10638742
0000a0 a5 f1 23 3e 2b 19 33 be 39 0c 4a 3e f7 36 a4 3d
       0.16010149 -0.1749007 0.19731225 0.08018296
0000b0 a4 b2 f1 bd 0e e5 0e 3c 31 d9 9d 3d 35 a0 12 3e
       -0.11801651 0.008721603 0.077074416 0.14318927
0000c0 04 ca da 3d 65 d0 4d bc b0 bf 04 be ad ef 10 bf
       0.10683063 -0.012561892 -0.12963748 -0.56615716
0000d0 f3 61 9b 3e c8 f7 3e bf ba a8 7d 3e f9 78 f5 be
       0.30348167 -0.74596834 0.24771395 -0.47943857
0000e0 b0 f8 fd 3c 86 57 32 3e ee 4b 28 be 43 fc a4 3d
       0.031002373 0.174162 -0.16435215 0.080559276
0000f0 31 56 d9 3d 18 da 71 be e3 a0 d7 b8 cd 99 31 3e
       0.10612143 -0.23618352 -0.000102819664 0.17343827
