landmark/results/IMDBMulti_70/IMDBMulti_70_minvaild.pt (torch, 281381 bytes, 6 tensors)

weight f8 [128, 140]
0	0xbfb2914a7c142741	-0.07252946404710504
1	0x3f4c34a531f8e234	0.0008607679955679516
2	0x3fa8359f6631e19c	0.0472841083764621
3	0x3fa3437f6ab03f2a	0.03762434174870884
4	0x3fab0018e7e359a2	0.052735117251063515
5	0xbf9322cc2027c9be	-0.0186874289156067
6	0x3f87d3f8a9cbdf03	0.011634771997236287
7	0xbf75d21c102e1edf	-0.005327329275025965
8	0xbfa347c434bd104f	-0.03765690940647969
9	0xbfa10983288388e3	-0.033275698371441974
10	0x3fb38305c3f14ed9	0.07621799501185524
11	0xbfaa230cb81cecae	-0.05104865787003497
12	0xbf923326f0ae4b71	-0.017773254814140885
13	0x3fb20b4675a86586	0.07048454639916288
14	0xbfaafc84b82524cf	-0.05270781276574043
15	0xbfb446e13eddf96f	-0.07920654091683386
16	0xbfb464f34ce5d03e	-0.07966538073907345
17	0x3fb2596ecfd46d30	0.07167713712663182
18	0xbfa6849e60bcfc65	-0.043980550106873996
19	0x3facc1ce0ffb1f9d	0.056166114283370684
20	0xbf9a37e05455e406	-0.0256037761186896
21	0x3f80447998abc1ca	0.007943105670592216
22	0xbf90453445589e1b	-0.015888993008188117
23	0xbfb497e140a59b7b	-0.08044250324529216
24	0xbfb3c23a4ce751d5	-0.07718243005303489
25	0xbfb194e319542c08	-0.06867808693293409
26	0x3f9a729909dd16af	0.025827780940082586
27	0xbfb2fccbeceae483	-0.0741698697483049
28	0x3fb0391de3f189a1	0.06337153258349427
29	0xbfb04669ec079786	-0.0635744286770131
30	0x3f9a5d00d685df63	0.025745404332581667
31	0xbf766706d786ca48	-0.005469347692655342
32	0x3faec237a6221099	0.06007551100722814
33	0xbfae5f4a6057a695	-0.059320759068055263
34	0x3fa2eff7ffb448d7	0.03698706623448949
35	0x3f905108a15811d0	0.015934119079263287
36	0xbfa968bd39be1bb5	-0.04962722139230583
37	0x3f831ee18cf8ed6e	0.009336244692454723
38	0x3fa2f4a0e62e3a5c	0.0370226174337531
39	0x3f81ff6f98f4e5d4	0.008787986617437328
40	0xbfb1083334b1d5bd	-0.06653137241831693
41	0x3fb18d5eaf666f87	0.06856338293294871
42	0xbf822a6824e995d3	-0.00886994707725367
43	0xbfa3df6b34a8f59d	-0.03881392495939482
44	0x3fb270840b62cd48	0.07202935483910722
45	0x3f9ae0ced56231f2	0.026248199247264688
46	0xbfa39fe4538e5174	-0.03832925338716367
47	0xbfb2106b5c0d2d60	-0.07056303975439482
48	0x3fb21bbfb317ffe8	0.07073591349035235
49	0x3fa2cb154b37446f	0.036705651694895695
50	0xbfa67bcf5b4ed377	-0.04391334523771822
51	0x3f8f57c76d1f8072	0.015304143922492328
52	0x3fa87c0813aa5b62	0.047821285629814594
53	0x3f7c26f731763c3d	0.006873097990491903
54	0x3f7cde792e693348	0.007048104633736348
55	0xbfb278e41c11ab19	-0.07215715108183608
56	0xbfb63f0f0ce961a0	-0.08689970078683595
57	0xbf8592aceb55175f	-0.010533667499327213
58	0xbfb0fffc9a5b8728	-0.06640604752058421
59	0xbfb5384a793fc037	-0.08289018116170231
60	0xbf80bc76890eaa17	-0.00817196470037111
61	0xbfa7b0a6c641fa20	-0.04626961870325297
62	0x3fa6251279be05e0	0.0432515882121256
63	0xbfb345359eddf96f	-0.07527480248061179
64	0xbfa7583389f525e7	-0.04559479769757129
65	0xbfb10e923786e57d	-0.0666285882533852
66	0xbf5dc58baa116815	-0.0018171180638746388
67	0x3fa3563c8665fb6f	0.037767306715060005
68	0x3fa77085776053b0	0.045780344793605265
69	0x3f9610c44fbfa34c	0.021548335425822615
70	0xbfb6379c662e1706	-0.08678605551366667
71	0xbfaae09dc275686c	-0.05249493597757823
72	0xbfa1983e11c01db2	-0.03436464277916275
73	0xbf5c51104e7c3b4f	-0.0017283114665962056
74	0xbf9e3cb338b6d478	-0.02952842744499093
75	0x3faccde6d3a4b6b9	0.05625840505159147
76	0x3fadcc27b3107382	0.05819820462077187
77	0xbfa219d5d5f03807	-0.03535335766365227
78	0xbfa6b13822cbb9c5	-0.04432082581284961
79	0x3faab6a1da40de63	0.052174623386630946
80	0xbfad71480c5e7525	-0.05750489378918137
81	0xbf868ba511509f68	-0.011008538809690285
82	0xbfb379fa8dc05529	-0.07607999764180264
83	0x3fb0ddd16e964647	0.06588467550161524
84	0x3f982c48074be365	0.023606419988002076
85	0xbfb05c5f3ba37376	-0.06390948492066947
86	0xbf7452e9e6117207	-0.004961885134517014
87	0x3fae2baee47f55b2	0.058927026169537725
88	0x3f89faef3d4592a0	0.012685650880208954
89	0x3fadea47c8f6f293	0.05842804268056514
90	0xbfadbe08a39caf2b	-0.05809046742646581
91	0x3f86468af8fb4233	0.010876737330733998
92	0xbfa96fe6a0adc7f6	-0.049681861032595906
93	0xbf9f1727e855bb9e	-0.030361770206066667
94	0x3f9eb4517c8a7413	0.029984734751099817
95	0xbfb06d1030391990	-0.06416417290993182
96	0xbf9588a104bfaec9	-0.021029010691491466
97	0x3fa37f073e42f69f	0.03807852396992683
98	0xbfadae9f0c5427d5	-0.05797287965295054
99	0xbfa2effabc58d364	-0.03698714780003945
100	0x3fac04b71d34463b	0.0547234748029379
101	0x3fb17c2341fe9783	0.06830044137185891
102	0xbfb32e6c20de43d9	-0.0749270992512402
103	0x3fadeec5647f9ffb	0.058462303655517155
104	0xbfabc7181b7e40f8	-0.05425334296808332
105	0xbf663f45b6bc2119	-0.0027157174680533355
106	0xbfab3509c1bb8be4	-0.0531390236845011
107	0xbfb48a817168cbbd	-0.08023842829497503
108	0xbfa6fedd01c5109b	-0.04491320273021523
109	0xbf76ab16e63af4dd	-0.005534257364783826
110	0xbf806998d7da488b	-0.00801391037683554
111	0xbf5b319b15bd57ba	-0.0016597761632133183
112	0xbf551df8c69ce3c6	-0.001288884110591791
113	0x3fb339690e962c27	0.075094762860474
114	0x3f8dc29a172c638b	0.014531329948612079
115	0xbfb65a19213875ef	-0.08731228886650631
116	0x3faacf1aa1cfa68d	0.0523613283656462
117	0xbfa8b0c6ec59545e	-0.048223701811971095
118	0x3fb107905f1e1a16	0.06652166673857382
119	0xbfb1702371688207	-0.06811734694247927
120	0xbfb4e5e6c6d506b7	-0.08163301805782451
121	0x3fac9fb11d2d7cc6	0.05590585213826098
122	0x3f92bef0d8ee9a87	0.018306506386262213
123	0xbfb648d160e15f09	-0.08704861273997379
124	0xbf67ab8a9e2cd626	-0.0028894145374589618
125	0x3fa65b69b3a02b0a	0.043666175057373094
126	0x3f894536b90b366e	0.012339046022499658
127	0x3fa6e370db6bfb31	0.044703985962760824
128	0x3f6a54e252be8a6d	0.003214304006136806
129	0x3fad369e6f4802a4	0.05705733402647198
130	0xbfae7eb3c92d92a6	-0.059560411746848715
131	0x3fb2bd7c5b6822b7	0.073203823391064
132	0xbfb4013e4497dd49	-0.0781439702476422
133	0x3f5063e1972321b8	0.0010003760367443947
134	0x3fa0ff7ba866da56	0.033199180895668576
135	0x3fb33f89d09f5123	0.07518826812094352
136	0xbf9815af84e58069	-0.02352022408138091
137	0xbf92cda20681f0aa	-0.01836255230635745
138	0xbfa5945c1c309b65	-0.04214752048601759
139	0x3f561987f51f31de	0.0013488605222732246
140	0xbfb4e5b6129f022e	-0.08163011507623061
141	0x3f9e29716dbffc37	0.029454967807392953
142	0xbfb613d99b1ddee0	-0.08624038731602068
143	0xbfaa2fbfdc17519e	-0.05114554940851977
144	0xbfa19a04055181b0	-0.03437817158624357
145	0xbf076f54a2376fd1	-4.4698496164591e-05
146	0xbfb2bdb6d4f2613f	-0.07320730875870128
147	0x3fa233d27b3530f0	0.03555162195206829
148	0xbfa1d2218ffb3bf6	-0.03480629808984041
149	0xbfa81f922c6787ca	-0.0471158675388917
150	0x3fb22569ed5e501d	0.07088338894965358
151	0x3faadb077aaf10b4	0.052452310300880184
152	0xbfb2aa3c132dfe5b	-0.07291007488492467
153	0xbfa66cf460094c82	-0.043800007556137124
154	0xbf9f58c86a602516	-0.030612117283486638
155	0xbf9b3b56ab34cfa8	-0.02659354610405243
156	0x3f88263aa75470b2	0.011791666251660924
157	0xbf8cf088396ff30e	-0.014130653622481695
158	0x3fb3965916b54602	0.07651287845990143
159	0x3fb3e973ea3dc5ba	0.07778095692426393
160	0xbf8ee0f63bbcdb56	-0.01507751817517337
161	0x3f50089234cad43b	0.0009786060137859781
162	0xbfa070667b6dcd8c	-0.032107546393400715
163	0xbf8d8e9704f6ebc0	-0.014432124938016488
164	0x3fa3fc59c9cb5212	0.03903465832050669
165	0xbfa6e29a7b44b3e6	-0.044697597072037173
166	0x3fb28378e8b10799	0.07231860810227743
167	0xbf9fdf808c583765	-0.0311260305079978
168	0xbfa1f404a550ef4c	-0.03506483572024752
169	0xbfb16c82529b0f5c	-0.06806196705570983
170	0xbfa336f83ffb3bf6	-0.03752876072905302
171	0x3fb0162a793d1423	0.06283822498251417
172	0xbfb441f75b1da040	-0.07913156485085526
173	0xbfa4ab9e2657cef2	-0.040371839695493864
174	0xbfaf0c4d4655c735	-0.06064073070127877
175	0x3fb22757622e7c2f	0.07091280123721398
176	0x3fb1fae544e63f68	0.07023461277117138
177	0x3fb16f774ff632d6	0.06810708715620292
178	0xbf8ae2e398c15e07	-0.013128069018576672
179	0xbfa691229613fd37	-0.044076042957380705
180	0x3f729b50eca370b0	0.0045426522358093385
181	0xbf88f3bc8a9d2f3a	-0.012183640461124069
182	0xbfb4e1bdd1236e3c	-0.08156954151075352
183	0xbfb1e3ee0ff8137c	-0.0698841847407276
184	0xbfb29bb931236e3c	-0.07268865060489643
185	0x3fa36898c40b2874	0.03790738480673009
186	0x3f83f5da75dc6f81	0.009746271821817977
187	0x3f8006658b5ae422	0.007824700656202725
188	0xbf88a31b48ac628f	-0.012029851107898252
189	0x3f9f020b402f4919	0.030281234543346167
190	0x3fb3a54dc3160aa9	0.07674108517498247
191	0x3fa7d5c28048e715	0.04655273262001295
192	0xbfaf13b7fd8a6b10	-0.060697316837112436
193	0xbf8be91518bd186a	-0.013628163163627433
194	0xbfb1da21022822d1	-0.06973463347106736
195	0xbfb3650f32abd2e6	-0.07576079356278917
196	0x3fb24c3b24e84410	0.0714756932359395
197	0xbfb680c17a856daa	-0.08790215722313258
198	0x3f9bcaa4805012a6	0.027140207606879095
199	0x3f90307ade959941	0.015809936366531167
200	0x3fa759088ec3ff38	0.045601146151965144
201	0x3f690a27e61e9541	0.0030566005015823243
202	0xbfac5481919e16a9	-0.05533223059232501
203	0x3f81d498299660a1	0.008706272858759969
204	0xbf7da9b86b7faaf9	-0.00724193610219958
205	0xbfb3722dc64420f7	-0.07596098032457009
206	0xbf8da975903225b8	-0.01448337408352783
207	0xbfac6fa33f5ad96a	-0.055539227946996686
208	0xbf746262f7dc4848	-0.004976641268301725
209	0x3fb1c7f0cd604d64	0.06945710195605198
210	0x3fad5a74d0454f34	0.05733075182311467
211	0xbf996970bea02b6b	-0.02481628573881826
212	0x3fa8267b3cb70fd7	0.0471685897460074
213	0x3fa19a45b4bc7271	0.03438012915851097
214	0xbfaa44086fb942c9	-0.05130030025305172
215	0xbf9d6ac0bf8b7d49	-0.02872754258248492
216	0x3faa49542a7675af	0.05134070413917457
217	0x3f8779560e9b4861	0.011461899109608877
218	0x3f8a326a5a420091	0.012791472320032223
219	0x3fa59d2afc9c6b1f	0.042214721046738506
220	0x3fa66bce104916d7	0.04379123638913789
221	0x3fb415228821fd1d	0.07844749282411496
222	0x3f9a53f0ee9cd7e9	0.025710835040818756
223	0xbfa287cae970d020	-0.03619226550691246
224	0xbfa2e1678fb73823	-0.03687595013944669
225	0x3fa8db04cf10d06a	0.048545980717251094
226	0xbfae58da63428ebf	-0.05927164518041427
227	0xbfa9a7ebc8b19404	-0.05010926079629743
228	0xbfb0b28db5bb6f75	-0.06522451102085632
229	0xbfb5d5f6694c4837	-0.08529605932952299
230	0xbfa7371895d83947	-0.04534222439916618
231	0xbfb68804e1a32ad5	-0.08801298626637373
232	0x3fa2c7d9f9b46fba	0.036680995685145004
233	0x3fb1688ca689e4a0	0.06800154748806841
234	0x3f8a0a80b2d4b1fc	0.012715344865307003
235	0xbfb4530e03285366	-0.07939231469238237
236	0x3fb24e44286985a3	0.07150674807191719
237	0xbf8eaffa6d1963ba	-0.014984089331095397
238	0x3f7f2996421fd1bc	0.007608019777752547
239	0xbf9bea89bf7b10d4	-0.02726187926488495
240	0x3fa1f5f866908025	0.035079729576182474
241	0xbf7c6b6738610054	-0.006938365177177348
242	0xbfa11d32f34efb7c	-0.03342589588236586
243	0x3f483145cf249048	0.000738295637607419
244	0x3fb3dce4dbab1bb0	0.07758932459829171
245	0x3fa097b9e67a5cb0	0.03240757883502832
246	0x3f9bf2eab970ce70	0.027293841904067084
247	0x3fa4a3f7068a7d16	0.04031345324369277
248	0x3f6b95534b383a4f	0.003367102320914562
249	0x3fabe146fcb403ec	0.05445310435062098
250	0xbfaf4d760f3265bf	-0.06113785682209593
251	0x3fb0d54190bc9b7b	0.06575403007137297
252	0xbfa1d8898175f239	-0.034855172208129344
253	0x3f716c65741d83d0	0.0042537653951919135
254	0x3fb1ca6ce74506e6	0.06949501653891907
255	0xbf99f25cd681dde8	-0.025338602631078816

bias f8 [128]
0	0x3fabe3b5254f6b5d	0.05447164612242859
1	0xbf9fe7e2dc3ffcf6	-0.0311580130510238
2	0x3fc621cb0d4fce52	0.1729062857626667
3	0x3fb80fcd43622b08	0.09399111647705294
4	0x3f80756d1e6fbdbb	0.008036472789142537
5	0xbfa07fb6c0000000	-0.0322243794798851
6	0x3fbc9590f071b141	0.11165719862191727
7	0xbfa1f1ad022e9243	-0.035046965137813156
8	0xbfc014a669f1dedd	-0.12563018963896058
9	0xbfa4d55ae0000000	-0.04069026932120323
10	0x3f3a1e5a60000000	0.00039853769703768194
11	0x3faaf4d3c706165c	0.05264913372506605
12	0x3f6f58b8600a5cf4	0.0038264847829158014
13	0x3fa2ece389a66330	0.03696356826112035
14	0xbfbfa2689db6f6a9	-0.12357190943199704
15	0x3fb2c33ac287a7d8	0.07329146622910743
16	0xbfae251d7e135878	-0.058876916542133395
17	0xbf95c134bdcf71f1	-0.02124483498106317
18	0x3f92e587c28bf445	0.018453713654697407
19	0x3f9cdb6e8e819369	0.02818081612385318
20	0xbfd2e851cb73b6ec	-0.2954296576343569
21	0xbf9d9c13d320cbd0	-0.028915700684773615
22	0xbfbba997a38bb0db	-0.10805652373136658
23	0xbfbee8f7eb6e05ae	-0.12074231622502538
24	0xbfb33eeb63726e99	-0.07517882516770626
25	0xbf821685998d0483	-0.008832019566059173
26	0xbf851e3acc9a893b	-0.010311564797409125
27	0x3fb440640a5dd7dd	0.07910752537813388
28	0xbf98671a7fc4f12f	-0.023830808685702805
29	0x3fa232df80000000	0.03554438054561615
30	0xbfd6d39d916acd33	-0.3566659851159841
31	0xbf6ca9ff16600034	-0.003499029367048956
32	0x3fad3c4abc2c057f	0.05710061594983084
33	0xbfb97a4f85608a4c	-0.09952256208684068
34	0xbfb360e000000000	-0.07569694519042969
35	0x3fb54794c0000000	0.08312349021434784
36	0x3f80e505f58ae827	0.008249327236047389
37	0x3fb2afe61dcc247f	0.07299650409199109
38	0x3f96e0d9a0000000	0.02234211005270481
39	0xbf95b6837fc4bd4b	-0.021204046891566446
40	0xbfa415b94eef9891	-0.039228239904148705
41	0xbfc37c608301febb	-0.15223318478455447
42	0xbf9cd671590b8a92	-0.02816178422916466
43	0xbfbbb45e2ef424a0	-0.10822094580011532
44	0x3f613afeaa9f5f89	0.0021033262209861387
45	0xbfc31f311999647b	-0.1493893980976145
46	0xbfb6f51823b2f6d6	-0.08967734214362663
47	0xbf690eb4ae2d8931	-0.0030587700761525384
48	0xbfa1e19f3e0d9570	-0.03492448456271802
49	0xbfa8aabbab8c1e6d	-0.04817759007533771
50	0x3f86c2a8d74dd27d	0.011113471098476818
51	0xbfbfe1701d1d4426	-0.12453366003798347
52	0xbfa167b548276942	-0.033994355256896217
53	0xbfd0fd810263778c	-0.265472652752458
54	0xbfb55bb138fcde9b	-0.08343036309531231
55	0x3fa4dda7b92acbf7	0.040753594735541236
56	0xbf8b529b80000000	-0.013341154903173447
57	0xbfc26fae6ed6ec46	-0.144033245201941
58	0x3fae562f1540a699	0.05925128111296125
59	0xbfc1087c360df173	-0.13307144774797627
60	0xbf9c63765fc108ff	-0.027723168939936645
61	0x3fbab1ca1f251fda	0.10427535305382155
62	0x3fa43fed159d75f7	0.039550217522201274
63	0xbfa3dddaa7ecbcb1	-0.03880198764670107
64	0x3fcb1039ad0b7f83	0.211432656759822
65	0x3fd162629c2b00e7	0.2716299557760195
66	0xbfb2de5fe7091968	-0.07370566740528306
67	0xbf8a8242c0000000	-0.01294376514852047
68	0xbf732971395c8e2f	-0.004678194314496716
69	0x3f808b2abde3266c	0.00807793991079394
70	0xbf9438725b30c84d	-0.01974657708724008
71	0x3f9b17dbd5ea0610	0.026458201342853427
72	0x3fc452c7c5952aff	0.15877625606147913
73	0xbfb6c444e81506cf	-0.08893232980792763
74	0x3fa937512337ced1	0.0492501597872469
75	0xbfa87b5c107ed0e4	-0.0478161592613178
76	0x3fa279824f1db2c5	0.036083290250507306
77	0xbfadaea6865ab243	-0.0579731024748509
78	0xbf9fe3d12edaefd2	-0.031142490849319256
79	0x3f8176d7d514c1de	0.008527456464975932
80	0xbfb6733936cbbd31	-0.08769567096509402
81	0xbfae316f39a3c215	-0.058970905099958205
82	0xbfb687395dbcec0f	-0.08800085581326321
83	0x3ff06d6d1df8a6cd	1.0267153902772634
84	0x3fb46f8453c55262	0.07982661290345441
85	0xbf9e6db98c97157e	-0.02971544190019903
86	0x3fa0dae695eaaf9a	0.03292007999456743
87	0x3f9f53dac6176842	0.03059331735662619
88	0xbf97a2ef38b916f1	-0.023082483136270097
89	0x3fb086a9438fa394	0.06455476664963405
90	0x3f9d818400000000	0.028814375400543213
91	0x3fc800326b8afd45	0.1875060105430554
92	0x3fb26051fa3691f7	0.071782229983519
93	0xbf9a8596c0000000	-0.025900226086378098
94	0xbf7d31e87ef24a60	-0.00712767428116709
95	0x3fac68d66804d783	0.05548734683763625
96	0x3fc15f0841d5992b	0.13571265425270815
97	0x3f705a80c0000000	0.0039925603196024895
98	0xbfcec8bf0642f85b	-0.2405012875150899
99	0xbfcd96475e9cc304	-0.23114864463561713
100	0xbf811750e0000000	-0.008345252834260464
101	0x3fa9fe6ab1880ee0	0.05076917092449462
102	0xbf93c1e440000000	-0.01929432526230812
103	0xbfbecf44d54ff4ed	-0.12035017211742956
104	0xbfd88661f4fe6523	-0.3832020657078649
105	0x3fb236497fe9c8a3	0.07114085553056042
106	0x3fb391c87df49aac	0.07644322466931425
107	0x3f9a2ce0d1567af3	0.02556182172485939
108	0xbf9b2b1646ff63e7	-0.026531551440573422
109	0xbfbab8d44fc6f89b	-0.1043827719467764
110	0x3f94342dd9c9cfdf	0.019730297487015377
111	0x3fa4efe373a2d3ff	0.04089270388195842
112	0xbf970895780dc1cf	-0.022493682339190187
113	0xbfa5388ccd0e9368	-0.04144706729065356
114	0x3fbc85a833c0409e	0.11141444457485014
115	0x3f5e19e4d0926a0d	0.001837228252304815
116	0xbfa47e92e4a40448	-0.04002818146728565
117	0xbfb5ca0805c6e4f7	-0.08511400357282982
118	0xbfbfb2f34a278c6b	-0.12382431564724221
119	0x3fa2547409b8e0ba	0.035800577341832576
120	0xbfa88d735d2ea8f8	-0.04795418274382429
121	0xbf90144068473fe6	-0.015702253689425925
122	0x3f8bbb0109d34564	0.013540275680869747
123	0x3fab3f8ab2db2be0	0.053219160397553145
124	0xbfd4794fad0098cd	-0.31990425009497586
125	0xbf93d1048503f2ad	-0.019352026575676962
126	0xbf85a711447b5be4	-0.010572562124634595
127	0xbfaab5e513face52	-0.05216899746792748

weight f8 [1, 128]
0	0xbfa6814686766887	-0.04395504371059738
1	0xbfab353d78d07127	-0.05314056491644897
2	0xbf95d535269d63c4	-0.02132113502679879
3	0xbfaaa82ab99c7267	-0.05206426158676863
4	0x3f91f39965706a73	0.017530819717743684
5	0x3f9e3faef4778e8c	0.029539807959635442
6	0xbfb60966e961e2df	-0.08608096311389656
7	0xbf740982534c07c3	-0.0048918810687172435
8	0x3fa006a607e01d9b	0.03130072446952711
9	0xbf942c749860abbf	-0.01970083408393086
10	0x3f9db6e0496cb193	0.029017929536324493
11	0x3faec3ce7d9f73fa	0.06008763583643169
12	0x3f89845ead244999	0.01245950666319544
13	0xbf8eafe0eca22d8c	-0.01498389932773738
14	0x3fa1bf7372e79c58	0.034663779999214384
15	0xbfa88c6c8311f88b	-0.047946349143772236
16	0x3f92b1d96acb0023	0.018256566184163724
17	0xbfa98d7e4ad17587	-0.04990763343151188
18	0x3fb70631bad9e904	0.0899382668666569
19	0xbfb547215ceb7d1d	-0.08311661261131005
20	0xbf961d23df52674b	-0.021595535760389677
21	0xbfba74fe6ad625a9	-0.10334768398583684
22	0xbfa1daf0fdc1ec56	-0.034873515106448025
23	0x3fb47d4ba0cdcd85	0.0800368564212502
24	0x3fa7d02784580f97	0.04650996675994106
25	0xbfb88908840c0345	-0.09584096168329122
26	0x3f6ad1a7bacf65e4	0.003273799512027097
27	0x3f93e0cf18dca035	0.01941226567501549
28	0xbfaab6d4150edae8	-0.05217612034851077
29	0x3fbe6fbb1c9f9815	0.11889237831891848
30	0x3fa9c2fd5e93aed4	0.050315778536825256
31	0x3f9ed3b654414402	0.030104493038667364
32	0x3f9cf757157c2cf9	0.0282872778762284
33	0x3fb61d35bebedc29	0.08638320834039405
34	0xbf8d1d0eb2a105d4	-0.01421557886726791
35	0x3f952405e712d8c2	0.020645229557623386
36	0x3f9d39638cf571a7	0.028539233663978838
37	0xbfaab5e6d515885f	-0.05216904975056091
38	0xbf50dc05fd9297ef	-0.0010290201665070738
39	0xbf851ebf497b54f8	-0.010312551908479226
40	0xbfa0e84ee3594e0f	-0.03302237057928547
41	0x3fb1ac13659c35ea	0.06903191786496846
42	0x3fa911f7da8b5c40	0.04896521132257492
43	0x3fa1e92f9a403691	0.03498219259209379
44	0xbf7d4cda9c52e9d2	-0.007153371761143794
45	0x3f93a90e525a5e69	0.019199584747723018
46	0x3fae6d1f91d3141d	0.05942629485210935
47	0x3fb03bd49d3f3875	0.06341294135128968
48	0x3f8144439818830e	0.008430984572500157
49	0x3f95cb1cabeafb4f	0.021282623284373966
50	0xbfb263cda31fc0be	-0.07183537704964046
51	0xbfbd10f209c2dc71	-0.11353981722173657
52	0x3f9efebd9a4ddbe3	0.03026863340661724
53	0x3fa6d5180bc901f8	0.04459452766286981
54	0xbfa231848d699706	-0.03553404070116355
55	0xbfaf51e94d5cc26b	-0.061171808904309476
56	0x3fceda135c78edc9	0.2410301400685582
57	0xbf96438f64a1d449	-0.021742096440409395
58	0xbf98a4ef76fb186b	-0.024066678654684297
59	0xbf9343a3e29c709b	-0.018812714296573146
60	0xbfab80ef93b8afc5	-0.05371807745208871
61	0x3f8c434c94de9d27	0.013800237935198979
62	0xbf9761f23cc93991	-0.02283457275398743
63	0xbfaf344e27a9eb8f	-0.06094593271423953
64	0xbf995227a1249119	-0.024727458200815542
65	0xbf684afac40407ba	-0.002965440537196576
66	0x3fa2d874eb1d5be1	0.036807683659098485
67	0x3f9d6ecbd36f5043	0.02874296644206732
68	0x3fa3d9d064158afc	0.038771164147666654
69	0xbf95156fa6cf82f5	-0.020589584881125018
70	0x3f8dd97dec67071f	0.014574989106111822
71	0xbfa1a59988098142	-0.03446655068978767
72	0xbf93119bd208a8cc	-0.018621859259078374
73	0x3f9c958fbb5eabf7	0.027914281664987297
74	0xbf7e95e8dce87043	-0.007467183705127725
75	0x3fa53c08be48f111	0.04147364924253528
76	0xbfa04d89e77342ba	-0.03184157324142718
77	0xbf9110255cd19402	-0.016663154401971532
78	0xbfa6466fd4f0b6a0	-0.04350614046448453
79	0x3f9bc766eb780d90	0.02712784588039835
80	0x3fb14993c359cfca	0.06752894896800324
81	0xbfa387495cbbb923	-0.03814152962682928
82	0x3f953d1f94de2155	0.02074097963444051
83	0xbfb10288fe4178de	-0.0664449330083445
84	0xbfaaf5c6946ea7b8	-0.05265636979977678
85	0xbfb3a958ecfc3e5c	-0.07680278573774885
86	0x3fa37d7444bc5f2e	0.03806651438770668
87	0xbfa649d9e342af21	-0.04353218936134185
88	0xbfa23caaffea6bd9	-0.03561910985919043
89	0xbf9a651fcefde8d3	-0.025776383408335612
90	0xbf9cd3f0e5882ec1	-0.028152240762252093
91	0x3f44a7d40554bd2c	0.0006303582437449432
92	0xbf9eac5761904460	-0.029954305009657012
93	0x3f9bbd7a61c55be9	0.02708998891588613
94	0xbf85f6bf45b44ee1	-0.010724539103228849
95	0xbfa6967ba8e2548a	-0.044116844526038326
96	0xbfb4b784355e9b4a	-0.08092523863761616
97	0x3fa99844bb44f65e	0.049989841327698
98	0x3fa2dd2860f11660	0.03684354956980651
99	0x3fa450dbd27f827b	0.03967940277630518
100	0x3f856e0e1eab48f9	0.010463819800325501
101	0x3fa1cfbd144637df	0.03478804466713802
102	0x3fb8566f50a6d9f1	0.09506889075314696
103	0x3faf9d0421191c76	0.06174481300382066
104	0x3fa47d39952a12f7	0.04001789041379838
105	0x3f9c2a5e38e9a2bd	0.02750537130706009
106	0x3f8bd632f0e9b607	0.0135921458979409
107	0xbfa1f82febf8ff2a	-0.035096643023733456
108	0xbfaaef9fb3a660f7	-0.052609434776231305
109	0x3f8233765ed6cf36	0.00888721920896494
110	0xbf9c7e3497c019a3	-0.027825185548886144
111	0x3fad89db4338975d	0.057692386584945445
112	0x3f9665780fd81809	0.021871448485420362
113	0xbfb3dd0fc5de01d8	-0.0775918825220353
114	0xbf89b4b4a823a14c	-0.012551700001907883
115	0x3fa34c2389eeb28b	0.037690268123104685
116	0xbf9502feb04f3f4a	-0.02051923705204154
117	0xbfaba5151c2359f5	-0.053993854222131356
118	0x3f8ef8bdd3228e92	0.015122874265507211
119	0xbf76540d4cc7534b	-0.0054512519386278975
120	0x3fa5cfebdf80d037	0.04260193923292415
121	0x3faf24bf8fb25d78	0.06082724217520313
122	0x3f980807128e62c2	0.02346812296636603
123	0xbfa7c48c7126878d	-0.04642142182571183
124	0x3fa349584c6fc54b	0.037668952303543245
125	0x3f9220db98cb3575	0.017703467560570247
126	0xbf9da818c49abd85	-0.028961550712379065
127	0x3fb3aa366cb8bdfa	0.07681598810517434

bias f8 [1]
0	0x3faa2b5ee245a22b	0.05111214172467656

weight f8 [128, 128]
0	0xbfe25e8913cc83b7	-0.5740399729439706
1	0xbf993d087726b13a	-0.024646885178001933
2	0xbfc86f1356c29750	-0.19088975654920626
3	0xbfbcd6b4963f352f	-0.11265114467751823
4	0xbfc835fa9362ff90	-0.18914730259529877
5	0x3fcf20f6fc32c18d	0.24319350542419862
6	0xbfe0370b23554dd0	-0.5067191782094884
7	0xbfc5ea381c18bb71	-0.17121030208496849
8	0x3fd8350df05c0cb5	0.37823818657507086
9	0xbfc33e5b9cb5abde	-0.1503405108627182
10	0x3fc63aa9be68280b	0.1736652545662881
11	0x3fd955539832975d	0.3958329187683967
12	0xbfcb059e2fb0b2f9	-0.21110894516586834
13	0xbfd42c871c19e437	-0.3152177595544034
14	0x3fbd6d67a5b3f482	0.11495063586694879
15	0x3fa0a5fbe91887ce	0.03251635761650072
16	0xbfa673526078a185	-0.043848585392257035
17	0xbfc06f5886e82c75	-0.1283980044102894
18	0x3f8b20b81f321007	0.013246000720990038
19	0x3fd0b22b9caa890e	0.26087465571812707
20	0xbfd77598b6613a1d	-0.3665525227596918
21	0xbfc47b1bf16035d1	-0.16000699315956848
22	0x3fb25b3ba119220a	0.07170460398732117
23	0x3fd16718ce642683	0.271917535356444
24	0x3fc088b3e76ba289	0.1291718368513737
25	0x3fbf7a90f8017cad	0.12296396307782471
26	0xbf9c1685aded7d90	-0.027429665318206953
27	0xbf8ad1a30263c83a	-0.013095162878446687
28	0x3fd9885857637c9f	0.3989468434719558
29	0x3fe6101722fd1d0d	0.6894641574262167
30	0xbf9a2cb9477c10c1	-0.025561232555461503
31	0xbf864c8c9dc7e2f4	-0.01088819366940317
32	0x3faea1c7ba795a73	0.05982803489012136
33	0xbfb34fffffb8c0be	-0.07543945306020114
34	0xbfa16968bf7ffc70	-0.03400733316083737
35	0x3fc7758baba60bb8	0.1832747066619882
36	0xbfce5d56302e5add	-0.2372234092005873
37	0x3f8e9367a727a35d	0.014929590023670941
38	0x3f8eccebef416675	0.01503929447078465
39	0x3f9342d6b944d253	0.018809657152092218
40	0xbfce3684e4f324a4	-0.23603879145801898
41	0xbfb31c737b394ea0	-0.07465287931818887
42	0x3fae25b4f111c1ca	0.05888143007985354
43	0x3fce29a61fb70872	0.2356460242136254
44	0x3f55944c4ac639ab	0.0013170952835000842
45	0xbf8c29ec83285dba	-0.013751838448157073
46	0xbfbdd849605e28c8	-0.11658152201394778
47	0xbfb0fa02b39f19c4	-0.06631485829630096
48	0xbfd68f389cf297e4	-0.3524915249530507
49	0xbfcdb1f863d57fc5	-0.23199372172075364
50	0xbfb1944e71ff5878	-0.06866922648564067
51	0x3fc5b97593869708	0.1697222681370294
52	0x3fa3707c76b19d15	0.037967576493253365
53	0xbfc1c2b7c034e9e0	-0.1387548149594542
54	0x3fc9e1446d7d8115	0.20218711229518563
55	0x3fa3d92efbbfbbf0	0.03876635382754745
56	0x3fdfaaba004743b4	0.4947953226774715
57	0x3fc31a3642682a58	0.14923742525600647
58	0xbf9ee1130c721c33	-0.030155465731265884
59	0x3fcbffe75a28e672	0.21874706175167408
60	0xbfa6b7488b457347	-0.04436709117974274
61	0x3fbe8f8095d85945	0.11937717111900266
62	0x3f960adcb786dd2e	0.021525810910785363
63	0xbfe0644b5fbe6c5a	-0.5122429723736659
64	0xbfd5cc23675b11a6	-0.3405846127828006
65	0xbfd5fa301ba7da13	-0.34339525891064787
66	0x3fc1dd678ff80af6	0.13956923036320007
67	0xbfd69bc0885461c9	-0.3532563525527875
68	0xbfc82ee3099dd9b7	-0.1889308735805579
69	0x3fae675d76fa9cc3	0.059382363103674084
70	0xbfcf36a792a8d47d	-0.24385542546375297
71	0x3fd0489f785adb57	0.2544325518933212
72	0x3f6e3f3c76e5432f	0.0036922627397547795
73	0x3fb9c5cef5846867	0.10067456716606814
74	0xbfc37444b7eb00a0	-0.15198573093767198
75	0x3f7095f56a6352ec	0.0040492617174165794
76	0xbfc0f1badd08621b	-0.13237701218237494
77	0xbf9126f67d5f0526	-0.016750193979310123
78	0xbf9fcd1feb9856aa	-0.03105592608888822
79	0xbfda5a1145ac29c8	-0.4117472820659285
80	0xbfbf19ee4683d8e2	-0.12148942205007843
81	0xbfae0f2ca06f4788	-0.05870952089720932
82	0xbfb3a5cbff8bf5d8	-0.07674860943730921
83	0xbfdf11563d9ba4f8	-0.48543315903096085
84	0x3f99bbba2a2d1518	0.02513018495962624
85	0x3f9995ecef8d2846	0.02498598301034629
86	0x3fc92d490df5674e	0.19669449979374537
87	0xbfe15f3f7b6ece4c	-0.5428769503400388
88	0xbfc61ef8a2b9ac66	-0.17282016702242514
89	0xbfb4aba64aff42d8	-0.08074416476234647
90	0x3fcbcaea7dcc07d3	0.21713000433379523
91	0xbf99a78e0b5591c4	-0.0250532335679894
92	0xbfd428ae3c6553db	-0.31498294733074567
93	0x3fd22a2b20f2ec34	0.2838237592474713
94	0x3fa885c1e9fddfe1	0.04789548856109583
95	0xbfc6b5efc19e9779	-0.1774272628219327
96	0xbfdff62904008f66	-0.4993994273265713
97	0x3fe3412316650c80	0.6017013013264574
98	0x3fa92216bd157d05	0.04908820207742263
99	0xbfd0001125b3effb	-0.2500040882293885
100	0x3fa6cae3f903f709	0.044516681811712706
101	0xbfbd682086f19f17	-0.11487010283019249
102	0xbfda367f4ef7957f	-0.40957625114091195
103	0x3fcbc165176ab52d	0.21683944362067945
104	0x3fb96a9301464197	0.09928244382013528
105	0x3fb3196d1f4fbdad	0.07460672392311692
106	0xbf8c8b211bd20e90	-0.013937243138804761
107	0xbfcfae84936fc103	-0.2475133628754592
108	0x3fe4b94207f613a2	0.647614493893901
109	0xbfab36ae17785394	-0.05315155064105351
110	0x3fda0d1c4fd077c8	0.40705020708435
111	0x3fb959a61ad21b1d	0.09902418284228216
112	0xbfe11c4fbd25dd3c	-0.5347059912009295
113	0x3fca2cebbde44d86	0.20449587604580816
114	0xbfc29fa2ff7b47f8	-0.14549672579465756
115	0xbfb6fda8247ec04d	-0.08980799571031746
116	0x3fb3061cc06422f1	0.0743120164589859
117	0xbfcfb28aa43cfbcb	-0.2476361562675876
118	0x3fc202ba033cdd35	0.14070820959180144
119	0x3f9f469b28b94b2d	0.030542778359016132
120	0x3fd194edc5cbf552	0.2747148925407902
121	0x3fe0efd0f8d1dcf5	0.5292744502793584
122	0xbfd6a57d8eaa22b0	-0.3538507359703926
123	0xbfab92496e2ff0c6	-0.05385045499858303
124	0x3fab8521fce26b44	0.05375009738891959
125	0x3fd032778f210b4d	0.25308026292275515
126	0x3fd2196877332ece	0.282800785452065
127	0x3fcbf3e0a8e04661	0.21838005300428434
128	0xbfa41453757f6f74	-0.03921757516192673
129	0xbfcb88491562de40	-0.21509660286186438
130	0x3fc270ee0ea831e9	0.14407134738611596
131	0xbf8454cb8af03dc2	-0.009927358796658296
132	0xbf81272cc111e6ee	-0.00837550129130046
133	0xbfc2a50cb4092bb2	-0.1456619147378127
134	0xbfb7dd5e37d5f40a	-0.09322155821969616
135	0x3fd26ce78825e919	0.28789699836456034
136	0x3fc2c6a2d40eec35	0.14668689112099434
137	0x3fa98e143515b575	0.04991210124976934
138	0xbfc581f5f58551ee	-0.16802858818358807
139	0xbfca0b8d379b8998	-0.20347752776349348
140	0xbf950fe25b40ac10	-0.020568405933016065
141	0xbfb92a54e3b88b9e	-0.09830217895118529
142	0x3f83b08bc85232b8	0.009614078570188908
143	0xbfbb061e747c5b04	-0.10556211799517362
144	0x3f9efab79c512524	0.030253285327750082
145	0xbfd7b4c1ae82e932	-0.37040750543714573
146	0xbfc146cd95c98a21	-0.13497323812323805
147	0x3fc2a7f672a40f2b	0.14575081441591328
148	0xbfdcb20047636841	-0.44836432429804424
149	0xbfdfd55b03bc4013	-0.49739718785076653
150	0xbfb41bec75c0b3ec	-0.078551081417302
151	0xbfe0f57beaca2b42	-0.5299663148628968
152	0xbfd2135ee26dd344	-0.28243229019362937
153	0xbfc83596ce052268	-0.18913540896962222
154	0x3f9c650a6f01fe83	0.02772918989694385
155	0xbfc7955d9e916358	-0.18424577944349596
156	0xbfe166bebeed856e	-0.5437921265658312
157	0xbfb84f4bb03df7bd	-0.09495995571884826
158	0xbfb5611ae8506d62	-0.08351295634968417
159	0xbfadf6f654edd82c	-0.05852479731304103
160	0xbfddd619977856db	-0.46619262496947805
161	0xbfc72dfd33bc85ec	-0.18109097505752858
162	0xbf8435fe80000000	-0.00986861065030098
163	0xbfad1c803c285b05	-0.05685806974741151
164	0xbfdbdd9ebd99474c	-0.4354016162443386
165	0xbf962f23cb319404	-0.0216641991395541
166	0xbfd0ad69ebdf8f01	-0.2605843356561622
167	0xbfb702492eedc591	-0.08987862964365535
168	0xbfa3773d46b1c130	-0.03801909912079038
169	0xbfb02aaffa9d59e0	-0.06315135830423158
170	0xbfd42673e99eaf72	-0.31484697164955044
171	0xbfc193383dd25581	-0.13730528849252369
172	0xbfa66f912edb39df	-0.04381993958451224
173	0xbfb8b96df8bb584a	-0.09657943079523182
174	0x3fc593ef414e5b87	0.16857710541509283
175	0xbf879373ba035f07	-0.01151171122948781
176	0xbfde38b316679a19	-0.4722106665416575
177	0xbfb5008741bf6b17	-0.08203931193513046
178	0xbfd364a6561a7940	-0.3030181732991828
179	0xbfc3d8a5308d4376	-0.15504898901647451
180	0x3fb738d14d727bf1	0.09071071759034034
181	0xbf7f2addaf2e80b1	-0.00760923953467356
182	0xbfd1d12c578dc574	-0.27839191961455545
183	0x3fa360a2d9b0a255	0.037846650193675536
184	0x3fc7ab6c50f119d2	0.18491891815410938
185	0x3fae5fc2b651d9dd	0.059324345355822074
186	0x3fb20a71ad4d6c67	0.07047186356560219
187	0xbfb6c4e393c631c0	-0.08894178731697533
188	0x3fa9e8a62801514d	0.0506030963739784
189	0xbfd413286820fc88	-0.31366930168946583
190	0xbfa3a4fc2fff0ef8	-0.03836811147587399
191	0xbfce0b3e5d8dceea	-0.2347181278997746
192	0x3fb5db67e6961fdf	0.08537911777068484
193	0xbfcd73c5f9ca1d4e	-0.23009562203172113
194	0xbfdc10283250f458	-0.43848614610380343
195	0xbfad06aa6181602b	-0.05669147911311286
196	0x3fcb6837bcd596ab	0.2141179725687626
197	0xbfb385bcdf5ed7a4	-0.07625942662602242
198	0xbfbe13bbbd483021	-0.11748860713140676
199	0xbfb68ba995c0a4b0	-0.08806857973162852
200	0xbfcb305dd7b38022	-0.21241353065761454
201	0x3fc59a5b2a5d31cb	0.168773074803893
202	0xbfcc55f51390cded	-0.22137320952752707
203	0x3f765ff9b8699874	0.005462623090897723
204	0xbfc006f993d19da9	-0.1252128574153464
205	0x3fa4d058f859bfa7	0.04065206557868289
206	0xbfcfb48d03b966d2	-0.24769747430655414
207	0x3fb5b388069b1578	0.08477068101190877
208	0xbfc7a0917936f6fb	-0.18458765429198096
209	0xbfa1a446e6b5a31d	-0.03445645872381518
210	0xbfd9411394e5198d	-0.3945969537784542
211	0x3fcc4399916c0c52	0.22081298447310133
212	0xbfcca1716a4c7bd9	-0.22367685022706388
213	0x3f794639cc64a604	0.006170488143007361
214	0xbfd4b4285ac99823	-0.3234959494205915
215	0x3fba49ba712add59	0.10268750441433862
216	0xbfc29732a0650db5	-0.14523918945097383
217	0xbfb5b878d516e5e2	-0.08484606935862574
218	0x3fbcea0f38d69554	0.11294646394397506
219	0x3fb4775f584b036c	0.07994647889701206
220	0x3fb9b5cec27225ac	0.10043041465009733
221	0xbfd3aeb8ab8e8d3e	-0.3075391459808151
222	0xbfa4cacf385355c0	-0.04060981333320113
223	0xbfc5739e1c4b48e4	-0.1675908697275822
224	0xbfd0cdf540454803	-0.26257067943981854
225	0xbfd49a4df304f089	-0.3219179986224466
226	0xbfcf1352718752d9	-0.24277716201199587
227	0x3fbe4f3dfbea0e88	0.11839663887263374
228	0x3fb88e831ba32cc8	0.09592456269017469
229	0xbfe3e2b64c2a0c12	-0.6214248168547576
230	0x3fba731ffea8ded2	0.10331916777874575
231	0x3f6d4657b60b28af	0.003573581038243643
232	0xbf804ffe845a17a9	-0.007965076841411749
233	0xbfd5f981c006c913	-0.34335368874157374
234	0xbfcabf7dfb6f6ea7	-0.20896887566674602
235	0xbfbd8ab789aeb28d	-0.1153979025973035
236	0xbfc951398691bd50	-0.1977912814213405
237	0xbfd4dcd07b22e3f7	-0.32597744011906066
238	0xbfcadac7d30ca967	-0.20980165295743378
239	0xbfbd24363df6d728	-0.11383379948423722
240	0xbf82f8b0003280ad	-0.009263396268864044
241	0xbfcfba266073ac4e	-0.2478683443981446
242	0xbfa68574432cc222	-0.04398692436223352
243	0xbfbef352671738bd	-0.12090029732573533
244	0xbfa80a56fba4ab14	-0.04695388624016608
245	0xbfb707125ddb7df2	-0.0899516562599201
246	0xbfada601ddd0d5e0	-0.05790716011726338
247	0x3fb764cee513f2e6	0.09138196079943448
248	0xbfd88ad026127e5a	-0.38347247808449014
249	0xbfd3ae146ac06aff	-0.3074999849792874
250	0xbfc534cddf9c9222	-0.16567395609412566
251	0x3f5df1799de91d7b	0.0018275916733204434
252	0x3fa91124d1c840a8	0.04895892201250379
253	0xbfcd569d711f7e4b	-0.22920578025422098
254	0xbfca4c916db94d32	-0.20546167237862673
255	0xbfc23aeba8c20c30	-0.14242311229836124

bias f8 [128]
0	0xbfc52cf473b4cb9d	-0.16543441438406328
1	0xbfb4816daa88053a	-0.08009992040026229
2	0x3fc62f0f830955c4	0.1733111753298272
3	0xbfc212ee827b99b4	-0.14120274897795826
4	0xbfb737a011e4e851	-0.09069252430791265
5	0xbfd29f0e6c4220e6	-0.2909580285272696
6	0xbfa35822e72db184	-0.037781801910429486
7	0xbfb1a1489cbf4760	-0.0688672430690338
8	0x3fc48c2bda443a84	0.16052768857521837
9	0x3fd6e41aafd3dc00	0.3576723782602471
10	0x3fc9665e41622356	0.1984365290884635
11	0xbfd5f5d433bbb63e	-0.3431292062003627
12	0xbfd20a7e5e5bad0e	-0.28189048018130414
13	0xbfcffcbcd3b2ad4c	-0.24990043961347863
14	0xbf9fc37ba93ef3c9	-0.031019146161032105
15	0x3fbbfccc7a06839d	0.10932615260254726
16	0xbfb25fb55e1c09c7	-0.07177289531322294
17	0x3fc5d8f827de71ec	0.1706838793442239
18	0xbfc36ce7a57eb88d	-0.1517610128480026
19	0xbfb1f178bba70975	-0.07009081441268512
20	0x3fc1406e965b9cb3	0.13477880803768513
21	0xbfdad768cbdd8ff9	-0.4193975439904985
22	0xbfc47cccc11c4944	-0.1600585883066491
23	0xbfaa180a9e2e25b0	-0.05096467190658005
24	0x3fa9bd2bcd28a4f9	0.05027138594989284
25	0xbfc54a295f8f7aff	-0.1663257328609333
26	0xbfa5c551f3aaa4fa	-0.042521058077292964
27	0xbfb4fc8e0330e5bd	-0.08197867944627198
28	0xbf8b63e504731dc9	-0.013374127577107668
29	0xbfec4334c9b580c3	-0.8832038821820095
30	0xbf71fbd1e224ec01	-0.004390544754921955
31	0x3fad66ae51c2731f	0.05742401836434951
32	0x3f9517090bfe197d	0.02059568534561994
33	0xbfa7d74de6bf1ede	-0.0465645164654782
34	0xbfab886248e4e36d	-0.05377490176983355
35	0xbf9ec780de32f8e0	-0.03005792003818264
36	0x3fa8ddc77c7c0be8	0.04856704134547113
37	0xbfa0c107cde9a6f1	-0.03272270573218162
38	0xbfc1898019ac09a8	-0.13700867894665447
39	0xbfada21b54c0da9a	-0.05787740144335381
40	0xbfc2f0fd4779d6cd	-0.14797941198383172
41	0xbfbead0fac179c6f	-0.11982820464582898
42	0x3fbb518c2b719497	0.10671306667934953
43	0xbfc6de40d5e263bc	-0.1786576313359357
44	0xbfc2256fc06183b4	-0.14176747220611008
45	0xbfb4761b02f909c5	-0.07992714712694411
46	0x3fb3f54bf6f9c4d0	0.07796168117217239
47	0xbfbb524794c689b0	-0.10672423727240843
48	0x3fc2d0f17a963e09	0.147001442772748
49	0xbfc8572935cc07e3	-0.1901599419289247
50	0xbfc12bb0c0845e31	-0.13414582634207897
51	0xbfc657347428fdc3	-0.17453628227120363
52	0xbfb6bd22ef9d213a	-0.08882349348016741
53	0xbfa7ef2a0cbed89e	-0.04674655347427968
54	0x3fd9399347e4d97b	0.3941391183938305
55	0x3fc30777664230e0	0.14866535657018343
56	0xbfcc00ed893c83ee	-0.21877831650729668
57	0xbfc2ae169269df0e	-0.14593774937724685
58	0xbfad0906b74c2e86	-0.05670948970336291
59	0x3fd19718b2368608	0.2748471966134223
60	0xbfb3792c17ab29f6	-0.07606769159171009
61	0x3fce5508db8bd8f1	0.23697005004914432
62	0xbf907783249d87c6	-0.01608090315801982
63	0x3f9cc7be5f7e4fa6	0.028105711534933818
64	0xbfc025caf6508ce6	-0.12615334536631123
65	0xbfc62966958f4238	-0.17313844969477699
66	0xbfd8faff722a1078	-0.39031969212397355
67	0xbf90086360cb793b	-0.01565699842728317
68	0x3f9f03dc57e3a58d	0.030288164963086884
69	0xbfa538f68b595acd	-0.041450218687420916
70	0xbfb564c87afc7dbb	-0.08356907847018295
71	0x3f9c719be76ea3bb	0.02777713394212687
72	0x3fc1f8867104ab3d	0.14039688604801795
73	0xbfba859848b6a3ce	-0.10360099578123469
74	0xbfbff9572c7555f9	-0.1248983844319226
75	0xbfdac3bd804f12c5	-0.4181970360771568
76	0xbfb859f0d3f6ac2b	-0.09512238669292176
77	0xbfb968fcc4eea94e	-0.09925823028485078
78	0xbfa6713a00240e29	-0.043832600133125794
79	0xbf764a2b328954f5	-0.00544182657229907
80	0xbf99808730d0a22c	-0.024904358248166655
81	0x3fb86a3d39cf8a6d	0.09537108098406018
82	0xbfccdb77b23db2ac	-0.22544761851476858
83	0x3fc66ff64a9dff8c	0.17529181140343686
84	0xbfdb9b4e0a6192f9	-0.4313540555361182
85	0xbfc03bf5be2d7b86	-0.12682983194369174
86	0xbfd241ddd7ee860b	-0.2852701767643288
87	0xbfb187374edc17fb	-0.06846948313986438
88	0xbfa0e84a05542793	-0.033022225523452374
89	0x3fd3b141f6f3a9d5	0.30769394985568727
90	0x3fccd6f7c3930b74	0.2253102974846929
91	0xbfb1fcf46737f8d1	-0.07026603240953767
92	0x3fbcbe82e318ca8e	0.1122819714007994
93	0x3f65d8f1f2c72166	0.0026669240525942104
94	0xbfc1076eceb2499d	-0.13303933231925394
95	0x3fc08f47b5937462	0.1293725620843445
96	0xbfbb660825de7c53	-0.10702563213861653
97	0x3fb1e888c2a71bb4	0.06995444061531836
98	0x3fd254d50776620b	0.28642774323228143
99	0xbfbe38863370814b	-0.11804999118658548
100	0xbfc8f8fc106664ca	-0.19509840775280046
101	0xbf5bedc41943f20a	-0.0017046370531367283
102	0xbfd325bbcff79c11	-0.29917807874011354
103	0xbfbfe48f791efcd4	-0.12458130557114383
104	0xbfb8a7ac94250c76	-0.0963085042649697
105	0x3fb54e74daca2f1c	0.08322840062663456
106	0xbfbd2552a1c0fb6a	-0.1138507504374339
107	0x3fcea4eb00f2387b	0.2394078974361412
108	0xbf9e05af1476ae17	-0.029318557380674983
109	0xbfacfa2f0463aed2	-0.05659624985295654
110	0xbf93d474688df71f	-0.019365137940886897
111	0xbfb2edb98a9f37e9	-0.07393989214253306
112	0x3f9404518506bbe3	0.019547723526269222
113	0xbfd77630e1512b22	-0.3665888023721654
114	0x3fb24b347383553e	0.07146003551618649
115	0xbfae2eca977db4e1	-0.058950739853438135
116	0xbf5ab5f825e5b013	-0.0016302989311851631
117	0xbf74bd7710b85f97	-0.005063500498657356
118	0xbfa9b18bccdb9c2a	-0.050182694203435865
119	0x3f710ecd1fe7027c	0.004164506214181626
120	0xbf928f435f702fd0	-0.018124630642020467
121	0xbfb3a27f0702c41a	-0.07669824525034166
122	0x3fc10600e16149e1	0.13299571041950656
123	0x3fb415fd4f025786	0.07846053294119146
124	0x3fc41a06f9878e27	0.15704428848322147
125	0xbfaa3a75454eb58a	-0.05122724982298184
126	0x3fcc5c982f8ecbc1	0.22157575914533648
127	0x3fb56363e2d33cd3	0.0835478237888652
