result/AIDS700nef/N2Gim/sum_none_pGinFalse_woNodeattFalse_woGraphattFalse/2022-09-10_12-32-16/final_0.pt (torch, 268254 bytes, 36 tensors)

weight f4 [64, 64]
000000 00 00 00 00 00 00 00 00 00 00 00 00 00 00 00 00
       0.0 0.0 0.0 0.0
000010 00 00 00 00 00 00 00 00 00 00 00 00 00 00 00 00
       0.0 0.0 0.0 0.0
000020 00 00 00 00 00 00 00 00 00 00 00 00 00 00 00 00
       0.0 0.0 0.0 0.0
000030 00 00 00 00 00 00 00 00 00 00 00 00 00 00 00 00
       0.0 0.0 0.0 0.0
000040 00 00 00 00 00 00 00 00 00 00 00 00 00 00 00 00
       0.0 0.0 0.0 0.0
000050 00 00 00 00 00 00 00 00 00 00 00 00 00 00 00 00
       0.0 0.0 0.0 0.0
000060 00 00 00 00 00 00 00 00 00 00 00 00 00 00 00 00
       0.0 0.0 0.0 0.0
000070 00 00 00 00 00 00 00 00 00 00 00 00 00 00 00 00
       0.0 0.0 0.0 0.0
000080 00 00 00 00 00 00 00 00 00 00 00 00 00 00 00 00
       0.0 0.0 0.0 0.0
000090 00 00 00 00 00 00 00 00 00 00 00 00 00 00 00 00
       0.0 0.0 0.0 0.0
0000a0 00 00 00 00 00 00 00 00 00 00 00 00 00 00 00 00
       0.0 0.0 0.0 0.0
0000b0 00 00 00 00 00 00 00 00 00 00 00 00 00 00 00 00
       0.0 0.0 0.0 0.0
0000c0 00 00 00 00 00 00 00 00 00 00 00 00 00 00 00 00
       0.0 0.0 0.0 0.0
0000d0 00 00 00 00 00 00 00 00 00 00 00 00 00 00 00 00
       0.0 0.0 0.0 0.0
0000e0 00 00 00 00 00 00 00 00 00 00 00 00 00 00 00 00
       0.0 0.0 0.0 0.0
0000f0 00 00 00 00 00 00 00 00 00 00 00 00 00 00 00 00
       0.0 0.0 0.0 0.0
000100 00 00 00 00 00 00 00 00 00 00 00 00 00 00 00 00
       0.0 0.0 0.0 0.0
000110 00 00 00 00 00 00 00 00 00 00 00 00 00 00 00 00
       0.0 0.0 0.0 0.0
000120 00 00 00 00 00 00 00 00 00 00 00 00 00 00 00 00
       0.0 0.0 0.0 0.0
000130 00 00 00 00 00 00 00 00 00 00 00 00 00 00 00 00
       0.0 0.0 0.0 0.0
000140 00 00 00 00 00 00 00 00 00 00 00 00 00 00 00 00
       0.0 0.0 0.0 0.0
000150 00 00 00 00 00 00 00 00 00 00 00 00 00 00 00 00
       0.0 0.0 0.0 0.0
000160 00 00 00 00 00 00 00 00 00 00 00 00 00 00 00 00
       0.0 0.0 0.0 0.0
000170 00 00 00 00 00 00 00 00 00 00 00 00 00 00 00 00
       0.0 0.0 0.0 0.0
000180 00 00 00 00 00 00 00 00 00 00 00 00 00 00 00 00
       0.0 0.0 0.0 0.0
000190 00 00 00 00 00 00 00 00 00 00 00 00 00 00 00 00
       0.0 0.0 0.0 0.0
0001a0 00 00 00 00 00 00 00 00 00 00 00 00 00 00 00 00
       0.0 0.0 0.0 0.0
0001b0 00 00 00 00 00 00 00 00 00 00 00 00 00 00 00 00
       0.0 0.0 0.0 0.0
0001c0 00 00 00 00 00 00 00 00 00 00 00 00 00 00 00 00
       0.0 0.0 0.0 0.0
0001d0 00 00 00 00 00 00 00 00 00 00 00 00 00 00 00 00
       0.0 0.0 0.0 0.0
0001e0 00 00 00 00 00 00 00 00 00 00 00 00 00 00 00 00
       0.0 0.0 0.0 0.0
0001f0 00 00 00 00 00 00 00 00 00 00 00 00 00 00 00 00
       0.0 0.0 0.0 0.0
000200 00 00 00 00 00 00 00 00 00 00 00 00 00 00 00 00
       0.0 0.0 0.0 0.0
000210 00 00 00 00 00 00 00 00 00 00 00 00 00 00 00 00
       0.0 0.0 0.0 0.0
000220 00 00 00 00 00 00 00 00 00 00 00 00 00 00 00 00
       0.0 0.0 0.0 0.0
000230 00 00 00 00 00 00 00 00 00 00 00 00 00 00 00 00
       0.0 0.0 0.0 0.0
000240 00 00 00 00 00 00 00 00 00 00 00 00 00 00 00 00
       0.0 0.0 0.0 0.0
000250 00 00 00 00 00 00 00 00 00 00 00 00 00 00 00 00
       0.0 0.0 0.0 0.0
000260 00 00 00 00 00 00 00 00 00 00 00 00 00 00 00 00
       0.0 0.0 0.0 0.0
000270 00 00 00 00 00 00 00 00 00 00 00 00 00 00 00 00
       0.0 0.0 0.0 0.0
000280 00 00 00 00 00 00 00 00 00 00 00 00 00 00 00 00
       0.0 0.0 0.0 0.0
000290 00 00 00 00 00 00 00 00 00 00 00 00 00 00 00 00
       0.0 0.0 0.0 0.0
0002a0 00 00 00 00 00 00 00 00 00 00 00 00 00 00 00 00
       0.0 0.0 0.0 0.0
0002b0 00 00 00 00 00 00 00 00 00 00 00 00 00 00 00 00
       0.0 0.0 0.0 0.0
0002c0 00 00 00 00 00 00 00 00 00 00 00 00 00 00 00 00
       0.0 0.0 0.0 0.0
0002d0 00 00 00 00 00 00 00 00 00 00 00 00 00 00 00 00
       0.0 0.0 0.0 0.0
0002e0 00 00 00 00 00 00 00 00 00 00 00 00 00 00 00 00
       0.0 0.0 0.0 0.0
0002f0 00 00 00 00 00 00 00 00 00 00 00 00 00 00 00 00
       0.0 0.0 0.0 0.0
000300 00 00 00 00 00 00 00 00 00 00 00 00 00 00 00 00
       0.0 0.0 0.0 0.0
000310 00 00 00 00 00 00 00 00 00 00 00 00 00 00 00 00
       0.0 0.0 0.0 0.0
000320 00 00 00 00 00 00 00 00 00 00 00 00 00 00 00 00
       0.0 0.0 0.0 0.0
000330 00 00 00 00 00 00 00 00 00 00 00 00 00 00 00 00
       0.0 0.0 0.0 0.0
000340 00 00 00 00 00 00 00 00 00 00 00 00 00 00 00 00
       0.0 0.0 0.0 0.0
000350 00 00 00 00 00 00 00 00 00 00 00 00 00 00 00 00
       0.0 0.0 0.0 0.0
000360 00 00 00 00 00 00 00 00 00 00 00 00 00 00 00 00
       0.0 0.0 0.0 0.0
000370 00 00 00 00 00 00 00 00 00 00 00 00 00 00 00 00
       0.0 0.0 0.0 0.0
000380 00 00 00 00 00 00 00 00 00 00 00 00 00 00 00 00
       0.0 0.0 0.0 0.0
000390 00 00 00 00 00 00 00 00 00 00 00 00 00 00 00 00
       0.0 0.0 0.0 0.0
0003a0 00 00 00 00 00 00 00 00 00 00 00 00 00 00 00 00
       0.0 0.0 0.0 0.0
0003b0 00 00 00 00 00 00 00 00 00 00 00 00 00 00 00 00
       0.0 0.0 0.0 0.0
0003c0 00 00 00 00 00 00 00 00 00 00 00 00 00 00 00 00
       0.0 0.0 0.0 0.0
0003d0 00 00 00 00 00 00 00 00 00 00 00 00 00 00 00 00
       0.0 0.0 0.0 0.0
0003e0 00 00 00 00 00 00 00 00 00 00 00 00 00 00 00 00
       0.0 0.0 0.0 0.0
0003f0 00 00 00 00 00 00 00 00 00 00 00 00 00 00 00 00
       0.0 0.0 0.0 0.0

bias f4 [64, 64]
000000 00 00 00 00 00 00 00 00 00 00 00 00 00 00 00 00
       0.0 0.0 0.0 0.0
000010 00 00 00 00 00 00 00 00 00 00 00 00 00 00 00 00
       0.0 0.0 0.0 0.0
000020 00 00 00 00 00 00 00 00 00 00 00 00 00 00 00 00
       0.0 0.0 0.0 0.0
000030 00 00 00 00 00 00 00 00 91 81 00 00 00 00 00 00
       0.0 0.0 4.648e-41 0.0
000040 00 00 00 00 00 00 00 00 00 00 00 00 00 00 00 00
       0.0 0.0 0.0 0.0
000050 00 00 00 00 00 00 00 00 00 00 00 00 00 00 00 00
       0.0 0.0 0.0 0.0
000060 00 00 00 00 00 00 00 00 00 00 00 00 00 00 00 00
       0.0 0.0 0.0 0.0
000070 00 00 00 00 00 00 00 00 00 00 00 00 00 00 00 00
       0.0 0.0 0.0 0.0
000080 00 00 00 00 00 00 00 00 00 00 00 00 00 00 00 00
       0.0 0.0 0.0 0.0
000090 00 00 00 00 00 00 00 00 00 00 00 00 00 00 00 00
       0.0 0.0 0.0 0.0
0000a0 00 00 00 00 00 00 00 00 00 00 00 00 00 00 00 00
       0.0 0.0 0.0 0.0
0000b0 00 00 00 00 00 00 00 00 00 00 00 00 00 00 00 00
       0.0 0.0 0.0 0.0
0000c0 00 00 00 00 00 00 00 00 00 00 00 00 00 00 00 00
       0.0 0.0 0.0 0.0
0000d0 00 00 00 00 00 00 00 00 00 00 00 00 00 00 00 00
       0.0 0.0 0.0 0.0
0000e0 00 00 00 00 00 00 00 00 00 00 00 00 00 00 00 00
       0.0 0.0 0.0 0.0
0000f0 00 00 00 00 00 00 00 00 00 00 00 00 00 00 00 00
       0.0 0.0 0.0 0.0
000100 00 00 00 00 00 00 00 00 00 00 00 00 00 00 00 00
       0.0 0.0 0.0 0.0
000110 00 00 00 00 00 00 00 00 00 00 00 00 00 00 00 00
       0.0 0.0 0.0 0.0
000120 00 00 00 00 00 00 00 00 00 00 00 00 00 00 00 00
       0.0 0.0 0.0 0.0
000130 00 00 00 00 00 00 00 00 00 00 00 00 00 00 00 00
       0.0 0.0 0.0 0.0
000140 00 00 00 00 00 00 00 00 00 00 00 00 00 00 00 00
       0.0 0.0 0.0 0.0
000150 00 00 00 00 00 00 00 00 00 00 00 00 00 00 00 00
       0.0 0.0 0.0 0.0
000160 00 00 00 00 00 00 00 00 00 00 00 00 00 00 00 00
       0.0 0.0 0.0 0.0
000170 00 00 00 00 00 00 00 00 00 00 00 00 00 00 00 00
       0.0 0.0 0.0 0.0
000180 00 00 00 00 00 00 00 00 00 00 00 00 00 00 00 00
       0.0 0.0 0.0 0.0
000190 00 00 00 00 00 00 00 00 00 00 00 00 00 00 00 00
       0.0 0.0 0.0 0.0
0001a0 00 00 00 00 00 00 00 00 00 00 00 00 00 00 00 00
       0.0 0.0 0.0 0.0
0001b0 00 00 00 00 00 00 00 00 00 00 00 00 00 00 00 00
       0.0 0.0 0.0 0.0
0001c0 00 00 00 00 00 00 00 00 00 00 00 00 00 00 00 00
       0.0 0.0 0.0 0.0
0001d0 00 00 00 00 00 00 00 00 00 00 00 00 00 00 00 00
       0.0 0.0 0.0 0.0
0001e0 00 00 00 00 00 00 00 00 00 00 00 00 00 00 00 00
       0.0 0.0 0.0 0.0
0001f0 00 00 00 00 00 00 00 00 00 00 00 00 00 00 00 00
       0.0 0.0 0.0 0.0
000200 00 00 00 00 00 00 00 00 00 00 00 00 00 00 00 00
       0.0 0.0 0.0 0.0
000210 00 00 00 00 00 00 00 00 00 00 00 00 00 00 00 00
       0.0 0.0 0.0 0.0
000220 00 00 00 00 00 00 00 00 00 00 00 00 00 00 00 00
       0.0 0.0 0.0 0.0
000230 00 00 00 00 00 00 00 00 00 00 00 00 00 00 00 00
       0.0 0.0 0.0 0.0
000240 00 00 00 00 00 00 00 00 00 00 00 00 00 00 00 00
       0.0 0.0 0.0 0.0
000250 00 00 00 00 00 00 00 00 00 00 00 00 00 00 00 00
       0.0 0.0 0.0 0.0
000260 00 00 00 00 00 00 00 00 00 00 00 00 00 00 00 00
       0.0 0.0 0.0 0.0
000270 00 00 00 00 00 00 00 00 00 00 00 00 00 00 00 00
       0.0 0.0 0.0 0.0
000280 00 00 00 00 00 00 00 00 00 00 00 00 00 00 00 00
       0.0 0.0 0.0 0.0
000290 00 00 00 00 00 00 00 00 00 00 00 00 00 00 00 00
       0.0 0.0 0.0 0.0
0002a0 00 00 00 00 00 00 00 00 00 00 00 00 00 00 00 00
       0.0 0.0 0.0 0.0
0002b0 00 00 00 00 00 00 00 00 00 00 00 00 00 00 00 00
       0.0 0.0 0.0 0.0
0002c0 00 00 00 00 00 00 00 00 00 00 00 00 00 00 00 00
       0.0 0.0 0.0 0.0
0002d0 00 00 00 00 00 00 00 00 00 00 00 00 00 00 00 00
       0.0 0.0 0.0 0.0
0002e0 00 00 00 00 00 00 00 00 00 00 00 00 00 00 00 00
       0.0 0.0 0.0 0.0
0002f0 00 00 00 00 00 00 00 00 00 00 00 00 00 00 00 00
       0.0 0.0 0.0 0.0
000300 00 00 00 00 00 00 00 00 00 00 00 00 00 00 00 00
       0.0 0.0 0.0 0.0
000310 00 00 00 00 00 00 00 00 00 00 00 00 00 00 00 00
       0.0 0.0 0.0 0.0
000320 00 00 00 00 00 00 00 00 00 00 00 00 00 00 00 00
       0.0 0.0 0.0 0.0
000330 00 00 00 00 00 00 00 00 00 00 00 00 00 00 00 00
       0.0 0.0 0.0 0.0
000340 00 00 00 00 00 00 00 00 00 00 00 00 00 00 00 00
       0.0 0.0 0.0 0.0
000350 00 00 00 00 00 00 00 00 00 00 00 00 00 00 00 00
       0.0 0.0 0.0 0.0
000360 00 00 00 00 00 00 00 00 00 00 00 00 00 00 00 00
       0.0 0.0 0.0 0.0
000370 00 00 00 00 00 00 00 00 00 00 00 00 00 00 00 00
       0.0 0.0 0.0 0.0
000380 00 00 00 00 00 00 00 00 00 00 00 00 00 00 00 00
       0.0 0.0 0.0 0.0
000390 00 00 00 00 00 00 00 00 00 00 00 00 00 00 00 00
       0.0 0.0 0.0 0.0
0003a0 00 00 00 00 00 00 00 00 00 00 00 00 00 00 00 00
       0.0 0.0 0.0 0.0
0003b0 00 00 00 00 00 00 00 00 00 00 00 00 00 00 00 00
       0.0 0.0 0.0 0.0
0003c0 00 00 00 00 00 00 00 00 00 00 00 00 00 00 00 00
       0.0 0.0 0.0 0.0
0003d0 00 00 00 00 00 00 00 00 00 00 00 00 00 00 00 00
       0.0 0.0 0.0 0.0
0003e0 00 00 00 00 00 00 00 00 00 00 00 00 00 00 00 00
       0.0 0.0 0.0 0.0
0003f0 00 00 00 00 00 00 00 00 00 00 00 00 00 00 00 00
       0.0 0.0 0.0 0.0

weight f4 [64, 64]
000000 3d e4 02 bd 7f 87 a9 bd a6 6f 89 be 58 3a 70 3d
       -0.031955946 -0.08277797 -0.26842993 0.05864939
000010 e4 00 a1 be 64 a9 35 be 53 10 29 be 27 1b b9 3d
       -0.31445992 -0.17740399 -0.16510133 0.09038382
000020 4b 53 f5 bd 63 15 73 3d 13 c6 f1 bd 01 aa 17 3e
       -0.119787775 0.059346568 -0.11805358 0.14810945
000030 97 74 92 bd d8 84 d4 3d c3 8a 52 3d a4 a0 7f be
       -0.07151144 0.103769004 0.051401865 -0.24963623
000040 be 17 bb 3d c9 bc 68 3d 52 51 aa 3d 43 44 d5 bd
       0.09135388 0.056820665 0.08316292 -0.104134105
000050 84 f6 20 3e df 5f 57 3e fe 30 07 3a ab 55 78 bd
       0.15719038 0.21032666 0.0005157142 -0.060628574
000060 e0 5f 13 3e 0e a0 82 3b 3d ad b7 bd a3 15 61 bd
       0.14392042 0.003986365 -0.089685895 -0.054952275
000070 f8 ff ad bd ce 32 7b bd 67 16 f0 bd ce 51 83 3e
       -0.08496088 -0.061327748 -0.11723023 0.2564835
000080 79 35 1e 3e 33 29 1c 3d a6 73 8d bd 53 66 fe bd
       0.15450086 0.038125228 -0.06906824 -0.124218605
000090 ee 2f 83 3e cb b8 10 bd a8 65 4c 3e e8 d7 fb 3d
       0.25622505 -0.035332482 0.19960654 0.1229704
0000a0 b9 ec 51 be c2 bc 98 3d 6b ae c2 3d d1 d5 e7 3c
       -0.20500459 0.07457878 0.09505924 0.028300198
0000b0 8e 0e 1a 3e d5 a6 10 3e 12 f1 9d 3d 75 7a 6a bd
       0.15044615 0.14126141 0.07711996 -0.05724569
0000c0 c7 fa 04 bd 35 dd 10 3e 61 d0 b6 bb 6c e8 bf bd
       -0.032465722 0.14146884 -0.00557904 -0.09370503
0000d0 04 dd 02 be 77 7f a9 bd 51 47 e8 bd 64 3f 81 be
       -0.12779623 -0.08276265 -0.113417275 -0.25243676
0000e0 69 b0 6b 3e e0 bb b1 bd f9 3e bf bd 55 d2 a8 3d
       0.23016514 -0.086784124 -0.09338183 0.08243243
0000f0 c8 15 a8 3d 65 a5 52 3d 62 9c d8 3d 49 ed b5 bd
       0.082072794 0.051427264 0.10576703 -0.08883149
000100 8c a9 71 3d 26 52 52 3e 26 3d 5b be b5 8d 5f bd
       0.058999583 0.2053915 -0.21410045 -0.0545785
000110 77 a1 b1 3d b7 56 24 3d 42 1e 8a 3d 16 61 b0 3d
       0.08673375 0.04012176 0.067440525 0.08612268
000120 15 cf 12 3e 2c 72 03 3e 11 87 5f 3d 0c 4e 14 bd
       0.14336808 0.12836522 0.05457217 -0.036207244
000130 80 7e e6 3d c6 22 ff 3a 71 76 99 bd 4b c1 d0 bd
       0.11254597 0.0019465319 -0.07493294 -0.10193118
000140 9a 83 2d 3e f4 04 09 be ae 9b 9b 3d 6d 5f db 3d
       0.16944733 -0.13380796 0.07598053 0.107115604
000150 73 7e 11 be d6 c8 00 be 70 da de bd 47 ac b6 3d
       -0.14208393 -0.12576613 -0.108815074 0.08919578
000160 16 48 9b 3d 3e ab 4b 3d 16 ab fa bc 32 0e a7 3c
       0.07582109 0.049723856 -0.030599158 0.020392511
000170 20 01 ff bc 0e 18 98 3d 77 33 84 bd 2b 54 27 3d
       -0.031128466 0.07426463 -0.06455129 0.040851753
000180 c8 62 eb 3d f7 22 d0 3c 1e 81 c0 3d c4 d3 13 be
       0.114934504 0.025407298 0.09399627 -0.14436251
000190 0f 03 ef bd da e1 2d bd 09 11 8d 3e 0e c0 db bc
       -0.11670505 -0.042451717 0.2755206 -0.026824977
0001a0 10 3e a8 bd 27 aa af bd 9b 72 29 3e e1 e7 e9 bd
       -0.082149625 -0.08577376 0.16547625 -0.114211805
0001b0 f6 c8 56 bd eb df 83 bd f5 ac 77 bd 60 c9 bf 3d
       -0.052437745 -0.06439193 -0.06046768 0.09364581
0001c0 59 65 e2 3b 4d fc 26 bd 33 a6 fc 3d fb f0 fc 3c
       0.0069090542 -0.040767957 0.123363875 0.030876627
0001d0 dd c2 8b 3d 20 68 0a be 5a 1b 3c bd ee 71 98 bd
       0.068242766 -0.13516283 -0.045924522 -0.07443605
0001e0 6b b0 f4 bc 6d d3 6e 3d 96 a6 1e bd 2f f0 1e 3e
       -0.029869279 0.0583071 -0.038733087 0.1552131
0001f0 70 e3 44 3e 74 db 72 3d c8 f9 b7 be 6a 3a 6e 3e
       0.19227386 0.059291318 -0.35932755 0.2326447
000200 e3 1e 91 bd 33 c2 7a 3d db 83 2e be d5 91 8a 3e
       -0.07085969 0.06122036 -0.17042486 0.27064386
000210 6a 2e bb bd 40 a4 0b 3c 17 c9 4a 3b ad 7b 93 3c
       -0.09139712 0.008523047 0.0030942613 0.01800331
000220 08 87 83 3d 98 d3 a6 3c ae 2a de 3d 6e 64 87 3c
       0.064222395 0.020364568 0.10847984 0.01652738
000230 97 f2 88 3d 6a 91 0d 3e e0 2d f9 3d 83 8c d2 3d
       0.06686895 0.13825002 0.12166953 0.10280707
000240 a2 10 51 bc 98 d7 26 bd d6 84 6c 3d c8 af 92 bd
       -0.012760313 -0.04073295 0.05774387 -0.07162434
000250 42 4b 91 3d cd 09 88 3d 54 75 04 bd 91 fc f4 3c
       0.070944324 0.06642494 -0.032338455 0.02990559
000260 ff 5f 11 3d 20 1f 35 bd 7d f9 69 bd 1b 10 6a 3d
       0.03549194 -0.044219136 -0.057122696 0.057144266
000270 29 2b 8f 3d 29 20 c9 bc cf ff 45 3d c6 a4 ad bd
       0.06990654 -0.024551468 0.04833966 -0.08478694
000280 e0 e6 0f be f3 e5 b5 3d 31 c8 f6 3d 3e e4 e8 3d
       -0.14052916 0.0888175 0.12049902 0.11371659
000290 16 76 ae 3d 00 33 2f 3e df e7 ca 3c f3 1c 5e bd
       0.08518617 0.17109299 0.024768768 -0.054226827
0002a0 53 d6 6f 3d e5 08 81 3d 5c 76 13 bd 75 13 52 3d
       0.058554005 0.063005246 -0.03600155 0.051288087
0002b0 cf 10 d1 bd bc 35 ba 3c c6 f9 e3 3b 25 0d 9d 3c
       -0.10208284 0.0227307 0.0069572655 0.019171307
0002c0 22 66 30 bb 72 c2 22 3d 35 ed 34 bd d8 9f 43 bd
       -0.0026916345 0.03973622 -0.04417153 -0.04775986
0002d0 d4 46 8d bc c6 14 09 3e 41 19 15 3b a2 9c 71 be
       -0.017245688 0.1338683 0.0022750648 -0.23594907
0002e0 97 9c 52 bd 21 b3 16 3d 6e 04 49 bd 8b df 99 3d
       -0.051418867 0.036791924 -0.04907649 0.075133406
0002f0 d3 3e 1b 3e 46 24 5a bd 8d 9a 03 3e 34 e7 03 3e
       0.15160684 -0.05325725 0.12851925 0.12881166
000300 e5 92 1b bd f9 da 37 be 2c e5 98 bd 00 56 ac bd
       -0.037981886 -0.17954625 -0.07465586 -0.08414841
000310 6f a3 9f 3c 09 55 91 bc 63 47 8c bc 16 56 0d be
       0.01948711 -0.017740743 -0.017123884 -0.1380237
000320 20 80 54 be 19 6b 35 bc 7c a6 b8 3d d4 c0 d5 bd
       -0.20752001 -0.011072897 0.090161294 -0.1043717
000330 38 43 99 3d b4 6e 2a 3e 4a 27 9d 3c ed 97 87 3d
       0.07483524 0.16643792 0.019183774 0.066207744
000340 47 69 92 be 05 db 6d bd 62 4b cc 3d 72 fb 8a 3d
       -0.28595945 -0.0580702 0.09975316 0.06786241
000350 9f a6 4a 3d b4 56 c8 3d 33 bb d2 bd 7e af 9d 3d
       0.04947531 0.09782162 -0.10289612 0.07699488
000360 46 7d f9 3d 6e ff 2d 3d cc d5 84 3d bc 7f a5 3d
       0.12182097 0.042479925 0.06486091 0.08081004
000370 79 e1 4a bd 6b d0 1a 3e cd c9 98 3d f0 17 20 3c
       -0.049531434 0.15118568 0.074603654 0.009771332
000380 5c d6 9a bd 38 13 c5 3d df 41 e1 3c be 84 49 3e
       -0.07560417 0.09622806 0.02749723 0.19679543
000390 99 df 8d 3d a1 17 8e 3d 36 3d 92 bd bc f9 0b be
       0.069274135 0.069381006 -0.07140581 -0.13669485
0003a0 b3 86 98 3c 6c d6 f9 bd d1 79 52 bd ca ec 0c 3d
       0.018618917 -0.12199101 -0.051385704 0.034405507
0003b0 8c 23 cb bd ea c5 90 3d 9a 0a 05 be a5 b0 bc bd
       -0.099188894 0.07068999 -0.12992325 -0.0921338
0003c0 bb 92 4b be e1 4a b1 3d 37 9a f2 3d dc 9f 2e be
       -0.19880192 0.0865686 0.118458204 -0.17053169
0003d0 c9 f0 1b bc e9 7a 0c 3c ae 2b 95 3e 71 4d e3 bc
       -0.009517857 0.008574226 0.29134887 -0.027746888
0003e0 77 60 e1 3c 23 ec 40 3e a7 2e b1 bd 58 ed 0d 3e
       0.027511818 0.18840079 -0.08651476 0.1386007
0003f0 55 ef 42 be db 30 0d 3d 54 07 23 bd f5 b7 15 be
       -0.1903661 0.03447042 -0.03980191 -0.14620955

bias f4 [64]
000000 51 e7 81 bd 4c 29 31 3e bd cc 8b bc 62 b9 b6 bd
       -0.06342948 0.1730091 -0.0170654 -0.08922078
000010 1a 88 80 bd c2 f0 2b bd 73 24 34 3e bd 0a 0b bd
       -0.06275959 -0.04197765 0.1759203 -0.033945788
000020 1e 97 5e 3d 85 37 d9 bd bf 4d a7 3d bf 2f 00 bc
       0.054343335 -0.10606293 0.08169126 -0.007823884
000030 01 5d 60 3e d9 5b d8 bd f2 b1 15 3e d6 b1 0c 3d
       0.21910478 -0.105643936 0.14618662 0.034349285
000040 29 34 61 3d 3c 3a 35 bb 02 9c 0c 3e a5 0b 10 bd
       0.054981384 -0.0027653119 0.13731387 -0.035167355
000050 6a 5d c0 3b c9 fc 8a 3d 0e 30 d9 3c f2 46 9f 3c
       0.005870511 0.06786496 0.026512172 0.019443009
000060 62 a1 ec bd 72 9d e6 3d dd d6 0e 3e e1 e7 eb bc
       -0.11554219 0.11260499 0.13949151 -0.028797092
000070 8f 59 f1 bc 70 dd 00 3e 7e 62 85 bc 1f 59 70 3e
       -0.02946165 0.12584472 -0.016282316 0.23471497
000080 bd c9 92 bd 16 36 41 bd 90 68 9f bd cb 84 86 bd
       -0.07167385 -0.04717072 -0.077836156 -0.06568297
000090 9f ee d0 3c 74 c6 05 3d ed cf 4d bd 85 04 27 3d
       0.025504408 0.032659963 -0.05024712 0.040775795
0000a0 38 6d ff 3d 2d 5a d4 3c 94 d0 e9 3a 90 8a 70 3d
       0.12472004 0.025921905 0.001783865 0.058725893
0000b0 6f 61 6a bd bb 0a a0 3d b4 15 f6 bd 56 d1 94 3d
       -0.057221826 0.07814547 -0.12015858 0.0726649
0000c0 8d 88 1a 3d 02 ca 0c 3e d5 57 96 bd 20 4e d6 bc
       0.03772788 0.13748935 -0.073409714 -0.0261603
0000d0 0e b4 35 bd 53 e6 0f 3d 59 fe 51 3d 6d 16 11 3e
       -0.044361167 0.035131764 0.051267955 0.14168711
0000e0 c0 7d 19 3e 5b 81 3b bd 5d 47 12 3d 58 20 62 3d
       0.14989376 -0.04577766 0.03571259 0.055206627
0000f0 9e 2c 81 bd bc 3b 49 3e 77 7c b6 3d 37 00 2b bd
       -0.06307338 0.19651693 0.089104585 -0.04174825

weight f4 [64, 36]
000000 38 d9 c0 3d 57 c2 43 3e e5 40 3f 3d 5c 22 60 3d
       0.09416431 0.19117104 0.046692748 0.054720268
000010 dd 52 0a be 52 74 e0 bb 1c 67 9c 3d 08 ab 0c be
       -0.13508172 -0.006849804 0.07636854 -0.13737118
000020 5e f9 1d 3e 98 ec 31 be fb e1 05 bd 80 ac 26 3d
       0.15427157 -0.1737541 -0.032686215 0.040691853
000030 ef e4 a6 be a0 b8 8f be 85 98 e5 be d7 7e bd 3e
       -0.32596537 -0.28070545 -0.44842926 0.37010834
000040 09 c9 22 bf b2 7b 60 3e 3f 55 11 3e 50 85 74 be
       -0.63588005 0.21922186 0.14192675 -0.2387898
000050 76 42 c9 bd c2 e1 a5 be f4 f6 e4 bd 22 01 c2 be
       -0.098271295 -0.32398802 -0.11179915 -0.3789149
000060 73 20 c4 3d fe 19 03 be d0 b0 f1 3d 76 cf d0 bd
       0.09576502 -0.12802884 0.118013024 -0.1019582
000070 58 1d f8 3d 5b 92 e3 3d 76 31 e5 bd fa 6a 26 3e
       0.12114972 0.111118995 -0.111910746 0.16251746
000080 63 80 4d 3d f6 84 08 be 7e 35 b6 3d f2 af a8 be
       0.050171267 -0.1333197 0.088969216 -0.32946736
000090 0c 91 61 be e8 fa 3a be 89 a7 d7 3c 1f a4 b1 3d
       -0.22027987 -0.18259776 0.026325004 0.08673882
0000a0 4e 1d 82 3e d1 36 72 bd 04 fc c1 bd 3d 77 8d be
       0.25412983 -0.05913431 -0.09471896 -0.27630034
0000b0 5f 7d 09 3e d0 0b 88 3e 57 1d 26 3e 0c 44 ee bd
       0.13426732 0.26571512 0.1622213 -0.11634073
0000c0 83 aa 80 3e 64 ce e3 bd d1 e1 b8 3d df 74 c0 bd
       0.2513009 -0.1112335 0.09027446 -0.093972914
0000d0 1b 7f ca 3e 39 f2 15 be 16 19 8e 3c fa f2 e3 bd
       0.395501 -0.14643182 0.017345946 -0.111303285
0000e0 77 ab 60 3e 5b 17 84 3d dd 34 e5 3d 93 58 27 be
       0.21940409 0.06449767 0.111917235 -0.16342382
0000f0 73 bb b5 3d 58 27 00 be 6b d5 18 3c 2f 3f 19 be
       0.08873644 -0.12515008 0.009328227 -0.14965509
000100 f0 d3 15 be 4b 19 77 bd 11 3c 49 3e e7 fd f6 3a
       -0.14631629 -0.060326856 0.1965182 0.0018843979
000110 20 97 77 bd 34 e7 3e be e3 9c de bd ec b7 e1 bd
       -0.06044686 -0.18642884 -0.108697675 -0.110214084
000120 e6 b8 d7 bd 5e c4 8e 3e 12 eb 98 3d 00 38 78 be
       -0.105333135 0.2788419 0.07466711 -0.24240112
000130 4a 76 61 3e 0a cc 88 be 9f dd 0e 3d d0 c9 99 bd
       0.2201778 -0.2671817 0.034879323 -0.07509196
000140 08 bc 04 bf dd 05 02 bf 20 14 da bd 24 2d be 3d
       -0.5184941 -0.50790197 -0.1064837 0.09285954
000150 36 95 8b bd 4e 26 91 bd 46 25 14 bd 08 c8 17 be
       -0.06815569 -0.07087384 -0.03616836 -0.148224
000160 0a dc 4e 3e b0 b7 71 be 56 1f ba 3d c6 69 7b 3d
       0.20201126 -0.23605227 0.09088008 0.06138017
000170 0f 6a 8d 3d fa 1b 0f be 97 4b ba bd b4 05 0f be
       0.06904995 -0.13975516 -0.09096449 -0.1396702
000180 cb 86 07 3d 74 98 6d 3e b6 71 31 3d 1b 9d 22 3d
       0.033087533 0.23202688 0.043321334 0.03970061
000190 86 00 2d 3d 43 50 c0 3d e5 2a 38 3e c3 d4 76 bb
       0.042236827 0.09390309 0.17985113 -0.0037663437
0001a0 89 a4 68 bc b9 99 c8 3d 46 50 27 bd f9 ac 21 be
       -0.0141993845 0.09794945 -0.04084804 -0.1578864
0001b0 28 2d cf 3c 25 d1 46 be 5c d2 9f bd a8 fe a3 bd
       0.025290087 -0.1941572 -0.07803795 -0.08007556
0001c0 56 d0 33 3e 7a 3c 0e be c1 30 d6 3e 6a 63 a9 3c
       0.17559943 -0.13890257 0.4183407 0.020677287
0001d0 10 00 0a 3f 97 5f 65 be c6 32 4b bd 22 c8 41 be
       0.53906345 -0.22399746 -0.04960897 -0.18924001
0001e0 92 4a 3e 3e cc 67 28 bd b4 0f 25 bd ba bf 0c be
       0.18583134 -0.041114613 -0.04029818 -0.13745013
0001f0 ea 1d 0b 3d 88 3c f2 be 3b 8c 84 3d 68 08 5b 3e
       0.033964075 -0.47311807 0.06472059 0.21389925
000200 17 94 c5 bc 6b 6d 7b 3e 34 28 71 bd 74 2b c4 3d
       -0.024118466 0.24553458 -0.05887623 0.095786005
000210 33 2d 17 3e 20 a6 22 3d 9b 51 3a 3d 66 6b 6f 3d
       0.14763336 0.03970921 0.04548798 0.058452033
000220 5e 85 c5 bd 90 d9 27 be ec 07 47 bd f5 8f 32 3e
       -0.096445784 -0.16391587 -0.04859154 0.17437728
000230 f2 b4 12 3e cf 81 33 be a6 ba 2e 3d 7a 21 8c bc
       0.14326838 -0.17529987 0.04265847 -0.017105807
000240 a9 79 96 3e bf 0e 08 3e 92 cd 25 be ea 95 d7 bd
       0.29389694 0.13286875 -0.161917 -0.10526641
000250 e2 da 98 bd 58 c5 dc 3e 9c 55 47 3e 07 e4 8c be
       -0.074636236 0.4311931 0.19466251 -0.2751772
000260 99 b8 aa be df 79 c9 3c 43 77 99 3d 82 b8 35 3c
       -0.33343962 0.024594245 0.074934505 0.011091353
000270 f9 89 07 3e 61 9a ff bc 25 7d 7e 3d 72 75 f4 be
       0.13236226 -0.031201543 0.062131066 -0.47745854
000280 27 87 97 be ad ab 99 be 02 22 06 be ab 0f 53 bd
       -0.295953 -0.3001379 -0.1309891 -0.051528614
000290 00 3e d0 bd a4 52 e4 bd 76 69 2b 3e e4 b4 af be
       -0.101680756 -0.11148575 0.16739449 -0.34317696
0002a0 5b 46 14 3d d5 3d 0e ba 97 39 28 be e0 91 0e 3e
       0.03619991 -0.0005426084 -0.16428219 0.13922834
0002b0 6b 61 71 3d eb da 7a bd 06 47 25 be 15 0d 9c bd
       0.058930796 -0.061243933 -0.16140375 -0.07619683
0002c0 8c 33 15 3e 1b 7b 50 be d0 76 46 bd 06 ac 1a bf
       0.14570445 -0.20359461 -0.048453152 -0.60418737
0002d0 fd a8 19 bd bc 1c a7 bd 8e 55 d7 bd 21 54 43 3e
       -0.037514675 -0.081597775 -0.10514365 0.19075061
0002e0 3c ba 07 3e 25 9e e8 bd ac cc 21 be c8 be 84 be
       0.13254637 -0.11358289 -0.15800732 -0.25926805
0002f0 24 ef 1a bf bf 1b 34 be 6c de 17 3e 31 b3 e3 3e
       -0.6052115 -0.1758871 0.14830941 0.4447265
000300 38 b7 df 3d 3e 94 4f 3e fc 61 27 be 8e 33 a8 3e
       0.10923618 0.20271394 -0.16345972 0.32851833
000310 e2 46 a6 be 70 95 c2 3e 96 87 f2 3d bd df 1c be
       -0.32475954 0.38004637 0.11842267 -0.15319724
000320 01 c3 5f 3c ad 40 b7 be 41 6a e3 be ec 13 2c 3d
       0.013657332 -0.3579153 -0.44417003 0.042011186
000330 20 d1 24 3e 0b 21 a7 bc 3b 3e b6 3d 73 9b a0 3d
       0.160954 -0.020401498 0.08898588 0.078421496
000340 26 35 7b 3d 56 c2 2e bd 77 25 04 be c4 9b 98 bd
       0.061329983 -0.042665802 -0.12904917 -0.07451585
000350 f6 f5 f3 3d 66 13 47 3e 03 c2 08 be f9 54 8c 3e
       0.11912148 0.19440994 -0.1335526 0.2740858
000360 9e 40 43 3e d3 5d 5c 3d 54 61 58 be c9 64 93 bc
       0.19067618 0.053800415 -0.21130878 -0.017992394
000370 61 67 f6 3c 6f 6d c3 3d 48 b7 11 3d 72 92 14 3d
       0.030078592 0.09542357 0.03557518 0.036272474
000380 90 f4 39 3d 2b 9d 05 bb 10 14 b9 3d 93 2f ef bd
       0.04539925 -0.002038787 0.0903703 -0.11678996
000390 bf f4 34 3d 9b 6b 05 3d dd 93 50 3d 4c 6f 97 3e
       0.04417872 0.032573324 0.050922263 0.295771
0003a0 85 27 1c bf 7b 48 1d 3e 03 3b f5 bd 8e 62 a5 3e
       -0.609978 0.1535968 -0.11974146 0.32301754
0003b0 30 f1 43 bd f4 02 dc 3d c3 b2 2b 3d 54 32 ff be
       -0.047837436 0.10742751 0.041918527 -0.49843085
0003c0 eb 54 ea 3d 63 70 e3 bd a6 88 34 3d aa 8f 26 3e
       0.11441978 -0.111054204 0.04407563 0.16265741
0003d0 a8 5b c5 3d 8b 25 ac bc 0e 52 22 be 3f 6f 9a bd
       0.09636623 -0.021013996 -0.15851614 -0.0754075
0003e0 1c 62 60 3d b3 d4 dd bd ae 43 f2 3d 5e 7c d6 be
       0.054781064 -0.10831585 0.11829315 -0.4189176
0003f0 61 22 57 3e 75 68 59 be 88 79 ef ba 00 ac 21 be
       0.21009208 -0.21231253 -0.0018270472 -0.15788269

bias f4 [64]
000000 5a 6f 0a 3b 7c b1 8b bd 88 bf b8 bd 3d 3a e7 bd
       0.00211235 -0.06820962 -0.09020907 -0.11290405
000010 0d da 0f 3e 3e a5 30 3d 72 0d 9b 3d 49 c8 ce 3d
       0.14048024 0.043126337 0.07570924 0.10096795
000020 cc 20 ba 3d 10 a0 26 be d8 c6 6c 39 9b 32 e2 3d
       0.09088287 -0.16271996 0.00022580789 0.110448085
000030 05 8c da 3d c9 3c 97 bd be d2 b7 bd f8 0a a3 3d
       0.10671238 -0.07384641 -0.08975743 0.079610765
000040 60 ae e5 3c c0 bb d8 3d c0 c0 ef bd 75 35 7e ba
       0.02803725 0.105826855 -0.11706686 -0.0009697297
000050 9b bc 3b 3d ef b6 7c bd 79 21 cc bd 36 c7 f0 3d
       0.045834165 -0.061697897 -0.09967322 0.117567465
000060 7d 0e 7b bd df cd 23 be cb ed 8e bd 6a 1f e1 bd
       -0.061293114 -0.15996502 -0.06978949 -0.1099232
000070 b1 ef 93 bd 67 4a 10 be b3 96 c3 3c c1 14 96 3d
       -0.07223452 -0.14090882 0.02387557 0.07328177
000080 9b 8b e5 3b c1 d3 be 3d c7 c4 ef bd 17 8d f0 bd
       0.0070051677 0.093177326 -0.11707454 -0.11745661
000090 8a b5 62 3d 75 f8 2e 3d 1d 43 ad bc f8 82 e4 3d
       0.05534891 0.042717416 -0.021150166 0.11157793
0000a0 5d 95 86 3d eb 4e 45 be 53 65 27 3d 48 78 d0 bd
       0.065714575 -0.19268386 0.040868115 -0.10179192
0000b0 77 50 16 be 01 99 3b bc 78 b6 0b bd d7 b7 c0 3c
       -0.14679132 -0.011450053 -0.034109563 0.023525162
0000c0 40 9d 92 3c 8c e6 b0 3d 5f f2 fe 3d e2 6f af 3d
       0.017897248 0.08637723 0.12448572 0.08566262
0000d0 a6 eb 49 3d 46 b8 fa 3d 05 39 e0 3c fc a3 d1 bd
       0.049296997 0.122421786 0.027370939 -0.10236356
0000e0 0f f4 a2 3d dd 6e 74 3c 46 bc 1a be b0 dc 8e 3d
       0.07956707 0.01491901 -0.15110883 0.069756866
0000f0 b9 94 53 3d 9e 99 09 bd 58 26 13 3d ff 19 aa 3d
       0.051655505 -0.033593766 0.03592524 0.083057396

weight f4 [64, 64]
000000 be 3b 19 3e f3 66 92 3d 67 66 e2 3d 41 49 91 bd
       0.14964196 0.07148542 0.11054688 -0.0709405
000010 99 21 da 3d 7b d7 ca 3d c2 1b a3 3d a6 64 da 3d
       0.106509395 0.09904381 0.07964279 0.106637284
000020 ce 05 a5 bd 28 0d 47 bd 22 54 fd 3d 52 d4 4c bd
       -0.08057748 -0.04859653 0.12369563 -0.050007172
000030 69 7a af bd f7 81 d1 3c 9a 28 03 3e 58 29 1d 3e
       -0.0856827 0.025574667 0.12808457 0.15347803
000040 3f bf e7 bd ad 38 97 3d 2c 6d 05 be 55 43 d0 3c
       -0.11315774 0.07383857 -0.13029927 0.025422731
000050 85 5c c7 3c e9 76 97 3d 25 b5 c3 3d 66 a0 7a bd
       0.024336109 0.07395727 0.09556035 -0.061188124
000060 19 9d a6 3d 1a 61 00 be d9 0f 61 bd 3a 92 cb 3d
       0.08135433 -0.12537041 -0.054946754 0.0994
000070 5b ea 23 ba 9f 4d f0 bd 9a c1 25 bc 10 fb 5f 3d
       -0.0006252878 -0.11733555 -0.010116959 0.05468279
000080 9f 96 c0 3d 88 f3 98 bb 08 a5 61 bd 68 21 8d bd
       0.09403729 -0.004667703 -0.055089027 -0.06891137
000090 1f e9 5b bd e0 ed b0 bd 6d e9 be bd 3f e6 cf bd
       -0.05368912 -0.08639121 -0.09321866 -0.10151338
0000a0 f7 79 ba bd 5a f3 b3 bd a4 09 a2 3c c9 d4 c9 3c
       -0.09105294 -0.0878665 0.019779988 0.024637597
0000b0 ec 36 29 3c a7 f7 66 bd 64 3c 66 bd 7a 64 ba 3d
       0.010328036 -0.056388523 -0.056209937 0.09101196
0000c0 c3 1a 6b bd 46 8c e5 bc 3a 04 80 bd 57 04 ce bd
       -0.05739857 -0.02802099 -0.06250806 -0.100594215
0000d0 d3 81 2d bd ee 6c 13 3e aa ba d4 3d 51 81 11 be
       -0.04236014 0.14397022 0.10387166 -0.14209487
0000e0 31 06 aa bc ab ec b5 bd 61 a2 b1 3c b2 a3 c6 bd
       -0.020754905 -0.088830315 0.021683874 -0.09699191
0000f0 e1 b6 ca 3d 4a 1a 01 3e 88 93 c2 3d 34 b2 1e be
       0.09898163 0.12607685 0.095007956 -0.15497667
000100 fd dc 9f 3d 49 62 ef bd 92 75 e0 3c 8a 75 f2 bd
       0.07805822 -0.11688668 0.027399812 -0.11838825
000110 91 9c 19 bd 21 73 09 3e 85 c5 2f 3b 55 ae 6e bd
       -0.03750283 0.13422824 0.0026820612 -0.058271725
000120 00 da 37 be 45 82 8d 3d cc e4 6e be a8 5d 59 bd
       -0.17954254 0.069096126 -0.23329467 -0.053067833
000130 b7 6b 4d 3e 41 5b bf bd ea e6 6a be e1 be e4 3d
       0.20060621 -0.09343577 -0.22939649 0.1116922
000140 9b 5d ce bc 35 f5 28 3d 43 35 fe bd 53 c9 33 bc
       -0.025191119 0.041249473 -0.124125026 -0.010973292
000150 df 26 16 3e d0 e5 3b be 2b 85 56 bc af 0b 30 3e
       0.14663266 -0.18349385 -0.013093273 0.17191957
000160 f2 bb 21 bc 25 bc d4 bc d4 33 3b 3e 76 27 b4 bc
       -0.00987147 -0.02596862 0.1828149 -0.021991473
000170 4f e4 72 bc b9 95 5e be 22 0f c2 bd d7 4b bc 3d
       -0.014824941 -0.21736802 -0.094755426 0.09194153
000180 0d 5d 25 be ab c2 8b bc 69 8c 21 bc 33 2e 11 3e
       -0.16148777 -0.017060598 -0.009860137 0.1417778
000190 06 f2 b1 3d 26 86 81 3d 7d 41 c0 bd d7 d6 58 3e
       0.086887404 0.06324415 -0.09387491 0.21175705
0001a0 53 d6 ae 3d 5f 4a e4 bc 5f 08 cf 3d fc cc 04 be
       0.08536973 -0.027867494 0.101090185 -0.1296882
0001b0 4c 86 3a bd 62 68 86 bb f1 8a 0a 3e 7d 5f 7b 3d
       -0.04553823 -0.004101799 0.13529564 0.06137036
0001c0 50 4b 40 bd ec 9b 39 3d 68 7d b6 3d 7c 52 64 3d
       -0.046946824 0.045314714 0.08910638 0.055742726
0001d0 98 80 27 bd 3d a8 2a 3d 13 86 cf 3d e0 d6 42 3e
       -0.04089412 0.04166435 0.101329945 0.19027281
0001e0 08 c5 a7 3b 8c d0 22 3a 55 91 23 be 43 69 e7 bd
       0.0051199235 0.00062108855 -0.15973409 -0.11299374
0001f0 d3 e4 e0 bd 95 2f c8 bc a0 8b 44 3d 7a d6 96 bd
       -0.10981145 -0.024436751 0.04798472 -0.07365127
000200 3c 5a 65 be 22 22 8d 3e 07 66 01 3e 97 4b bd 3d
       -0.22397703 0.27565104 0.12636577 0.09242933
000210 e7 c2 a6 bd a0 60 7e bd 0e 30 dd 3c 54 07 8a 3c
       -0.081426434 -0.062103868 0.027000453 0.016849197
000220 53 df 20 bd 1c a1 33 bd 0d c6 22 3c ef 4a 8c bd
       -0.03927548 -0.043854818 0.009934914 -0.0685023
000230 9f 77 95 bd 76 2d 59 bd 6b c6 21 bd c7 be 41 3e
       -0.072982065 -0.05302187 -0.039495867 0.18920432
000240 c3 25 82 3c 76 87 b3 3d 77 d0 76 3d 00 e8 2a bd
       0.015887147 0.087660715 0.0602574 -0.04172516
000250 35 15 e3 bd 2d 9f 52 bd 8d a3 a2 3e e0 87 3e bd
       -0.11088029 -0.051421333 0.31765404 -0.0465163
000260 14 a2 69 bd 34 c5 1f 3e c9 9e 97 bd ec 81 97 bd
       -0.057039335 0.15602571 -0.07403333 -0.073978275
000270 4f 12 2d be cf eb ea 3c df ee 84 be e6 9b f5 bd
       -0.16901515 0.028676895 -0.25963494 -0.11992626
000280 94 16 4a 3d e3 84 50 bd 87 90 22 bd 95 95 0d 3e
       0.04933794 -0.05090798 -0.039688613 0.13826592
000290 d6 f3 9c bd be 3d 37 3d c3 62 91 3d 0c 72 2d 3e
       -0.076636955 0.044736616 0.070989154 0.16938037
0002a0 45 27 60 3e ad 9c d4 3c 59 ba e3 3d 26 9e 80 bd
       0.2188998 0.025953615 0.11119527 -0.062801644
0002b0 50 29 dc 3c da e0 6c 3c 36 a7 92 bd 09 cd da bd
       0.026875168 0.014457906 -0.07160799 -0.106836386
0002c0 6d 5f 2c 3e e7 3f bb 3d 13 93 14 bd 79 45 a4 bd
       0.16833277 0.09143048 -0.036273073 -0.08021063
0002d0 d6 80 5c 3e 1a fb cd bc d2 4e f2 3b 3d 66 04 be
       0.21533522 -0.025144149 0.00739465 -0.12929626
0002e0 dd 65 fd bb 18 0e db bd 0f a3 2b bd 3d f9 06 3e
       -0.0077330903 -0.106960475 -0.04190355 0.13181014
0002f0 f5 12 10 3d 83 96 54 be 21 61 2e bd 5c c2 cf bd
       0.03517433 -0.2076054 -0.042573098 -0.10144493
000300 33 3d 1e be 2e 8b dc bd c2 f2 fb bc 51 f1 42 39
       -0.15453033 -0.10768734 -0.030755404 0.00018591179
000310 df eb 80 3d 5f 0d 6f bd 21 da 1e 3b d4 20 81 bd
       0.06294989 -0.05836236 0.0024238902 -0.063050896
000320 97 c6 65 bd 37 f7 04 3d 78 1f 4f 3c 87 8b 1c be
       -0.056097593 0.032462325 0.01264178 -0.152876
000330 9e 30 2b 3e 96 1a 11 be b6 67 39 3d f3 fd 33 3b
       0.16717765 -0.14170298 0.045264922 0.0027464598
000340 64 bb 98 3d be 6b 13 3e 37 71 8b bc 22 5c 87 bc
       0.07457617 0.14396569 -0.017021758 -0.016523425
000350 66 09 1f 3e 1c 14 10 3e 85 40 39 be 52 54 86 3d
       0.15530929 0.14070171 -0.18091018 0.065590516
000360 bc 35 03 be 69 51 00 bd e7 cb 13 bd bf 6c 3b 3e
       -0.12813467 -0.03132764 -0.03608313 0.18303202
000370 bd 0f 6c 3d dc bc 9d bd 6a e1 dc bd 48 4f 8f be
       0.057632197 -0.07702038 -0.10785182 -0.27990174
000380 e9 66 ff bc 84 b5 a6 bc 4c 0e 95 bb a6 26 96 3c
       -0.031177001 -0.020350225 -0.0045488235 0.018328976
000390 90 0e 4c bc 40 15 4b be cb ef 08 be c8 b3 23 3c
       -0.012454644 -0.19832325 -0.13372724 0.009991594
0003a0 f0 e7 1c 3e 60 64 ca 3d e9 b8 16 3e 63 71 0f be
       0.15322852 0.09882426 0.14718975 -0.14008097
0003b0 81 eb fe 3d 90 fe 47 bd 62 40 94 bb cf 20 c6 bd
       0.124472626 -0.048826754 -0.0045242766 -0.096742265
0003c0 3e 60 4f be 4e e8 7a 3d c7 20 3e bd 7c 93 66 be
       -0.20251557 0.0612567 -0.046417978 -0.22517198
0003d0 3e f9 52 3d 5f 5e dc 3c 4d 22 53 be e7 b7 44 3d
       0.051507227 0.026900468 -0.20618553 0.048026945
0003e0 77 b7 fd 3d 5a 04 61 3d 22 0b 63 3e a6 25 27 be
       0.12388509 0.05493579 0.22172216 -0.16322955
0003f0 d9 3b b4 bd 63 f8 4c 3e 2d 22 c6 3d d3 71 8e bc
       -0.088004775 0.20016627 0.09674487 -0.01738826

bias f4 [64]
000000 d7 33 0a be 92 5b 06 be 5c 21 86 bc 0d f7 b5 3d
       -0.13496338 -0.13120869 -0.016373329 0.08885012
000010 cd 7e a5 bd 6c 6f 9a bd 44 1b 9a 3d 01 05 7c bd
       -0.08080826 -0.07540783 0.07524732 -0.06152821
000020 1d f2 ec ba 92 28 8e 3d 75 8b 91 bb 68 83 ff bc
       -0.0018077526 0.06941332 -0.0044416734 -0.03119059
000030 1e 0a be 3d 83 a5 02 be 21 ce e5 bc 0c 29 7f 3d
       0.092792735 -0.1275845 -0.028052391 0.062295005
000040 e4 84 8b 3c 18 c3 68 bd f0 9a 75 be 5a 42 83 3d
       0.01703114 -0.05682668 -0.23984885 0.0640914
000050 c6 2d ef 3b d7 e4 36 3d 76 3f 7e bd 39 3d 36 3b
       0.007299158 0.044651832 -0.06207224 0.0027807488
000060 db 96 05 3d 28 ad a2 3d 09 c6 16 3e a5 c2 77 bd
       0.03261457 0.07943183 0.14723982 -0.060488362
000070 dd f1 ae bd 75 bc 2d be b9 3d 22 be 6b 3c f0 3c
       -0.085422255 -0.16966422 -0.15843858 0.029325685
000080 7e 57 92 bc 43 71 28 bc 15 81 e3 bc ed f8 18 3e
       -0.017863985 -0.01028091 -0.027771512 0.14938708
000090 af 18 ff bd 5b 68 a1 bd 37 70 82 3d fb 7a 5f 3d
       -0.1245588 -0.07881232 0.063690595 0.054560643
0000a0 ca 2d 93 3d f7 15 a9 3d 6b b7 0a be 91 81 03 be
       0.07186468 0.082561426 -0.13546531 -0.12842394
0000b0 e8 60 04 3e 0d 1d 96 3b 5b 3a 05 be 78 6e 16 3e
       0.12927592 0.0045811 -0.13010542 0.14690578
0000c0 ce f9 de bd 77 ab ff 3c ca 7e f3 3c 4e 4c 06 be
       -0.1088749 0.03120969 0.029723544 -0.13115045
0000d0 73 e0 59 bd d0 48 70 bd 81 49 14 3c 4a 2a fc bd
       -0.053192567 -0.05866319 0.009050728 -0.123127535
0000e0 fe f1 7f 3d 13 d1 86 3d 80 26 0b 3e 6e 31 27 bc
       0.06248664 0.065828465 0.13588905 -0.010204656
0000f0 8b 21 d7 3d 50 09 1d 3d 6d e9 b8 3d fa cb 59 bd
       0.10504445 0.03833896 0.090288974 -0.053173043

weight f4 [64, 64]
000000 5f 3c 35 ba 7c cd 0d 3d 94 3a ee 3d 30 ff fe 3d
       -0.0006913598 0.034619793 0.11632267 0.12451017
000010 05 24 1e 3d 45 2e ec bd cd 99 3f 3d 5e 7e 91 3e
       0.03860857 -0.11532263 0.046777535 0.28416723
000020 e0 8c 34 3d 24 64 99 be c3 1a bd 3c 02 a6 02 3c
       0.04407966 -0.29959214 0.02308405 0.00797415
000030 67 60 7c bd 1b 6b f0 bd 6f 0b 5c 3e 49 2c 41 3d
       -0.061615374 -0.11739179 0.21488737 0.047161374
000040 1c 08 cb bd 49 97 39 bc 7e fc 1d 3e db 96 4b bc
       -0.09913656 -0.011327573 0.1542835 -0.012426103
000050 c9 4b 96 3e 02 78 4f 3d f8 72 d7 bd 16 14 94 3d
       0.29354694 0.050651558 -0.105199754 0.072303936
000060 ad ad 83 bc 2e 1e 8b 3d ac 0e 98 be 7d 3e 39 be
       -0.016074026 0.06792866 -0.29698694 -0.18090244
000070 a9 7f 02 3e a9 2f 7f bd d7 aa 26 bd de 15 8f bd
       0.12744011 -0.06230131 -0.04069027 -0.06986593
000080 e5 8a 14 3d 14 82 d1 3d 91 60 4a 3d 58 d6 0f be
       0.036265273 0.102298886 0.0494085 -0.1404661
000090 69 41 c4 bd 2c 8d 84 bd 0f 20 ff bd 02 7c 1d 3e
       -0.095827885 -0.06472239 -0.124572866 0.15379336
0000a0 94 52 2f 3d 9d d5 2c 3e eb ae 8c 3d 42 92 e5 3c
       0.042803362 0.16878362 0.068693005 0.028023843
0000b0 c7 5b 3b bc 59 e7 17 3e 5c cb 4b bd d2 08 e0 bd
       -0.011435456 0.14834346 -0.049754485 -0.10939182
0000c0 af a2 86 bc e2 7c a2 3c 08 d1 28 3d ca 75 eb bc
       -0.016434995 0.01983494 0.041214973 -0.02874269
0000d0 ba 3f 0c 3d 6d 49 12 3d 37 25 c3 3c 38 ed cd 3c
       0.034240462 0.035714556 0.023821456 0.025137529
0000e0 ba 85 e5 bc 74 3f d7 3c 57 67 cf 3d d2 30 d7 3a
       -0.028017867 0.026275374 0.101271324 0.0016417748
0000f0 8d 75 98 3d cc c6 bb 3c ac 8b 75 bd 30 fa 5a 3c
       0.07444296 0.022921942 -0.059947655 0.013365313
000100 5b 55 a7 3d 08 8b 3e 3d 99 1e 1c be 5a 01 8f 3d
       0.08170577 0.04651931 -0.15246047 0.0698268
000110 3d 1a 5e bb e4 56 b2 3d c2 88 00 be 1b c6 32 bd
       -0.003389015 0.08707979 -0.12552169 -0.04364596
000120 31 94 1a bc f4 58 09 bd bc 03 f3 3d 00 ec f9 bd
       -0.009434746 -0.033532098 0.11865947 -0.122032166
000130 4d f5 1c 3e 28 9b 35 3d c7 ba 2f be a5 26 e8 3d
       0.1532795 0.04433742 -0.17161094 0.11335496
000140 79 b5 f9 bd 8e a8 d7 bd 9f ef 8a be 0f 7f 39 bd
       -0.12192816 -0.10530196 -0.2713594 -0.04528719
000150 b0 bd c4 3d cb ca c6 bb d1 1f 87 3d 65 d2 0c be
       0.096064925 -0.0060666553 0.065978654 -0.13752134
000160 4d e5 f7 bd 51 a8 8b be e1 32 2a 3d 96 24 a1 bc
       -0.121042825 -0.27276853 0.04155243 -0.019670766
000170 5d 03 23 be ec e7 97 3d 25 3d 8c bd 39 b8 fe 3d
       -0.15919252 0.074172825 -0.068476 0.124374814
000180 ca 32 fe 3c f6 75 a6 bd f6 14 b9 bd e8 c2 31 bd
       0.031030077 -0.08127968 -0.09037201 -0.043398768
000190 84 95 2f be 0f 59 d3 3d 02 f0 17 be fc 0a f5 3d
       -0.1714688 0.10319721 -0.1483765 0.11964986
0001a0 07 22 79 bd 25 79 9c bd 57 ba 42 3e 23 ea 82 be
       -0.060823467 -0.07640294 0.19016396 -0.25569257
0001b0 0c 25 1e 3d a2 f1 0a be e4 9d 00 be f5 dd 04 bd
       0.03860955 -0.13568738 -0.1256023 -0.032438237
0001c0 65 54 b4 3d 84 ea 2b bd 03 fd ee bd d6 cb 24 bc
       0.088051595 -0.0419717 -0.11669352 -0.010058364
0001d0 99 85 ec 3c a2 08 5f 3c d2 1c c3 3d 30 45 75 be
       0.028872298 0.013612898 0.095269814 -0.23952174
0001e0 0d 2e 11 bd f5 a1 8f bc 5a 33 55 bd 4f ad 46 3d
       -0.035444308 -0.017533282 -0.052050926 0.048505124
0001f0 79 fe d0 bc 08 9d a3 bd 97 67 0a bd bb 52 38 bd
       -0.025511967 -0.07988936 -0.033790197 -0.045000773
000200 aa 51 d5 bd 4f 25 3e 3d 2f 81 51 3e ea 3c f1 bd
       -0.10415967 0.0464223 0.20459436 -0.117791966
000210 0c a4 12 3e c6 6d 81 bd f3 c8 aa 3d dc 2e fd bd
       0.14320391 -0.06319766 0.08339109 -0.12362453
000220 61 64 97 3d 89 a1 31 3e a1 30 7c be 94 16 a5 bc
       0.07392193 0.17346777 -0.24627925 -0.020152368
000230 43 59 0e 3d 31 43 12 bd a7 01 f2 3d b4 05 50 bd
       0.034753095 -0.03570861 0.118167214 -0.05078669
000240 59 b8 21 be ec 6a fd bc 72 3e 3c bd a8 3a 99 bd
       -0.1579298 -0.030934773 -0.04595799 -0.07481891
000250 57 50 85 3d 91 5e b6 3d ec 3e 20 3e a3 f6 06 3d
       0.06509464 0.08904756 0.15649003 0.032950055
000260 d7 86 73 bd 5c 61 1f 3d fb bd 5b 3c d4 44 14 be
       -0.059454765 0.03891121 0.013411994 -0.14479381
000270 2b ce 40 3e 8a 82 bb bc d1 42 82 be 0e e7 4c be
       0.18828647 -0.022889394 -0.25441602 -0.20010015
000280 85 ca 0c bd a9 39 52 3d 66 42 5d be 30 0f 82 3d
       -0.034372825 0.05132452 -0.2160736 0.06350553
000290 c5 11 56 be f7 59 dd bd 57 50 90 3d 43 5f 28 3d
       -0.20905216 -0.10808175 0.070465736 0.041106474
0002a0 a0 ea 1a 3d 1f fe 2f 3e dd 83 dc bc ce 58 97 3c
       0.037821412 0.17186783 -0.026918346 0.018474963
0002b0 87 90 0d 3e b6 66 87 be 4b 7d ee bc df ce e8 bd
       0.13824664 -0.2644555 -0.029112479 -0.113675825
0002c0 d5 ee 8d 3d 8d 9e f6 3d f2 0c b2 bd e6 ec bf bd
       0.06930319 0.1204196 -0.08693875 -0.09371357
0002d0 c5 5b 23 3e 39 a2 c7 bd 46 fe 99 bd 50 9c 1a be
       0.15952976 -0.097477384 -0.07519202 -0.15098691
0002e0 e1 2f 86 bc 1a 83 f6 3d 46 0f d9 3c 6e 0b a7 3d
       -0.016380252 0.120367244 0.02649654 0.08156477
0002f0 ca c1 a5 bd 26 33 ea 3b 9a bb 67 3d d8 ea 89 be
       -0.08093603 0.0071472107 0.056575395 -0.26936984
000300 35 f3 e6 3d a4 8e 39 be dd 8a 08 3d 09 7f fc 3d
       0.11276857 -0.1812082 0.033335555 0.123289175
000310 d9 76 e7 bb 29 e4 5d 3d b4 ac 49 be bd 89 b8 bd
       -0.0070637283 0.05417267 -0.19694787 -0.090106465
000320 c2 88 e8 bd 7a 31 ab bd 82 ad 58 be 90 65 22 bc
       -0.113542095 -0.08359046 -0.21159938 -0.00991191
000330 a4 db c9 bd 90 56 6e be cf 8b 96 be 70 95 48 ba
       -0.09856346 -0.23275208 -0.2940354 -0.00076516625
000340 0e 82 e2 3d 5a 12 84 3d 8d cc 7f 3d 7b 88 6c 3c
       0.11059962 0.06448813 0.062450934 0.014436836
000350 c8 6a 92 bc 70 f9 67 be cf 9f ea bc 69 9a 10 be
       -0.017873183 -0.22653747 -0.028640656 -0.14121403
000360 72 c2 be bd 26 fe 80 be 10 61 bb 3d be 8a aa 3b
       -0.09314431 -0.251939 0.091493726 0.0052045276
000370 30 f4 3a be a0 5e 60 be 8d 1d d4 bd 65 e8 12 3e
       -0.18257213 -0.21911097 -0.10357199 0.14346464
000380 d0 81 c9 3d f1 c0 86 be f1 f0 10 bc 88 8f 42 bd
       0.09839213 -0.26319078 -0.008846507 -0.047500163
000390 22 12 09 bc 6a a8 a8 3d 4b e1 d5 3d 1a a8 49 3e
       -0.00836614 0.082352474 0.10443362 0.19693032
0003a0 0d 0e 6a 3d e8 62 6e be 0b cb 0c bd bf 32 98 be
       0.057142306 -0.23279917 -0.034373324 -0.29726216
0003b0 e5 83 82 be c1 de c0 3d eb 12 79 3b 0b ed d6 3d
       -0.25491253 0.09417487 0.003800566 0.10494431
0003c0 30 1d 1f bd 5b 22 33 be 7e 4c 08 3e 54 e2 b5 bd
       -0.038846195 -0.17493574 0.1331043 -0.08881059
0003d0 ee 0a 8f bd 7e 83 e2 3d b7 99 bb bd 76 f3 86 bd
       -0.069845065 0.110602364 -0.09160178 -0.06589405
0003e0 4d f3 27 be 52 66 f0 bd 5a 5c 7d bd db b3 86 bd
       -0.16401406 -0.11738266 -0.06185565 -0.065772735
0003f0 0f 25 1d 3c 1c 0d ce 3c a4 8f b1 bd 2c dd dd 3d
       0.009591355 0.025152735 -0.086699754 0.10833201

bias f4 [64]
000000 8d 70 d3 3c d0 b8 08 3e 2e c0 b3 3d 1c fe 8d 3d
       0.025810504 0.1335175 0.0877689 0.06933233
000010 a0 73 00 be 66 a7 32 bc f6 ab 1b bd 72 cf c4 3d
       -0.12544107 -0.010904169 -0.03800579 0.096098796
000020 c2 38 f4 bd ad c5 76 bc 39 9f 85 bd 8d 38 d6 bc
       -0.11924888 -0.015061778 -0.0652451 -0.026150012
000030 da 91 aa 3b b1 54 9e bd 97 94 92 bb ac f1 26 bc
       0.005205375 -0.07730997 -0.0044732797 -0.010189455
000040 fd 15 26 3b c2 39 b5 3d 99 8e 13 bd 12 b4 f7 3c
       0.0025342696 0.08848907 -0.036024664 0.030237231
000050 41 ad 56 bd b3 d9 8f bd a6 ca ab 3d 0e dd f7 bd
       -0.05241132 -0.07023945 0.083882615 -0.1210271
000060 4a 5d 55 bd 3e ef ba 3d 4d c9 32 3d be cb 99 bb
       -0.05209092 0.09127663 0.043649007 -0.0046934774
000070 33 2a f9 bd 29 55 df bc 27 ed 77 be ba cd a9 3d
       -0.12166252 -0.027262287 -0.2421156 0.08291192
000080 6d 75 cb ba 9b f0 9b 3c 59 b4 3b bd 45 e9 13 3d
       -0.0015522667 0.019035628 -0.04582629 0.036111135
000090 b6 97 6e bd 5a ed 57 bd 26 0d 02 3e 94 97 04 be
       -0.05825015 -0.05271659 0.12700328 -0.12948447
0000a0 5a 4a 23 be 67 ba 9c 3d a9 9b 9e 3d bc b9 c1 3c
       -0.15946332 0.07652741 0.077445336 0.023648135
0000b0 11 28 7c 3d 2b c7 c7 3d a7 88 9a 3a 70 86 17 bc
       0.061561648 0.09754785 0.0011789993 -0.009248361
0000c0 26 aa 12 3c 3a 4e 09 3e 22 d8 63 bb 17 8c 6d 3d
       0.008951699 0.13408747 -0.0034766276 0.05799493
0000d0 ad bb 8b 3d 3a a4 d1 bd b2 41 59 bd 5f 77 a6 bc
       0.06822906 -0.10236402 -0.053041168 -0.020320592
0000e0 ad cc 90 3d 8f 0b 87 bd c9 19 d1 3c 63 0e e8 3d
       0.07070289 -0.065940015 0.02552499 0.11330869
0000f0 32 14 b7 bd 2b 55 b0 3d bf 04 60 bd 2b c7 2f 3c
       -0.08939399 0.086099945 -0.054692026 0.010728638
