result/AIDS700nef/N2Gim/sum_none_pGinFalse_woNodeattFalse_woGraphattFalse/2022-09-10_12-32-16/minvaild_0.pt (torch, 268254 bytes, 36 tensors)

weight f4 [64, 64]
0	0x00000000	0.0
1	0x00000000	0.0
2	0x00000000	0.0
3	0x00000000	0.0
4	0x00000000	0.0
5	0x00000000	0.0
6	0x00000000	0.0
7	0x00000000	0.0
8	0x00000000	0.0
9	0x00000000	0.0
10	0x00000000	0.0
11	0x00000000	0.0
12	0x00000000	0.0
13	0x00000000	0.0
14	0x00000000	0.0
15	0x00000000	0.0
16	0x00000000	0.0
17	0x00000000	0.0
18	0x00000000	0.0
19	0x00000000	0.0
20	0x00000000	0.0
21	0x00000000	0.0
22	0x00000000	0.0
23	0x00000000	0.0
24	0x00000000	0.0
25	0x00000000	0.0
26	0x00000000	0.0
27	0x00000000	0.0
28	0x00000000	0.0
29	0x00000000	0.0
30	0x00000000	0.0
31	0x00000000	0.0
32	0x00000000	0.0
33	0x00000000	0.0
34	0x00000000	0.0
35	0x00000000	0.0
36	0x00000000	0.0
37	0x00000000	0.0
38	0x00000000	0.0
39	0x00000000	0.0
40	0x00000000	0.0
41	0x00000000	0.0
42	0x00000000	0.0
43	0x00000000	0.0
44	0x00000000	0.0
45	0x00000000	0.0
46	0x00000000	0.0
47	0x00000000	0.0
48	0x00000000	0.0
49	0x00000000	0.0
50	0x00000000	0.0
51	0x00000000	0.0
52	0x00000000	0.0
53	0x00000000	0.0
54	0x00000000	0.0
55	0x00000000	0.0
56	0x00000000	0.0
57	0x00000000	0.0
58	0x00000000	0.0
59	0x00000000	0.0
60	0x00000000	0.0
61	0x00000000	0.0
62	0x00000000	0.0
63	0x00000000	0.0
64	0x00000000	0.0
65	0x00000000	0.0
66	0x00000000	0.0
67	0x00000000	0.0
68	0x00000000	0.0
69	0x00000000	0.0
70	0x00000000	0.0
71	0x00000000	0.0
72	0x00000000	0.0
73	0x00000000	0.0
74	0x00000000	0.0
75	0x00000000	0.0
76	0x00000000	0.0
77	0x00000000	0.0
78	0x00000000	0.0
79	0x00000000	0.0
80	0x00000000	0.0
81	0x00000000	0.0
82	0x00000000	0.0
83	0x00000000	0.0
84	0x00000000	0.0
85	0x00000000	0.0
86	0x00000000	0.0
87	0x00000000	0.0
88	0x00000000	0.0
89	0x00000000	0.0
90	0x00000000	0.0
91	0x00000000	0.0
92	0x00000000	0.0
93	0x00000000	0.0
94	0x00000000	0.0
95	0x00000000	0.0
96	0x00000000	0.0
97	0x00000000	0.0
98	0x00000000	0.0
99	0x00000000	0.0
100	0x00000000	0.0
101	0x00000000	0.0
102	0x00000000	0.0
103	0x00000000	0.0
104	0x00000000	0.0
105	0x00000000	0.0
106	0x00000000	0.0
107	0x00000000	0.0
108	0x00000000	0.0
109	0x00000000	0.0
110	0x00000000	0.0
111	0x00000000	0.0
112	0x00000000	0.0
113	0x00000000	0.0
114	0x00000000	0.0
115	0x00000000	0.0
116	0x00000000	0.0
117	0x00000000	0.0
118	0x00000000	0.0
119	0x00000000	0.0
120	0x00000000	0.0
121	0x00000000	0.0
122	0x00000000	0.0
123	0x00000000	0.0
124	0x00000000	0.0
125	0x00000000	0.0
126	0x00000000	0.0
127	0x00000000	0.0
128	0x00000000	0.0
129	0x00000000	0.0
130	0x00000000	0.0
131	0x00000000	0.0
132	0x00000000	0.0
133	0x00000000	0.0
134	0x00000000	0.0
135	0x00000000	0.0
136	0x00000000	0.0
137	0x00000000	0.0
138	0x00000000	0.0
139	0x00000000	0.0
140	0x00000000	0.0
141	0x00000000	0.0
142	0x00000000	0.0
143	0x00000000	0.0
144	0x00000000	0.0
145	0x00000000	0.0
146	0x00000000	0.0
147	0x00000000	0.0
148	0x00000000	0.0
149	0x00000000	0.0
150	0x00000000	0.0
151	0x00000000	0.0
152	0x00000000	0.0
153	0x00000000	0.0
154	0x00000000	0.0
155	0x00000000	0.0
156	0x00000000	0.0
157	0x00000000	0.0
158	0x00000000	0.0
159	0x00000000	0.0
160	0x00000000	0.0
161	0x00000000	0.0
162	0x00000000	0.0
163	0x00000000	0.0
164	0x00000000	0.0
165	0x00000000	0.0
166	0x00000000	0.0
167	0x00000000	0.0
168	0x00000000	0.0
169	0x00000000	0.0
170	0x00000000	0.0
171	0x00000000	0.0
172	0x00000000	0.0
173	0x00000000	0.0
174	0x00000000	0.0
175	0x00000000	0.0
176	0x00000000	0.0
177	0x00000000	0.0
178	0x00000000	0.0
179	0x00000000	0.0
180	0x00000000	0.0
181	0x00000000	0.0
182	0x00000000	0.0
183	0x00000000	0.0
184	0x00000000	0.0
185	0x00000000	0.0
186	0x00000000	0.0
187	0x00000000	0.0
188	0x00000000	0.0
189	0x00000000	0.0
190	0x00000000	0.0
191	0x00000000	0.0
192	0x00000000	0.0
193	0x00000000	0.0
194	0x00000000	0.0
195	0x00000000	0.0
196	0x00000000	0.0
197	0x00000000	0.0
198	0x00000000	0.0
199	0x00000000	0.0
200	0x00000000	0.0
201	0x00000000	0.0
202	0x00000000	0.0
203	0x00000000	0.0
204	0x00000000	0.0
205	0x00000000	0.0
206	0x00000000	0.0
207	0x00000000	0.0
208	0x00000000	0.0
209	0x00000000	0.0
210	0x00000000	0.0
211	0x00000000	0.0
212	0x00000000	0.0
213	0x00000000	0.0
214	0x00000000	0.0
215	0x00000000	0.0
216	0x00000000	0.0
217	0x00000000	0.0
218	0x00000000	0.0
219	0x00000000	0.0
220	0x00000000	0.0
221	0x00000000	0.0
222	0x00000000	0.0
223	0x00000000	0.0
224	0x00000000	0.0
225	0x00000000	0.0
226	0x00000000	0.0
227	0x00000000	0.0
228	0x00000000	0.0
229	0x00000000	0.0
230	0x00000000	0.0
231	0x00000000	0.0
232	0x00000000	0.0
233	0x00000000	0.0
234	0x00000000	0.0
235	0x00000000	0.0
236	0x00000000	0.0
237	0x00000000	0.0
238	0x00000000	0.0
239	0x00000000	0.0
240	0x00000000	0.0
241	0x00000000	0.0
242	0x00000000	0.0
243	0x00000000	0.0
244	0x00000000	0.0
245	0x00000000	0.0
246	0x00000000	0.0
247	0x00000000	0.0
248	0x00000000	0.0
249	0x00000000	0.0
250	0x00000000	0.0
251	0x00000000	0.0
252	0x00000000	0.0
253	0x00000000	0.0
254	0x00000000	0.0
255	0x00000000	0.0

bias f4 [64, 64]
0	0x00000000	0.0
1	0x00000000	0.0
2	0x00000000	0.0
3	0x00000000	0.0
4	0x00000000	0.0
5	0x00000000	0.0
6	0x00000000	0.0
7	0x00000000	0.0
8	0x00000000	0.0
9	0x00000000	0.0
10	0x00000000	0.0
11	0x00000000	0.0
12	0x00000000	0.0
13	0x00000000	0.0
14	0x00008191	4.648e-41
15	0x00000000	0.0
16	0x00000000	0.0
17	0x00000000	0.0
18	0x00000000	0.0
19	0x00000000	0.0
20	0x00000000	0.0
21	0x00000000	0.0
22	0x00000000	0.0
23	0x00000000	0.0
24	0x00000000	0.0
25	0x00000000	0.0
26	0x00000000	0.0
27	0x00000000	0.0
28	0x00000000	0.0
29	0x00000000	0.0
30	0x00000000	0.0
31	0x00000000	0.0
32	0x00000000	0.0
33	0x00000000	0.0
34	0x00000000	0.0
35	0x00000000	0.0
36	0x00000000	0.0
37	0x00000000	0.0
38	0x00000000	0.0
39	0x00000000	0.0
40	0x00000000	0.0
41	0x00000000	0.0
42	0x00000000	0.0
43	0x00000000	0.0
44	0x00000000	0.0
45	0x00000000	0.0
46	0x00000000	0.0
47	0x00000000	0.0
48	0x00000000	0.0
49	0x00000000	0.0
50	0x00000000	0.0
51	0x00000000	0.0
52	0x00000000	0.0
53	0x00000000	0.0
54	0x00000000	0.0
55	0x00000000	0.0
56	0x00000000	0.0
57	0x00000000	0.0
58	0x00000000	0.0
59	0x00000000	0.0
60	0x00000000	0.0
61	0x00000000	0.0
62	0x00000000	0.0
63	0x00000000	0.0
64	0x00000000	0.0
65	0x00000000	0.0
66	0x00000000	0.0
67	0x00000000	0.0
68	0x00000000	0.0
69	0x00000000	0.0
70	0x00000000	0.0
71	0x00000000	0.0
72	0x00000000	0.0
73	0x00000000	0.0
74	0x00000000	0.0
75	0x00000000	0.0
76	0x00000000	0.0
77	0x00000000	0.0
78	0x00000000	0.0
79	0x00000000	0.0
80	0x00000000	0.0
81	0x00000000	0.0
82	0x00000000	0.0
83	0x00000000	0.0
84	0x00000000	0.0
85	0x00000000	0.0
86	0x00000000	0.0
87	0x00000000	0.0
88	0x00000000	0.0
89	0x00000000	0.0
90	0x00000000	0.0
91	0x00000000	0.0
92	0x00000000	0.0
93	0x00000000	0.0
94	0x00000000	0.0
95	0x00000000	0.0
96	0x00000000	0.0
97	0x00000000	0.0
98	0x00000000	0.0
99	0x00000000	0.0
100	0x00000000	0.0
101	0x00000000	0.0
102	0x00000000	0.0
103	0x00000000	0.0
104	0x00000000	0.0
105	0x00000000	0.0
106	0x00000000	0.0
107	0x00000000	0.0
108	0x00000000	0.0
109	0x00000000	0.0
110	0x00000000	0.0
111	0x00000000	0.0
112	0x00000000	0.0
113	0x00000000	0.0
114	0x00000000	0.0
115	0x00000000	0.0
116	0x00000000	0.0
117	0x00000000	0.0
118	0x00000000	0.0
119	0x00000000	0.0
120	0x00000000	0.0
121	0x00000000	0.0
122	0x00000000	0.0
123	0x00000000	0.0
124	0x00000000	0.0
125	0x00000000	0.0
126	0x00000000	0.0
127	0x00000000	0.0
128	0x00000000	0.0
129	0x00000000	0.0
130	0x00000000	0.0
131	0x00000000	0.0
132	0x00000000	0.0
133	0x00000000	0.0
134	0x00000000	0.0
135	0x00000000	0.0
136	0x00000000	0.0
137	0x00000000	0.0
138	0x00000000	0.0
139	0x00000000	0.0
140	0x00000000	0.0
141	0x00000000	0.0
142	0x00000000	0.0
143	0x00000000	0.0
144	0x00000000	0.0
145	0x00000000	0.0
146	0x00000000	0.0
147	0x00000000	0.0
148	0x00000000	0.0
149	0x00000000	0.0
150	0x00000000	0.0
151	0x00000000	0.0
152	0x00000000	0.0
153	0x00000000	0.0
154	0x00000000	0.0
155	0x00000000	0.0
156	0x00000000	0.0
157	0x00000000	0.0
158	0x00000000	0.0
159	0x00000000	0.0
160	0x00000000	0.0
161	0x00000000	0.0
162	0x00000000	0.0
163	0x00000000	0.0
164	0x00000000	0.0
165	0x00000000	0.0
166	0x00000000	0.0
167	0x00000000	0.0
168	0x00000000	0.0
169	0x00000000	0.0
170	0x00000000	0.0
171	0x00000000	0.0
172	0x00000000	0.0
173	0x00000000	0.0
174	0x00000000	0.0
175	0x00000000	0.0
176	0x00000000	0.0
177	0x00000000	0.0
178	0x00000000	0.0
179	0x00000000	0.0
180	0x00000000	0.0
181	0x00000000	0.0
182	0x00000000	0.0
183	0x00000000	0.0
184	0x00000000	0.0
185	0x00000000	0.0
186	0x00000000	0.0
187	0x00000000	0.0
188	0x00000000	0.0
189	0x00000000	0.0
190	0x00000000	0.0
191	0x00000000	0.0
192	0x00000000	0.0
193	0x00000000	0.0
194	0x00000000	0.0
195	0x00000000	0.0
196	0x00000000	0.0
197	0x00000000	0.0
198	0x00000000	0.0
199	0x00000000	0.0
200	0x00000000	0.0
201	0x00000000	0.0
202	0x00000000	0.0
203	0x00000000	0.0
204	0x00000000	0.0
205	0x00000000	0.0
206	0x00000000	0.0
207	0x00000000	0.0
208	0x00000000	0.0
209	0x00000000	0.0
210	0x00000000	0.0
211	0x00000000	0.0
212	0x00000000	0.0
213	0x00000000	0.0
214	0x00000000	0.0
215	0x00000000	0.0
216	0x00000000	0.0
217	0x00000000	0.0
218	0x00000000	0.0
219	0x00000000	0.0
220	0x00000000	0.0
221	0x00000000	0.0
222	0x00000000	0.0
223	0x00000000	0.0
224	0x00000000	0.0
225	0x00000000	0.0
226	0x00000000	0.0
227	0x00000000	0.0
228	0x00000000	0.0
229	0x00000000	0.0
230	0x00000000	0.0
231	0x00000000	0.0
232	0x00000000	0.0
233	0x00000000	0.0
234	0x00000000	0.0
235	0x00000000	0.0
236	0x00000000	0.0
237	0x00000000	0.0
238	0x00000000	0.0
239	0x00000000	0.0
240	0x00000000	0.0
241	0x00000000	0.0
242	0x00000000	0.0
243	0x00000000	0.0
244	0x00000000	0.0
245	0x00000000	0.0
246	0x00000000	0.0
247	0x00000000	0.0
248	0x00000000	0.0
249	0x00000000	0.0
250	0x00000000	0.0
251	0x00000000	0.0
252	0x00000000	0.0
253	0x00000000	0.0
254	0x00000000	0.0
255	0x00000000	0.0

weight f4 [64, 64]
0	0xbcfb48d1	-0.03067437
1	0xbd9d71fa	-0.07687755
2	0xbe744293	-0.23853521
3	0x3d950b8b	0.07277592
4	0xbe94cf27	-0.29064295
5	0xbe2c1685	-0.16805466
6	0xbe263856	-0.16232428
7	0x3d9bd681	0.07609273
8	0xbe0cf59e	-0.1376557
9	0x3d7af79d	0.0612713
10	0xbdde3f3b	-0.10851904
11	0x3e1f468f	0.1555426
12	0xbd869e5d	-0.06573174
13	0x3db4ee26	0.08834486
14	0x3d14d663	0.036337268
15	0xbe52c1f9	-0.20581807
16	0x3dd62161	0.10455585
17	0x3cf02149	0.029312747
18	0x3daefd8c	0.08544454
19	0xbddb8a88	-0.10719782
20	0x3e15c316	0.146252
21	0x3e1f6190	0.15564561
22	0xbc16d6f8	-0.009206526
23	0xbd74b939	-0.059746955
24	0x3e13db99	0.14439239
25	0x3c7a09dc	0.01526114
26	0xbdb52c32	-0.0884632
27	0xbd44ca71	-0.048044626
28	0xbdb6c293	-0.08923831
29	0xbd772a5c	-0.06034313
30	0xbde5f0a0	-0.11227536
31	0x3e82e90f	0.25568435
32	0x3e24c7a0	0.16091776
33	0x3d04a709	0.03238586
34	0xbd9543e1	-0.072883375
35	0xbdd6cea1	-0.1048863
36	0x3e599efc	0.21252054
37	0xbcd1c665	-0.025607297
38	0x3e5667f8	0.20938098
39	0x3debdf42	0.115171924
40	0xbe30ef2b	-0.17278735
41	0x3d8454e4	0.06461504
42	0x3dd9f9a3	0.106433176
43	0x3d25fc86	0.04052403
44	0x3e23b6ae	0.15987656
45	0x3e080333	0.1328247
46	0x3d939d10	0.07207692
47	0xbd836e84	-0.064175636
48	0xbd5fccfe	-0.054638855
49	0x3e0d3294	0.13788825
50	0xbc379a08	-0.0112061575
51	0xbdb02f77	-0.08602803
52	0xbdd1dbf6	-0.10247032
53	0xbd4dc6a2	-0.05023826
54	0xbddbe091	-0.10736192
55	0xbe621957	-0.22079979
56	0x3e52ed50	0.2059834
57	0xbda88abf	-0.08229589
58	0xbdb51388	-0.08841616
59	0x3da81cd9	0.08208627
60	0x3d9553dc	0.072913855
61	0x3d134fbe	0.03596472
62	0x3da5b8b5	0.08091871
63	0xbdc2f24c	-0.09518871
64	0x3d8339c2	0.06407501
65	0x3e3e1d9b	0.18565981
66	0xbe42f5ee	-0.19039127
67	0xbd4d087f	-0.05005693
68	0x3dc2c055	0.09509341
69	0x3d43f533	0.047841262
70	0x3da72e1c	0.081630915
71	0x3dce69d7	0.10078781
72	0x3ddb7417	0.10715502
73	0x3de40565	0.111338414
74	0x3d70a5a0	0.058751702
75	0xbd0b69de	-0.03403651
76	0x3de0b9c3	0.10972931
77	0x3bf087b0	0.007340394
78	0xbda65acc	-0.08122787
79	0xbdbdb726	-0.092634484
80	0x3e1ce162	0.15320352
81	0xbe05176b	-0.12997214
82	0x3da6e1d0	0.08148539
83	0x3dc7480d	0.097305395
84	0xbe3585a8	-0.17726767
85	0xbe10b31a	-0.14130822
86	0xbdcdf5eb	-0.10056671
87	0x3db28bd1	0.08718074
88	0x3d90d540	0.07071924
89	0x3d8011ba	0.06253381
90	0xbc474f9e	-0.012164978
91	0x3c4343b9	0.011918002
92	0xbc8ae46d	-0.016954625
93	0x3dae8a8e	0.08522521
94	0xbd813559	-0.063090034
95	0x3d27249e	0.040806405
96	0x3dd71ed6	0.10503928
97	0x3cce6731	0.02519569
98	0x3dbf09c3	0.09328034
99	0xbe17f49b	-0.14839403
100	0xbdee6f83	-0.11642363
101	0xbd1120f3	-0.035431813
102	0x3e838756	0.2568919
103	0x3b736eea	0.0037144967
104	0xbd96bb72	-0.07359971
105	0xbdbccad5	-0.09218375
106	0x3e10c863	0.14138941
107	0xbde3eaa8	-0.111287415
108	0xbd03c9e7	-0.03217497
109	0xbd5512a1	-0.05201972
110	0xbd2765c9	-0.040868554
111	0x3d901c21	0.07036615
112	0xbc38552a	-0.011250773
113	0xbd0f501a	-0.0349885
114	0x3df2a5dd	0.11848042
115	0x3cfbca62	0.030736152
116	0x3d66cc90	0.05634743
117	0xbe18bb80	-0.14915276
118	0x3b944194	0.004524419
119	0xbd34b46e	-0.044117384
120	0xbd4667d7	-0.048438873
121	0x3d4d3f2a	0.050109066
122	0xbcf2fb76	-0.029660922
123	0x3de8dc42	0.11370136
124	0x3e30f26e	0.1727998
125	0x3d812cde	0.06307386
126	0xbe9c9c2b	-0.30587897
127	0x3e604334	0.21900636
128	0xbd938f3d	-0.07205055
129	0x3d80b24b	0.06284007
130	0xbe299b8b	-0.16563241
131	0x3e887069	0.26648262
132	0xbdb767b9	-0.089553304
133	0x3bcb158c	0.006197637
134	0x3b8236eb	0.003973832
135	0x3cbc5164	0.022988029
136	0x3d949ceb	0.07256492
137	0x3cc8bbb8	0.024503574
138	0x3de1a3ba	0.110175565
139	0x3c83ef10	0.016105205
140	0x3d79538d	0.060870696
141	0x3e09f0b7	0.13470732
142	0x3deabdf1	0.1146201
143	0x3dc0f701	0.09422112
144	0xbc875616	-0.016520541
145	0xbd2ad1fb	-0.04170416
146	0x3d603271	0.054735605
147	0xbd8d99c8	-0.06914097
148	0x3d9e854b	0.07740267
149	0x3d67472e	0.056464367
150	0xbcdbed40	-0.026846528
151	0x3ca2ef44	0.019889481
152	0x3d127092	0.035751887
153	0xbd0d4ef8	-0.03449914
154	0xbd6e9b9d	-0.058253873
155	0x3d8b668b	0.06806668
156	0x3d882668	0.066479504
157	0xbcba2e92	-0.022727285
158	0x3d53fdc4	0.05175568
159	0xbdb4e650	-0.08832991
160	0xbe01321e	-0.12616774
161	0x3dbcbf5d	0.09216187
162	0x3df98c25	0.121849336
163	0x3dcc8e8e	0.09988128
164	0x3da59365	0.08084754
165	0x3e3351b0	0.1751163
166	0x3d0e0c10	0.034679472
167	0xbd3b87f4	-0.045783952
168	0x3d8c6118	0.06854457
169	0x3d63dbe6	0.055629633
170	0xbd238b3f	-0.039927717
171	0x3d514bdd	0.05109774
172	0xbde25e37	-0.11053126
173	0x3c48deb1	0.012260125
174	0x3ba324c5	0.0049787485
175	0x3cc5bde8	0.024138406
176	0xbbfa26e4	-0.0076340307
177	0x3d1f5589	0.038899932
178	0xbd3e381a	-0.04644022
179	0xbd4dc6ad	-0.0502383
180	0xbc184d81	-0.009295822
181	0x3e00af2c	0.12566823
182	0x3a9a8869	0.0011789921
183	0xbe630d79	-0.22173108
184	0xbd62d415	-0.05537804
185	0x3cf3bd6c	0.02975341
186	0xbd627fc5	-0.05529763
187	0x3d94012c	0.07226786
188	0x3e15bf06	0.14623651
189	0xbd37c7ae	-0.044868164
190	0x3e017b68	0.12644732
191	0x3e00998c	0.12558573
192	0xbc8dd3ae	-0.01731285
193	0xbe408400	-0.18800354
194	0xbda0f0cc	-0.07858428
195	0xbda30d3b	-0.07961508
196	0x3cb8b7dd	0.02254861
197	0xbc896534	-0.01677189
198	0xbc53e24a	-0.0129323695
199	0xbe0133b6	-0.12617382
200	0xbe4ff3b5	-0.2030781
201	0xbc05d3fa	-0.008168215
202	0x3db7369b	0.08945962
203	0xbdc3b0ea	-0.09555228
204	0x3da921a3	0.08258369
205	0x3e1ff9f2	0.1562269
206	0x3c1d1dc7	0.009589619
207	0x3d8e81af	0.06958329
208	0xbe8d4c05	-0.2759706
209	0xbd6fad67	-0.05851498
210	0x3dcbe160	0.09955096
211	0x3d8bd2b8	0.06827301
212	0x3cda4718	0.026645228
213	0x3deae9bd	0.11470363
214	0xbda71e5c	-0.081600875
215	0x3d92fc35	0.07177011
216	0x3de143ca	0.10999258
217	0x3d1a0cfa	0.03761003
218	0x3d4eee8d	0.05052047
219	0x3d966afd	0.07344625
220	0xbd78a389	-0.060702834
221	0x3e1c29de	0.15250346
222	0x3d8ba61a	0.06818791
223	0x3c8d358d	0.017237449
224	0xbd6307fd	-0.05542754
225	0x3dd0dbae	0.101981506
226	0x3d0e365e	0.034719817
227	0x3e508ca3	0.20366149
228	0x3d8f03c5	0.06983141
229	0x3d8c702e	0.06857334
230	0xbd6b3f01	-0.057433132
231	0xbe0d86a2	-0.1382089
232	0x3c07faf7	0.008299581
233	0xbe007580	-0.12544823
234	0xbd2bc39d	-0.0419346
235	0x3d322af4	0.043497995
236	0xbdccab61	-0.099936254
237	0x3d62613d	0.055268515
238	0xbe0985ad	-0.134299
239	0xbdbafb13	-0.0912992
240	0xbe4075e8	-0.18794978
241	0x3dbc5d45	0.09197477
242	0x3df202bc	0.11816928
243	0xbe285ec9	-0.16442408
244	0xbc40820d	-0.0117497565
245	0x3cb05888	0.02152659
246	0x3e847b3f	0.2587528
247	0xbc780281	-0.015137316
248	0x3cf090a0	0.029365838
249	0x3e370896	0.17874369
250	0xbd8bb75d	-0.06822083
251	0x3e0ce870	0.13760543
252	0xbe516461	-0.20448448
253	0x3d0df75b	0.034659725
254	0xbd0c76c3	-0.034292948
255	0xbe1df08b	-0.15423791

bias f4 [64]
0	0xbd846782	-0.06465055
1	0x3e1f724e	0.15570948
2	0xbc8a216c	-0.01686164
3	0xbdad4841	-0.08461047
4	0xbd928b37	-0.071554594
5	0xbd201659	-0.039083812
6	0x3e3472ea	0.17621961
7	0xbd1ea608	-0.03873256
8	0x3d040194	0.032228068
9	0xbda27af0	-0.07933605
10	0x3da552fe	0.0807247
11	0xbc106f48	-0.008815594
12	0x3df3444c	0.11878261
13	0xbdcc7069	-0.09982378
14	0x3e0f6527	0.1400343
15	0x3c4485b5	0.011994769
16	0x3d8941bf	0.06701993
17	0xbc001033	-0.007816362
18	0x3e03520e	0.1282427
19	0xbd5ff6be	-0.05467867
20	0x3c9aaffe	0.018882748
21	0x3d8f9151	0.07010139
22	0x3c88975f	0.016673742
23	0x3cb81168	0.022469237
24	0xbdb44977	-0.08803075
25	0x3dc1b67d	0.09458635
26	0x3e05e7bc	0.13076681
27	0xbc419a0f	-0.011816516
28	0xbcf84180	-0.03030467
29	0x3dfd86df	0.1237924
30	0xbca11b88	-0.019666448
31	0x3e5e3d9e	0.21703193
32	0xbda0da83	-0.07854178
33	0xbd5981ea	-0.05310241
34	0xbda33f28	-0.079710305
35	0xbd714397	-0.05890235
36	0x3d0a7533	0.033803176
37	0x3cf40baf	0.029790727
38	0xbd8a6b15	-0.067587055
39	0x3d40454d	0.04694109
40	0x3df925f7	0.12165444
41	0x3cfa6f02	0.03057051
42	0x3a5a959d	0.0008338334
43	0x3d669ed1	0.056303803
44	0xbd793fa4	-0.060851708
45	0x3da804ce	0.082040414
46	0xbde1b182	-0.11020185
47	0x3d9a1544	0.07523587
48	0x3cd40b59	0.025884317
49	0x3dfdeeaa	0.12399037
50	0xbd8f6917	-0.07002466
51	0xbce0caa8	-0.027440384
52	0xbd2089ef	-0.039194044
53	0x3cee1946	0.029064786
54	0x3d2c0be8	0.042003542
55	0x3e0da9a1	0.1383424
56	0x3e0f4b3f	0.13993548
57	0xbd729053	-0.05921967
58	0x3cddd476	0.027078848
59	0x3d5bf0a4	0.05369629
60	0xbd7ae9d9	-0.06125817
61	0x3e3cc74a	0.18435398
62	0x3dc2f754	0.0951983
63	0xbcff705e	-0.03118151

weight f4 [64, 36]
0	0x3dcafc5d	0.09911416
1	0x3e33fd97	0.17577206
2	0x3d2d792e	0.042351894
3	0x3d8089e5	0.06276301
4	0xbdbb964f	-0.091595285
5	0x3c02de5b	0.007987584
6	0x3dc0f3ac	0.09421477
7	0xbdf525ba	-0.119700864
8	0x3dc98bab	0.09841093
9	0xbe127344	-0.14301783
10	0xbd05e1fb	-0.032686215
11	0x3d692fc6	0.056930326
12	0xbe948f31	-0.29015496
13	0xbe9cf24e	-0.30653614
14	0xbeba3975	-0.3637196
15	0x3eb01d50	0.34397364
16	0xbf0ecb1a	-0.5577866
17	0x3e5edb5c	0.21763366
18	0x3e11553f	0.14192675
19	0xbe91d748	-0.2848456
20	0xbdf21ef2	-0.118223086
21	0xbe9a23a6	-0.30105323
22	0xbdc48c47	-0.09597068
23	0xbe926337	-0.2859132
24	0x3dc42073	0.09576502
25	0xbdd359d8	-0.10319871
26	0x3df1b0d0	0.118013024
27	0xbdd0cf76	-0.1019582
28	0x3df81d58	0.12114972
29	0x3de3925b	0.111118995
30	0xbdd74a21	-0.10512186
31	0x3e28d76e	0.1648843
32	0x3d31ab17	0.043376055
33	0xbdfb5c9c	-0.12273523
34	0x3db6357e	0.088969216
35	0xbe80124e	-0.25013965
36	0xbe5172ea	-0.20453992
37	0xbe3879b3	-0.18015175
38	0x3ca92019	0.020645188
39	0x3dac8688	0.08424097
40	0x3e81959a	0.2530945
41	0xbd9a2142	-0.07525875
42	0xbded5e50	-0.11590254
43	0xbe81de22	-0.25364786
44	0x3e16c507	0.14723597
45	0x3e8634d5	0.26212183
46	0x3e261d57	0.1622213
47	0xbdeef105	-0.116670646
48	0x3e518348	0.20460236
49	0xbd18681b	-0.037208658
50	0x3dfd1eec	0.123594135
51	0xbd98bfc3	-0.07458451
52	0x3eb81ee1	0.3596106
53	0xbe027f15	-0.1274379
54	0x3c8e1916	0.017345946
55	0xbdc2b800	-0.095077515
56	0x3e8077a9	0.25091293
57	0x3db1b05e	0.086762175
58	0x3de863d5	0.113471664
59	0xbe16f45c	-0.14741653
60	0x3db5bb73	0.08873644
61	0xbdf10d2f	-0.11770093
62	0x3c18d56b	0.009328227
63	0xbe193f2f	-0.14965509
64	0xbe15d3f0	-0.14631629
65	0xbd77194b	-0.060326856
66	0x3e3fc2d9	0.18726672
67	0x3ad39a1a	0.0016143948
68	0xbd5f69c2	-0.054544218
69	0xbe34eb98	-0.17667997
70	0xbdde9ce3	-0.108697675
71	0xbd93ad4e	-0.072107896
72	0xbdcb60dc	-0.09930584
73	0x3e891476	0.26773423
74	0x3d925779	0.0714559
75	0xbe6f9d90	-0.23399949
76	0x3e56c370	0.20972991
77	0xbe6d8782	-0.23196223
78	0x3cf15211	0.029458078
79	0xbd904fb3	-0.070464514
80	0xbf076fda	-0.52905047
81	0xbef52e04	-0.4788667
82	0xbdda1420	-0.1064837
83	0x3d490a5e	0.049082153
84	0xbda9c81d	-0.08290122
85	0xbde297d2	-0.11064114
86	0xbd65e65c	-0.05612789
87	0xbdca736c	-0.09885296
88	0x3e4b1305	0.19831474
89	0xbe785c0d	-0.24253865
90	0x3dba1f56	0.09088008
91	0x3d7f2c2c	0.062297985
92	0x3d7a32ed	0.061083723
93	0xbdbb4e36	-0.09145777
94	0xbda49023	-0.080353044
95	0xbe314b19	-0.17313804
96	0x3d0786cb	0.033087533
97	0x3e70706d	0.23480387
98	0x3d3171b6	0.043321334
99	0x3d229d1b	0.03970061
100	0x3d2d0086	0.042236827
101	0x3dc05043	0.09390309
102	0x3e321d67	0.17394029
103	0xbb9b00b2	-0.0047303075
104	0xbc514e96	-0.012775084
105	0x3dd363ea	0.103217915
106	0xbd275046	-0.04084804
107	0xbdcb67a0	-0.09931874
108	0x3cf650da	0.03006785
109	0xbe3948d7	-0.18094192
110	0xbdaaaddc	-0.08333942
111	0xbdaa6000	-0.08319092
112	0x3e36316b	0.17792289
113	0xbe0a30e0	-0.13495207
114	0x3ed4a48b	0.41531786
115	0x3bec7e28	0.0072171874
116	0x3efba369	0.4914811
117	0xbe56222c	-0.20911473
118	0xbd4b32c6	-0.04960897
119	0xbe2e2614	-0.17006713
120	0x3e3f623c	0.18689817
121	0xbcd887d4	-0.026431955
122	0xbdc22cd2	-0.09481205
123	0xbdba70da	-0.09103556
124	0x3d7113f7	0.05885693
125	0xbee603dc	-0.4492482
126	0x3d848c3b	0.06472059
127	0x3e56e96e	0.20987484
128	0xbc96bdd8	-0.018401071
129	0x3e847266	0.2586853
130	0xbd180ed5	-0.03712352
131	0x3da6ce09	0.08144767
132	0x3e172d33	0.14763336
133	0x3ced493a	0.028965581
134	0x3d3a519b	0.04548798
135	0x3d6f6b66	0.058452033
136	0xbdc5855e	-0.096445784
137	0xbe27d990	-0.16391587
138	0xbd53a755	-0.051673252
139	0x3e2e19e5	0.17002065
140	0x3e1784c6	0.14796743
141	0xbe29157e	-0.16512105
142	0x3d2ebaa6	0.04265847
143	0xbb32986f	-0.0027251502
144	0x3e8b970a	0.2726367
145	0x3e0ccc97	0.1374992
146	0xbe1fb561	-0.15596534
147	0xbdd26506	-0.10273175
148	0xbd8dcf03	-0.0692425
149	0x3ecf906f	0.40539882
150	0x3e1be12a	0.15222612
151	0xbe82685f	-0.25470254
152	0xbe886036	-0.26635903
153	0x3c8c5bed	0.017133677
154	0x3d997743	0.074934505
155	0x3a28e8b7	0.00064433686
156	0x3dfb8b64	0.12282446
157	0xbd4e481c	-0.050361738
158	0x3d78ecd3	0.06077273
159	0xbee687ac	-0.45025384
160	0xbe81bcea	-0.25339442
161	0xbe8d4af1	-0.27596238
162	0xbe062202	-0.1309891
163	0xbd9326e9	-0.07185156
164	0xbd90f5ad	-0.07078109
165	0xbd6e65ea	-0.05820266
166	0x3e05d271	0.13068558
167	0xbe95c8f5	-0.2925488
168	0x3d14465b	0.03619991
169	0xbc88b30e	-0.016686942
170	0xbe283997	-0.16428219
171	0x3e0e91e0	0.13922834
172	0x3d71616b	0.058930796
173	0xbd7adaeb	-0.061243933
174	0xbe2105e4	-0.15724903
175	0xbdaabe0f	-0.08337032
176	0x3e15227a	0.14563933
177	0xbe4436a8	-0.19161475
178	0xbd4676d0	-0.048453152
179	0xbf012e12	-0.5046092
180	0xbcdfec6b	-0.027334413
181	0xbd9eb141	-0.07748652
182	0xbdd5f209	-0.10446555
183	0x3e400d32	0.18755034
184	0x3df246df	0.11829924
185	0xbdc8ee02	-0.098110214
186	0xbdef460e	-0.11683284
187	0xbe64fc0d	-0.22361775
188	0xbf001307	-0.50029033
189	0xbe4119c6	-0.18857488
190	0x3e17de6c	0.14830941
191	0x3ed9a09e	0.42505354
192	0x3dad116d	0.08450589
193	0x3e2174c9	0.15767206
194	0xbe30a4ce	-0.17250368
195	0x3e89e259	0.26930502
196	0xbea92877	-0.33038685
197	0x3ebe86a7	0.37212107
198	0x3df28796	0.11842267
199	0xbe28a1e6	-0.1646801
200	0x37a346e5	1.9464127e-05
201	0xbe878ed6	-0.26476163
202	0xbed1ec02	-0.41000372
203	0x3d1858ee	0.037194185
204	0x3e24d120	0.160954
205	0xbd613b0e	-0.05498796
206	0x3db63e3b	0.08898588
207	0x3da09b73	0.078421496
208	0x3d7b3526	0.061329983
209	0xbd2ec256	-0.042665802
210	0xbe0255f0	-0.12728095
211	0xbd8ac6b2	-0.067761794
212	0x3dedc77d	0.11610315
213	0x3e3d8c82	0.1851063
214	0xbe08c203	-0.1335526
215	0x3e6318b2	0.2217739
216	0x3e2fc578	0.17165172
217	0x3d3d6c54	0.046245888
218	0xbe4c2c91	-0.19938876
219	0xbcb367e4	-0.021900125
220	0x3d6f1f68	0.05837956
221	0x3dfc8751	0.12330497
222	0x3c907414	0.017633475
223	0x3d4be436	0.049778186
224	0x3d2a8e64	0.0416397
225	0xbc6200da	-0.013794148
226	0x3db91410	0.0903703
227	0xbe04f3af	-0.12983583
228	0x3da2054e	0.07911168
229	0x3da235f8	0.0792045
230	0x3d9c4f8a	0.07632358
231	0x3e8ed62d	0.27897778
232	0xbf18d77d	-0.5970381
233	0x3e2f80e4	0.17139012
234	0xbdf53b03	-0.11974146
235	0x3e911cb5	0.28342214
236	0xbd0f4b68	-0.034984022
237	0x3da67199	0.08127136
238	0x3d82d417	0.06388109
239	0xbed4df5e	-0.41576666
240	0x3dea54eb	0.11441978
241	0xbdf46c5d	-0.11934731
242	0x3d3488a6	0.04407563
243	0x3e268faa	0.16265741
244	0x3dc55ba8	0.09636623
245	0xbcac258b	-0.021013996
246	0xbe1e5fc6	-0.15466222
247	0xbd984f5d	-0.07437012
248	0x3d5d8fbb	0.05409215
249	0xbdc44513	-0.09583487
250	0x3df243ae	0.11829315
251	0xbed36725	-0.4128963
252	0x3e459c22	0.19297841
253	0xbe4553d8	-0.19270265
254	0x3b9e4084	0.004829468
255	0xbe240f32	-0.16021422

bias f4 [64]
0	0x3b853621	0.0040652906
1	0xbd8d94a1	-0.06913114
2	0xbdb9e38b	-0.090766035
3	0xbde65c27	-0.112480454
4	0x3e1044dd	0.1408877
5	0x3d33cc71	0.043896142
6	0x3da1cdee	0.07900606
7	0x3dd09a28	0.10185653
8	0x3db8e6aa	0.09028371
9	0xbe2207dd	-0.15823312
10	0x3a51f5f4	0.0008009367
11	0x3de67409	0.11252601
12	0x3ddcf706	0.107893035
13	0xbd996acf	-0.07491075
14	0xbdba9afe	-0.09111594
15	0x3da169f8	0.0788154
16	0x3ce25719	0.027629422
17	0x3ddd5afa	0.10808368
18	0xbdf23c98	-0.118279636
19	0xbaeee23b	-0.0018225381
20	0x3d3ab66c	0.045584127
21	0xbd75173d	-0.059836615
22	0xbdce8969	-0.10084803
23	0x3df2dca8	0.11858493
24	0xbd8696ec	-0.06571755
25	0xbe213c2b	-0.15745609
26	0xbd8c422b	-0.06848558
27	0xbdd7e200	-0.10541153
28	0xbd9651f6	-0.073398516
29	0xbe10a010	-0.14123559
30	0x3d045170	0.032304227
31	0x3d9f3af4	0.07774916
32	0x3c08ec3b	0.008357103
33	0x3dc5f2f7	0.096654825
34	0xbdf269ea	-0.11836608
35	0xbdf05869	-0.11735613
36	0x3d6a3542	0.057179697
37	0x3d369e4d	0.04458456
38	0xbca1ed7a	-0.019766558
39	0x3de2885d	0.110611655
40	0x3d8a3335	0.06748048
41	0xbe3eb83b	-0.18624966
42	0x3d2f57e7	0.04280844
43	0xbdd034f7	-0.10166352
44	0xbe16eb34	-0.1473816
45	0xbc39e211	-0.011345402
46	0xbd0133e9	-0.031543646
47	0x3cc83cf9	0.024443137
48	0x3c8a7f58	0.016906425
49	0x3db4b201	0.08823014
50	0x3dffea70	0.12495887
51	0x3db2d3f3	0.08731832
52	0x3d501c2e	0.050808124
53	0x3dfdf63d	0.12400482
54	0x3d000ca8	0.03126207
55	0xbdd497cb	-0.10380515
56	0x3da3e784	0.080031425
57	0x3c6ebf61	0.0145719955
58	0xbe1814c2	-0.14851668
59	0x3d8cafc3	0.068694614
60	0x3d5634b5	0.05229636
61	0xbd04ffc0	-0.032470465
62	0x3d1e23e6	0.038608454
63	0x3daa02b1	0.083012946

weight f4 [64, 64]
0	0x3e0feb0f	0.14054511
1	0x3d9c8369	0.07642252
2	0x3de7638e	0.112982854
3	0xbda4c8ad	-0.08046088
4	0x3dc6fa7b	0.09715744
5	0x3dce3262	0.100682035
6	0x3d87aa44	0.066242725
7	0x3dcd43a4	0.10022667
8	0xbdafe082	-0.08587743
9	0xbd42c8ba	-0.04755471
10	0x3dfacbd2	0.12245907
11	0xbd3ae52b	-0.045628708
12	0xbd96bd39	-0.0736031
13	0x3c2548b1	0.010088132
14	0x3dec800b	0.1154786
15	0x3e111aa8	0.14170325
16	0xbdf8921d	-0.12137244
17	0x3da028e7	0.078203015
18	0xbe0835d6	-0.13301787
19	0x3cb55fd8	0.022140428
20	0x3c963bcd	0.018339062
21	0x3d90dac2	0.07072975
22	0x3db60eda	0.088895515
23	0xbd7f3d14	-0.062314108
24	0x3d9cc847	0.07655387
25	0xbdee4e12	-0.116359845
26	0xbd55e74c	-0.052222535
27	0x3dcc2ff9	0.099700876
28	0xbbab9aff	-0.005236983
29	0xbdeba291	-0.115056165
30	0xbc527dfd	-0.012847421
31	0x3d5e1802	0.054222114
32	0x3db78900	0.089616776
33	0xbbcdb53f	-0.0062777097
34	0xbd66fc37	-0.056392875
35	0xbd840d21	-0.06447817
36	0xbd3f6a06	-0.04673197
37	0xbdaaede8	-0.08346158
38	0xbdaef72e	-0.085432395
39	0xbdd17b38	-0.1022858
40	0xbdbc3978	-0.09190649
41	0xbdb4ef65	-0.088347234
42	0x3cafd2ec	0.02146288
43	0x3cd98398	0.026552007
44	0x3c75770e	0.014981998
45	0xbd409f3e	-0.047026865
46	0xbd5a1c54	-0.053249672
47	0x3dae899e	0.08522342
48	0xbd556e95	-0.052107412
49	0xbcee200d	-0.029068017
50	0xbd49d70d	-0.049277354
51	0xbdb75f7b	-0.08953758
52	0xbd36ba87	-0.04461148
53	0x3e0439dd	0.12912698
54	0x3dd0f5f7	0.10203164
55	0xbe0dbca3	-0.1384149
56	0xbc99e00d	-0.018783594
57	0xbda98ea9	-0.082791634
58	0x3cbf81db	0.02337735
59	0xbdd13663	-0.102154516
60	0x3dc8f2f9	0.09811968
61	0x3dea6734	0.11445466
62	0x3ddbb063	0.107270025
63	0xbe165d7b	-0.14684097
64	0x3da12cb2	0.07869853
65	0xbdd0010a	-0.10156448
66	0x3cbdc385	0.02316452
67	0xbde79550	-0.11307776
68	0xbd1db5cb	-0.03850345
69	0x3df4360c	0.11924371
70	0x3bf69e39	0.007526186
71	0xbd689970	-0.056786954
72	0xbe22544d	-0.1585247
73	0x3d95d0a2	0.07315184
74	0xbe5117b9	-0.20419206
75	0xbd7dd1ef	-0.061967786
76	0x3e3f2fde	0.18670604
77	0xbd9f32c9	-0.077733584
78	0xbe5f4e43	-0.21807198
79	0x3dccf0f3	0.10006895
80	0xbcc85593	-0.024454867
81	0x3d208c02	0.03919602
82	0xbdfd12b3	-0.12357082
83	0xbc78cde4	-0.015185807
84	0x3e0915bb	0.13387196
85	0xbe2a2a93	-0.16617803
86	0xbb98e6d6	-0.0046661897
87	0x3e1e873e	0.15481278
88	0xbc2f5322	-0.010700973
89	0xbcd5d391	-0.02610186
90	0x3e2b7219	0.16742744
91	0xbcaeb14f	-0.021324782
92	0x3bbde04c	0.0057945605
93	0xbe53af52	-0.20672348
94	0xbdb85dd0	-0.09002268
95	0x3dc27576	0.0949506
96	0xbe1648c5	-0.14676197
97	0xbc9c7967	-0.019100858
98	0xbbfeb267	-0.007772732
99	0x3e0985d1	0.13429953
100	0x3da31f5d	0.079649664
101	0x3d9608e5	0.07325915
102	0xbdcbf370	-0.099585414
103	0x3e49c67e	0.19704625
104	0x3d802f17	0.06258982
105	0xbcb51cae	-0.022108402
106	0x3dbe6225	0.09296063
107	0xbdf0d80e	-0.11759959
108	0xbccce7c2	-0.025012854
109	0x3b1bb809	0.0023760817
110	0x3e021413	0.1270297
111	0x3d92f061	0.07174755
112	0xbd378106	-0.04480078
113	0x3cf6df5f	0.030135809
114	0x3da9bdbc	0.08288142
115	0x3d770978	0.060311764
116	0xbd073dec	-0.033018038
117	0x3d4523cf	0.048129853
118	0x3dce9676	0.10087292
119	0x3e313060	0.1730361
120	0x3a49f265	0.0007703661
121	0x3c2f6c52	0.010706978
122	0xbe20f246	-0.1571742
123	0xbdda6f94	-0.10665813
124	0xbdb13d92	-0.08654322
125	0xbcdd497f	-0.027012585
126	0x3c51618b	0.012779604
127	0xbda05aba	-0.07829805
128	0xbe54f16b	-0.20795219
129	0x3e8801c4	0.26563847
130	0x3e0537d1	0.13009574
131	0x3dcd7526	0.1003211
132	0xbd8b02ac	-0.06787619
133	0xbd55b9ba	-0.052179076
134	0x3d13d046	0.036087297
135	0x3d0fa726	0.035071515
136	0xbd1e6f63	-0.038680445
137	0xbd4174f4	-0.047230676
138	0x3c94d938	0.018169984
139	0xbd8d81af	-0.06909501
140	0xbd7da1e4	-0.06192197
141	0xbd2d3464	-0.04228629
142	0xbd0e2e96	-0.034712397
143	0x3e43d8b8	0.1912564
144	0x3cdd2493	0.026994979
145	0x3db87ad8	0.090078056
146	0x3d7194c9	0.058979783
147	0xbd07f7d2	-0.033195324
148	0xbdc9a446	-0.09845786
149	0xbd01d321	-0.03169549
150	0x3e97743e	0.29580873
151	0xbd7b06e9	-0.061285887
152	0xbd29d91b	-0.041466814
153	0x3e17d976	0.14829049
154	0xbd994d6a	-0.07485469
155	0xbd712eec	-0.05888264
156	0xbe242a80	-0.16031837
157	0x3d0eca40	0.03486085
158	0xbe76e757	-0.24111687
159	0xbde81293	-0.11331668
160	0x3d3f32cf	0.046679314
161	0xbd595a8c	-0.053064868
162	0xbd1f79bb	-0.03893445
163	0x3e0598f4	0.13046628
164	0xbd8a34a4	-0.06748322
165	0x3d5511a6	0.052018784
166	0x3d87eb1b	0.0663664
167	0x3e23a016	0.15979037
168	0x3e53fdfb	0.20702355
169	0x3cb73552	0.022364292
170	0x3ddd7c08	0.10814673
171	0xbd6a0ec9	-0.057143006
172	0x3c951302	0.01819754
173	0x3ca927aa	0.020648796
174	0xbd8c2049	-0.068420954
175	0xbdd12805	-0.10212711
176	0x3e2e2881	0.17007639
177	0x3db6fe92	0.08935274
178	0xbd25b21f	-0.040453073
179	0xbdabf518	-0.08396357
180	0x3e5aaf9f	0.21356057
181	0xbcce7518	-0.025202319
182	0xba3e54e8	-0.0007260577
183	0xbe0078fa	-0.12546149
184	0xbc13f3c3	-0.009030285
185	0xbdba0b07	-0.090841345
186	0xbd2b1db9	-0.041776393
187	0x3df6720b	0.12033471
188	0x3d03738d	0.03209262
189	0xbe401ad8	-0.1876024
190	0xbd30e4c6	-0.043186925
191	0xbdb6a758	-0.08918637
192	0xbe14394b	-0.1447498
193	0xbdd4003d	-0.10351608
194	0xbcffea7e	-0.031239744
195	0x3c99f35f	0.018792806
196	0x3d7c176e	0.06154578
197	0xbd72f23a	-0.059313037
198	0x3b3289e5	0.0027242836
199	0xbd8a0682	-0.067395225
200	0xbd66e04c	-0.05636625
201	0x3d06bc1a	0.03289423
202	0x3c1d3a66	0.009596443
203	0xbe1a9e74	-0.15099508
204	0x3e21b79e	0.157927
205	0xbe083557	-0.13301598
206	0x3d41ba74	0.047296956
207	0x3c816968	0.015797332
208	0x3d8a5fb0	0.06756532
209	0x3e099819	0.13436927
210	0xbc5eb3d8	-0.013592683
211	0xbb9fa66a	-0.004872133
212	0x3e18da20	0.14926958
213	0x3e0a4c59	0.13505687
214	0xbe31d2a7	-0.17365514
215	0x3d7e2b0f	0.062052783
216	0xbdf630a1	-0.12020994
217	0xbcfef00b	-0.03112032
218	0xbd29d37e	-0.04146146
219	0x3e338869	0.17532505
220	0x3d82d8aa	0.06388982
221	0xbd7c7ab0	-0.06164044
222	0xbdcd0ece	-0.100125894
223	0xbe86868d	-0.2627453
224	0xbcbc9f3d	-0.02302515
225	0xbcc9b9ec	-0.024624787
226	0xbc4f3c8b	-0.012648712
227	0x3cab490d	0.020908857
228	0xbcd73f40	-0.026275277
229	0xbe2ab9b2	-0.166724
230	0xbe099cb5	-0.13438685
231	0x3c07f123	0.008297238
232	0x3e1d0991	0.1533568
233	0x3dc94fc0	0.09829664
234	0x3e15b83e	0.14621064
235	0xbe0e01b7	-0.13867842
236	0x3ded09f2	0.115741625
237	0xbd343353	-0.04399426
238	0xbc91f9b4	-0.017819263
239	0xbdc2669c	-0.094922274
240	0xbe3cd4a1	-0.18440486
241	0x3d54d816	0.051963888
242	0xbd495a06	-0.04915812
243	0xbe5b70cc	-0.21429747
244	0x3d3bf794	0.045890406
245	0x3d05bb8f	0.032649573
246	0xbe436c79	-0.19084348
247	0x3d487564	0.048940077
248	0x3dfc5782	0.12321378
249	0x3d62d1ea	0.05537597
250	0x3e56d502	0.20979694
251	0xbe1a60af	-0.15075944
252	0xbdb2f418	-0.087379634
253	0x3e47925f	0.1948943
254	0x3d9daed5	0.07699362
255	0xbc8cff51	-0.017211588

bias f4 [64]
0	0xbe085ce6	-0.13316688
1	0xbe056200	-0.13025665
2	0xbcb8652b	-0.022509178
3	0x3db63220	0.08896279
4	0xbda45cba	-0.08025499
5	0xbd9863e0	-0.07440925
6	0x3d914e39	0.07094998
7	0xbd7a8e62	-0.061170943
8	0xbb81901c	-0.0039539468
9	0x3d788fc5	0.060683984
10	0x3aeb4c76	0.0017951864
11	0xbd1b466c	-0.037908956
12	0x3dc04cc2	0.093896404
13	0xbdf7a56f	-0.12092101
14	0xbcc07efa	-0.023498047
15	0x3d82108e	0.06350814
16	0x3c7f1ff6	0.015571585
17	0xbd45b1ab	-0.04826514
18	0xbe6c1051	-0.23053099
19	0x3d78c0db	0.060730796
20	0x3c84bac5	0.01620234
21	0x3d5473ff	0.051868435
22	0xbd561a51	-0.05227119
23	0x3b53bcd3	0.0032308593
24	0x3d219b72	0.039454885
25	0x3da6325f	0.08115076
26	0x3e0b4a3e	0.1360254
27	0xbd6b4c7a	-0.05744598
28	0xbdaded31	-0.08492506
29	0xbe1ee1e2	-0.15515855
30	0xbdfb284e	-0.12263547
31	0x3d1f75a1	0.03893054
32	0xbc91c8d4	-0.017795958
33	0xbc57f2cc	-0.013180446
34	0xbd0d2cc4	-0.03446652
35	0x3e124e60	0.1428771
36	0xbdf1c117	-0.11804407
37	0xbda13272	-0.0787095
38	0x3d74b8e6	0.059746645
39	0x3d8bef18	0.06832713
40	0x3d8ddea7	0.06927233
41	0x3daa5ab7	0.08318084
42	0xbe088141	-0.13330556
43	0xbdfface2	-0.12484147
44	0x3e01666b	0.12636726
45	0x3c49d04c	0.012317728
46	0xbe0a70e8	-0.13519633
47	0x3e1363e9	0.14393581
48	0xbdcc0e6d	-0.09963689
49	0x3cf1b92a	0.029507238
50	0x3cf0e462	0.029405776
51	0xbdfd2703	-0.123609565
52	0xbd33966e	-0.043844633
53	0xbd530ff8	-0.0515289
54	0x3c282686	0.010263091
55	0xbde347c9	-0.11097676
56	0x3d8232a3	0.063573144
57	0x3d861a12	0.06547941
58	0x3e082f01	0.1329918
59	0x399a826c	0.0002947034
60	0x3dcc3a6c	0.099720806
61	0x3d15c2ad	0.03656261
62	0x3db6b46d	0.08921132
63	0xbd3244e8	-0.043522745

weight f4 [64, 64]
0	0xbc048233	-0.008087683
1	0x3d10e1fc	0.035371765
2	0x3ddc390e	0.1075307
3	0x3de0240a	0.10944374
4	0x3d079d7a	0.033109166
5	0xbdedd476	-0.11612789
6	0x3d425d43	0.047452223
7	0x3e8d01b3	0.2754036
8	0x3d53074f	0.051520642
9	0xbe93a642	-0.28837782
10	0x3d1933fb	0.037403088
11	0x3c7b8900	0.015352488
12	0xbd89ce63	-0.06728818
13	0xbdf6960e	-0.120403394
14	0x3e4e9ca2	0.20176938
15	0x3d41b5c0	0.04729247
16	0xbda1985c	-0.07890388
17	0xbd02a147	-0.031892087
18	0x3e1498ca	0.1451141
19	0xbc84195d	-0.016125375
20	0x3e955933	0.29169616
21	0x3d4cae1b	0.049970727
22	0xbdd2bf84	-0.10290435
23	0x3d8ebe13	0.069698475
24	0xbce0e46e	-0.027452674
25	0x3db94bd4	0.09047666
26	0xbe88eea0	-0.26744556
27	0xbe32969c	-0.17440265
28	0x3e0045c0	0.12526608
29	0xbd974e83	-0.07388022
30	0xbd2f9043	-0.042862188
31	0xbd9e14b4	-0.077187926
32	0x3d072e5a	0.03300319
33	0x3dcfd205	0.1014748
34	0x3d43e0a0	0.04782164
35	0xbe163b30	-0.14671016
36	0xbda36b25	-0.079794206
37	0xbd877374	-0.06613818
38	0xbe006fb0	-0.12542605
39	0x3e049151	0.12946059
40	0x3d26b26e	0.040697508
41	0x3e2a4467	0.16627656
42	0x3d8feb9e	0.07027362
43	0x3d5a3468	0.053272635
44	0xbc345a2d	-0.011007828
45	0x3dfc4983	0.12318709
46	0xbd61faec	-0.05517094
47	0xbddeb9ca	-0.1087528
48	0xbbfad341	-0.007654578
49	0x3cbce3b9	0.023057805
50	0x3d2d3868	0.04229012
51	0xbcd235b5	-0.025660375
52	0x3d3f249e	0.04666578
53	0x3cada5a1	0.021197142
54	0x3ca97c07	0.020689024
55	0x3c99302a	0.018699724
56	0xbd0df027	-0.034652855
57	0x3d04c23d	0.032411803
58	0x3dd6ac12	0.104820386
59	0x3c76a556	0.015054068
60	0x3d9b4966	0.07582359
61	0x3cdbff10	0.026855022
62	0xbd605ff1	-0.054778997
63	0x3c137267	0.008999444
64	0x3d9dc314	0.07703224
65	0x3d5f5fb2	0.05453462
66	0xbe0cecea	-0.1376225
67	0x3da667e4	0.08125284
68	0x3c02624c	0.007958006
69	0x3db60ee2	0.088895574
70	0xbdfbdb43	-0.1229768
71	0xbcf2de83	-0.029647117
72	0x3b8686a4	0.004105406
73	0xbcf2a8a2	-0.029621426
74	0x3de11dde	0.10992025
75	0xbdeab9fe	-0.114612564
76	0x3e1429e5	0.14469106
77	0x3d38a71d	0.045081247
78	0xbe15bca6	-0.14622745
79	0x3dfa0d02	0.12209512
80	0xbdeb2153	-0.114809655
81	0xbdbd50fa	-0.09243961
82	0xbe70e749	-0.23525728
83	0xbd1c6256	-0.038179718
84	0x3d780d44	0.060559526
85	0xba766d8d	-0.00094004796
86	0x3d990a09	0.07472617
87	0xbe0185e8	-0.12648737
88	0xbddce293	-0.10785403
89	0xbe7511c8	-0.23932564
90	0x3d1cf777	0.03832194
91	0xbcfe27c7	-0.031024827
92	0xbe058d1a	-0.13042107
93	0x3da2cfa7	0.07949763
94	0xbd8c974b	-0.06864794
95	0x3dfdf2da	0.12399836
96	0x3c979dcc	0.01850786
97	0xbda197ec	-0.07890305
98	0xbda73ca9	-0.08165867
99	0xbd02bf2e	-0.031920604
100	0xbe2e978c	-0.17049998
101	0x3dd390a8	0.10330325
102	0xbe063c99	-0.13109054
103	0x3de33a85	0.11095146
104	0xbd554f01	-0.052077297
105	0xbda650be	-0.08120869
106	0x3e2d74aa	0.16939035
107	0xbe652fc9	-0.2238151
108	0x3d31a392	0.043368883
109	0xbe02d252	-0.12775543
110	0xbdec3941	-0.11534358
111	0xbd306a5c	-0.043070182
112	0x3dcb3dc8	0.09923893
113	0xbd3eaa1c	-0.046548948
114	0xbdea0830	-0.11427343
115	0xbc4f6bf5	-0.012660016
116	0x3d1dbd9a	0.038510896
117	0x3c1cb59d	0.009564784
118	0x3dbd8de1	0.09255577
119	0xbe65073a	-0.22366038
120	0xbcff595b	-0.031170538
121	0xbcdd9e8a	-0.027053136
122	0xbd5a0e0f	-0.053236064
123	0x3d31c6a9	0.043402348
124	0xbce08c2f	-0.027410595
125	0xbda63fda	-0.081176475
126	0xbd09497c	-0.033517346
127	0xbd2b0d61	-0.041760806
128	0xbdd3f775	-0.10349933
129	0x3d3328ba	0.04374001
130	0x3e4b024b	0.19825093
131	0xbdee36f2	-0.11631574
132	0x3e140056	0.14453253
133	0xbd609b29	-0.054835472
134	0x3da4bc3c	0.08043715
135	0xbe023dcf	-0.1271889
136	0x3d91f669	0.07127077
137	0x3e2b73b8	0.16743362
138	0xbe6add9f	-0.22936104
139	0xbc86633f	-0.016404746
140	0x3d1be9c5	0.038064737
141	0xbd1c12d8	-0.03810391
142	0x3dce7046	0.10080008
143	0xbd3bd8dd	-0.045861114
144	0xbe1fca4c	-0.15604514
145	0xbcdd06e1	-0.02698082
146	0xbd2e59c2	-0.04256607
147	0xbd9a331d	-0.0752928
148	0x3d914d17	0.07094782
149	0x3d95a734	0.07307282
150	0x3e1f92a4	0.15583283
151	0x3d050640	0.032476664
152	0xbd820bc1	-0.06349898
153	0x3c5e677b	0.013574476
154	0x3cacaa58	0.02107732
155	0xbdf32195	-0.1187164
156	0x3e2e51d4	0.17023402
157	0xbca4b0a5	-0.020103762
158	0xbe740eb5	-0.23833735
159	0xbe371c55	-0.17881902
160	0xbcc25d65	-0.023726175
161	0x3d4eefe7	0.050521757
162	0xbe54ed45	-0.20793636
163	0x3d763dac	0.06011741
164	0xbe57f200	-0.2108841
165	0xbddf08e5	-0.10890368
166	0x3db4bfd7	0.08825653
167	0x3d47ca87	0.04877713
168	0x3d2e040e	0.042484336
169	0x3e264ba9	0.162398
170	0xbcce914f	-0.025215773
171	0x3cb49837	0.022045238
172	0x3e0b9e58	0.13634622
173	0xbe8018fc	-0.25019062
174	0xbd198f8c	-0.037490413
175	0xbddcb9bd	-0.10777614
176	0x3d80360e	0.0626031
177	0x3df89c67	0.121392064
178	0xbdbbf1d9	-0.09176988
179	0xbdb52f4c	-0.08846912
180	0x3e0ff454	0.14058048
181	0xbdbf564c	-0.09342632
182	0xbda64e90	-0.08120453
183	0xbe1ccc58	-0.15312326
184	0xbca0c7c0	-0.019626498
185	0x3de3d6aa	0.11124928
186	0x3cde0278	0.027100787
187	0x3da0031c	0.07813093
188	0xbdb4899d	-0.0881531
189	0x3b9f0df6	0.004853959
190	0x3d661269	0.0561699
191	0xbe79dc17	-0.24400364
192	0x3de8349f	0.11338162
193	0xbe38cd30	-0.18047023
194	0x3cd6ea5d	0.0262348
195	0x3ddcc94e	0.10780583
196	0xbc1fde05	-0.009757523
197	0x3d4b0a76	0.049570523
198	0xbe32c64f	-0.17458461
199	0xbdb7b18f	-0.089694135
200	0xbdc21304	-0.09476283
201	0xbd8e83e4	-0.0695875
202	0xbe499c91	-0.19688632
203	0xbc57d09c	-0.013172295
204	0xbdb6ebef	-0.089317195
205	0xbe5d754a	-0.21626773
206	0xbe8d1340	-0.2755375
207	0xbbd02d1d	-0.006353034
208	0x3ddd1e18	0.107967556
209	0x3d693830	0.05693835
210	0x3d5842e8	0.05279818
211	0x3bceb5db	0.0063083
212	0xbcc2cd54	-0.023779549
213	0xbe4e56a5	-0.2015024
214	0xbd05d454	-0.032673195
215	0xbdf5d476	-0.12003414
216	0xbdc68f7a	-0.09695335
217	0xbe76f0a9	-0.24115242
218	0x3db00b6d	0.08595929
219	0x3bba1175	0.0056783506
220	0xbe4b2458	-0.19838083
221	0xbe4d6297	-0.2005714
222	0xbdd19a7b	-0.10234543
223	0x3e0fcdee	0.140434
224	0x3db3949b	0.087685786
225	0xbe6d559d	-0.2317719
226	0x3bb31291	0.00546486
227	0xbd28797c	-0.04113148
228	0xbbd80318	-0.0065921657
229	0x3db231e6	0.087009236
230	0x3dc3bccb	0.09557494
231	0x3e34307b	0.17596619
232	0x3d7bbced	0.06145947
233	0xbe5a6d6e	-0.21330807
234	0xbcfc9ab5	-0.030835489
235	0xbe8b97d2	-0.27264267
236	0xbe52c8ce	-0.20584413
237	0x3dd1946d	0.10233388
238	0x3c34780e	0.011014951
239	0x3dd04c20	0.1017077
240	0xbceac9e6	-0.028660726
241	0xbe2303a3	-0.15919356
242	0x3dfa786d	0.12230001
243	0xbda575ed	-0.08079133
244	0xbd746384	-0.059665218
245	0x3dde1e74	0.10845652
246	0xbda850e7	-0.08218556
247	0xbd867382	-0.06565
248	0xbe1a8bd8	-0.15092409
249	0xbdb6cd98	-0.08925933
250	0xbd7128b2	-0.0588767
251	0xbd7b617e	-0.061372273
252	0x3b2aeec5	0.002608226
253	0x3d087a03	0.033319484
254	0xbd9cd3d5	-0.07657591
255	0x3dc4de71	0.0961274

bias f4 [64]
0	0x3ccf3cdc	0.025297575
1	0x3e000d9d	0.12505193
2	0x3dc252b2	0.09488429
3	0x3d775dd9	0.060392234
4	0xbe0041d8	-0.12525117
5	0x3a74beb1	0.00093362766
6	0xbd23b514	-0.03996761
7	0x3dbea2df	0.09308409
8	0xbe030d45	-0.1279803
9	0xbc4c934f	-0.012486293
10	0xbd7bf934	-0.061516955
11	0xbcfacd5f	-0.030615507
12	0x3c613b4d	0.013747049
13	0xbd839003	-0.064239524
14	0xbc171762	-0.0092218835
15	0xbc9179b4	-0.017758228
16	0x3b20d686	0.0024541928
17	0x3db95fa7	0.09051447
18	0xbd1406ee	-0.03613942
19	0x3ce0a971	0.027424546
20	0xbd191d0c	-0.037381217
21	0xbd89191d	-0.06694243
22	0x3d992955	0.074785866
23	0xbde3c065	-0.11120681
24	0xbd55084e	-0.052009873
25	0x3da75aff	0.08171653
26	0x3d37e491	0.044895712
27	0xbbb27b6d	-0.0054468424
28	0xbdeedd06	-0.116632506
29	0xbd03db2a	-0.032191433
30	0xbe6c2004	-0.23059088
31	0x3d94a03e	0.07257126
32	0xbb05f171	-0.00204381
33	0xb9ba3a6b	-0.0003552021
34	0xbd27537e	-0.04085111
35	0x3d32bb3c	0.043635592
36	0xbd5db570	-0.05412811
37	0xbd33dce1	-0.04391182
38	0x3dedff41	0.116209514
39	0xbdfdba8d	-0.12389097
40	0xbe1e25e4	-0.15444142
41	0x3d8e34e5	0.069436826
42	0x3da00ff9	0.078155465
43	0x3cb83d0c	0.022490047
44	0x3d8e3677	0.06943982
45	0x3dbbd04f	0.09170591
46	0x3bad9c30	0.00529816
47	0xbbbbaa89	-0.0057271165
48	0x3b2880fa	0.0025711642
49	0x3e04f85c	0.12985367
50	0xbbb76fa1	-0.005598024
51	0x3d82caf0	0.063863635
52	0x3d836cd9	0.064172454
53	0xbdcd50f2	-0.10025205
54	0xbd4c20b9	-0.049835894
55	0xbc831690	-0.01600197
56	0x3d863525	0.06553105
57	0xbd9236a6	-0.071393296
58	0x3cac2dc1	0.02101791
59	0x3ddd43a6	0.108039185
60	0xbda1f473	-0.07907953
61	0x3dbd4c6e	0.092430934
62	0xbd48e68a	-0.049047984
63	0x3c57e63a	0.013177449

weight f4 [64, 64]
0	0x3b88f808	0.0041799583
1	0x3e267e3f	0.16259097
2	0x3d72c0ff	0.059266087
3	0x3c8f67eb	0.017505607
4	0xbd717c6a	-0.05895654
5	0xbe447fdc	-0.191894
6	0xbd0bf2ac	-0.034166977
7	0xbd9706bd	-0.07374332
8	0x3d3e9782	0.046531208
9	0xbd53d0ba	-0.05171273
10	0x3e3cf5cb	0.18453138
11	0xbd660bc4	-0.056163564
12	0x3ebf879d	0.37408152
13	0xbdc05078	-0.09390348
14	0xbe24e663	-0.1610351
15	0x3c90ced7	0.017676754
16	0x3dbca4ff	0.09211158
17	0x3e42114b	0.18951909
18	0x3e3b0ca3	0.1826654
19	0x3dc1fc75	0.094719805
20	0xbece9c7c	-0.40353763
21	0x3e6ada81	0.22934915
22	0xbdcfd480	-0.10147953
23	0xbecec961	-0.40388015
24	0x3e97f436	0.29678506
25	0xbe03762b	-0.12838046
26	0x3da9d9fe	0.08293532
27	0x3e398b5f	0.18119572
28	0xbda5f68e	-0.08103667
29	0x3e06a06e	0.13147137
30	0xbe6f2a56	-0.23355994
31	0x3df9c4da	0.121957496
32	0xbdeb4bed	-0.11489091
33	0xbeae05bf	-0.3398876
34	0x3d419320	0.04725945
35	0xbf5105dc	-0.81649566
36	0xbebf28dc	-0.3733586
37	0x3ddaca9f	0.10683178
38	0x3d2b4692	0.041815348
39	0xbc8d2311	-0.017228635
40	0x3d5a0c3f	0.053234335
41	0xbb2d4fec	-0.0026445342
42	0x3d8eb841	0.069687374
43	0xbdc08cec	-0.09401879
44	0xbc8059b2	-0.01566777
45	0xbde949c5	-0.113910235
46	0x3dcf4468	0.10120469
47	0x3de84834	0.11341897
48	0xbcba69b1	-0.022755476
49	0x3dab435b	0.083624564
50	0xb9ad91c1	-0.00033105726
51	0xbca3d1c9	-0.019997494
52	0xbd5013c5	-0.050800104
53	0x3e14ab00	0.14518356
54	0x3e8b9c85	0.27267852
55	0xbc17470c	-0.0092332475
56	0x3d8d80a5	0.069093026
57	0xbd7fb9be	-0.062432997
58	0xbe37d3d0	-0.17951894
59	0x3e844cf5	0.25839964
60	0xbe80e0f7	-0.25171635
61	0x3de671fc	0.112522095
62	0xbc6ac35b	-0.014328803
63	0xbd14bd43	-0.036313307
64	0x3d8df807	0.06932073
65	0x3e1b3d8f	0.15160201
66	0xbdb5ea80	-0.08882618
67	0xbd99794a	-0.07493837
68	0x3da2913c	0.079378575
69	0xbd076998	-0.033059686
70	0xbdb06fac	-0.0861505
71	0x3e6434a3	0.22285704
72	0xbd38f975	-0.045159776
73	0xbc8f63ae	-0.017503586
74	0xbd1fa304	-0.038973823
75	0xbe906bf5	-0.28207365
76	0xbd9bd07a	-0.07608123
77	0xbdfceb17	-0.12349527
78	0xbe15703b	-0.14593594
79	0xbde7fb22	-0.11327197
80	0xbae5f67b	-0.001754477
81	0x3dd516b8	0.10404724
82	0xbcaaf4b5	-0.020868639
83	0xbd65f527	-0.056142
84	0xbeb3629f	-0.3503618
85	0x3e9ab54e	0.3021645
86	0xbdbc4801	-0.09193421
87	0x3e17f590	0.14839768
88	0xbed8cb14	-0.42342436
89	0x3d2755dc	0.040853366
90	0x3dbc267e	0.09187029
91	0xbc0bafda	-0.008525813
92	0xbe9058bc	-0.281927
93	0x3de2d675	0.11076061
94	0x3b52bf59	0.003215751
95	0xbeaa8838	-0.33307052
96	0xbdf84356	-0.12122218
97	0x3d9f9797	0.07792585
98	0x3e3400bc	0.17578405
99	0xbe55dc49	-0.20884813
100	0xbdfe0d26	-0.124048516
101	0xbd396ee7	-0.04527178
102	0x3e1bbea4	0.15209442
103	0x3cd43aef	0.025907008
104	0x3eac3fc4	0.336424
105	0xbdfda663	-0.123852514
106	0xbde5623e	-0.11200379
107	0xbca8afd9	-0.020591663
108	0x3d875cad	0.066094734
109	0x3d03932c	0.032122776
110	0xbc06aa7d	-0.0082193585
111	0xbe6006d1	-0.218776
112	0x3d631a64	0.05544509
113	0xbc97b7e6	-0.018520307
114	0x3e0a43a2	0.13502362
115	0x39296690	0.00016155303
116	0xbd5798fc	-0.05263613
117	0xbe4f0a3f	-0.20218752
118	0x3c9f9268	0.019478992
119	0xbce07cf9	-0.027403342
120	0x3e34fb0e	0.17673895
121	0xbebc81f2	-0.3681789
122	0x3dd40e8d	0.10354338
123	0xbc9c6c07	-0.01909448
124	0x3d884053	0.06652894
125	0xbd75e68b	-0.060034316
126	0xbe6a46a2	-0.22878507
127	0xbe4c332c	-0.19941396
128	0xbe1f4ee0	-0.15557432
129	0xbd14f59d	-0.036367048
130	0xbd5078be	-0.0508964
131	0x3e0cd20c	0.13752002
132	0x3dcda9d7	0.1004216
133	0x3d872acf	0.06599962
134	0x3e29fbf5	0.1660002
135	0x3e933638	0.28752303
136	0x3e2c58e3	0.16830783
137	0x3c1fa20e	0.009743227
138	0x3c8bbdaf	0.017058222
139	0xbe11002b	-0.1416022
140	0x3e32fd11	0.1747935
141	0x3d04a8c7	0.03238752
142	0x3d651c01	0.05593491
143	0xbdccce8c	-0.10000333
144	0x3cb880a5	0.02252228
145	0x3e064d1b	0.13115351
146	0xbc7eca33	-0.015551138
147	0xbd79a223	-0.06094564
148	0xbe19f8a7	-0.1503626
149	0x3cc9ce94	0.024634637
150	0x3e054a4c	0.13016623
151	0x3e244a87	0.16044055
152	0x3d2a0bd9	0.041515205
153	0x3e17f80e	0.14840719
154	0x3db30e74	0.08742991
155	0xbdddb8a0	-0.1082623
156	0xbdd31eb5	-0.10308591
157	0x3dbef1ef	0.09323489
158	0xbe7449c2	-0.23856261
159	0xbd4a8c3d	-0.049450148
160	0xbc690f28	-0.014224805
161	0xbe247eda	-0.16064015
162	0x3e16bdd7	0.14720856
163	0x3e4d29b9	0.20035447
164	0x3cc56ab2	0.024098728
165	0x3cb40e7a	0.02197956
166	0x3dd21d0f	0.10259449
167	0x3e5234cc	0.20527953
168	0x3d0fe1a2	0.03512729
169	0x3d8c804d	0.06860409
170	0xbe116e77	-0.14202295
171	0xbdf7068f	-0.12061798
172	0xbd50c90b	-0.05097298
173	0x3c08ccfa	0.0083496515
174	0xbddec2cf	-0.108770005
175	0x3e4bfb29	0.19920029
176	0x3d061cfc	0.032742485
177	0x3d324bc5	0.04352929
178	0x3dbb4f71	0.091460116
179	0xbdba02f4	-0.090825945
180	0xbdc98ad4	-0.098409325
181	0xbd08778b	-0.03331713
182	0xbe0d864b	-0.1382076
183	0x3ddae86a	0.10688861
184	0x3c79847b	0.01522934
185	0x3ddf2205	0.108951606
186	0x3cc5dabd	0.024152154
187	0xbdcbef5c	-0.099577636
188	0x3d92668d	0.07148466
189	0x3da940ea	0.082643345
190	0x3e6364b3	0.22206382
191	0xbc8ff6be	-0.01757371
192	0x3e5ac0d0	0.21362615
193	0x3dda1b2f	0.10649716
194	0x3ddce367	0.10785561
195	0x3e02c846	0.12771711
196	0x3e0866c7	0.13320456
197	0xbb6ebb19	-0.0036427437
198	0xbe38ae1b	-0.18035166
199	0xbe733030	-0.23748851
200	0xbba50753	-0.0050362735
201	0x3e4c7f7f	0.19970511
202	0xbd10de4d	-0.035368253
203	0xbe78b676	-0.24288353
204	0x3ddb9df5	0.10723487
205	0xbe019cac	-0.12657422
206	0xbdad73d0	-0.08469355
207	0xbc874c6e	-0.016515937
208	0xbd806db4	-0.06270924
209	0xbdc19a1f	-0.094532244
210	0xbd3976eb	-0.045279425
211	0xbdc62398	-0.09674758
212	0xbde0bd84	-0.10973647
213	0x3e1245d3	0.14284448
214	0xbded31ef	-0.1158179
215	0xbe5b7a5d	-0.21433397
216	0x3e19de32	0.15026167
217	0x3e21f488	0.15815938
218	0xbd5d44a4	-0.05402054
219	0x3e18bcb8	0.1491574
220	0xbe96fbd1	-0.29488996
221	0xbe262e8f	-0.16228698
222	0xbe4ecad8	-0.20194566
223	0xbe5ddf60	-0.21667242
224	0xbe041068	-0.12896883
225	0x3e1226a4	0.14272553
226	0xbcb7050f	-0.02234128
227	0x3e44f831	0.19235303
228	0x3ded85cd	0.11597786
229	0xbd4fe8cc	-0.05075912
230	0xbe29de3d	-0.16588683
231	0x3c363f4d	0.0111234905
232	0x3eecf94a	0.46283942
233	0xbd91d6ee	-0.07121073
234	0x3dc134be	0.09433888
235	0xbdcbcd18	-0.09951228
236	0xbd9b067b	-0.075695954
237	0xbbec5879	-0.007212695
238	0x3e13eff6	0.14447007
239	0xbe4818cd	-0.19540711
240	0xbde79848	-0.11308342
241	0x3d429119	0.047501657
242	0x3e28e490	0.1649344
243	0x3dd0b187	0.10190111
244	0xbbed3d3c	-0.0072399657
245	0xbcb69126	-0.022286009
246	0xbdc4aa40	-0.09602785
247	0x3e87178d	0.26385155
248	0xbcfff36a	-0.031243999
249	0x3c90ec8b	0.017690917
250	0xbd9cc486	-0.07654671
251	0xbe9de23f	-0.30836675
252	0xbdff246c	-0.12458119
253	0xbdc1ec81	-0.09468938
254	0x3e455a63	0.19272761
255	0xbdd8e2ba	-0.1059012
