landmark/results/LINUX_30/LINUX_30_minvaild.pt (torch, 199461 bytes, 6 tensors)

weight f8 [128, 60]
0	0xbfb0046fe56d6ece	-0.06256770468956604
1	0x3fb28b6b34f9cec2	0.07243986171107067
2	0x3fb20bfc216e67d5	0.07049537483399544
3	0x3fbe751bca47ee31	0.1189744347429318
4	0x3fa4ab6f715cb276	0.04037044771971392
5	0x3fba5dd247688664	0.10299410098425593
6	0xbfb15508f05236cb	-0.06770377986159841
7	0xbfb105b7862f9f1c	-0.06649348283792417
8	0xbfc020a8a4751da6	-0.12599666624212807
9	0xbfc188f83adac335	-0.13699248193508998
10	0x3f9546f4c1f71d13	0.020778488482190726
11	0xbfa087e07bea3f9b	-0.032286658407542045
12	0xbfba8de5278a6070	-0.10372764792771405
13	0xbf9d28e88632a7fe	-0.028476365271366426
14	0xbfbfb06850c2289f	-0.12378551456109442
15	0x3fb004389d09abee	0.06256440957956474
16	0x3fb3610f58759f90	0.07569976720480853
17	0xbf981a618a629960	-0.023538135596618104
18	0xbf8b6d128bc245f2	-0.013391632928946049
19	0x3f4f272244f3ff99	0.0009507100420762415
20	0x3f738b19f36819de	0.00477132927927079
21	0xbf56e97306ad9ce5	-0.001398432092821805
22	0xbfb0dad0e7385790	-0.06583886761685975
23	0xbfa3c93a7e9f6f11	-0.03864462657631241
24	0x3fa57229b522b514	0.041886618958736715
25	0xbf99d78d9575a6dc	-0.025236332175530105
26	0x3faaecb39a5aacd8	0.05258713969427625
27	0xbfa974a98613215f	-0.049718186966461124
28	0x3fbc67ccb9d060e5	0.11095885788415989
29	0x3fb4654aca887193	0.07967059559491067
30	0xbfb7719b94820f56	-0.09157726646122674
31	0xbfbecefa6c8b470e	-0.12034573698045056
32	0x3faaa86c4517be28	0.05206621497552205
33	0xbfbdddec7cdc6599	-0.11666753815042909
34	0x3fbe272a1a416804	0.1177851022816015
35	0xbfbfb38226ac6f14	-0.12383283085040048
36	0x3fb12e6c71b1a424	0.06711461806993718
37	0xbf8d19cab428a0d4	-0.014209350226409269
38	0x3f97a628b66a92ea	0.023094783910567886
39	0x3fb984c4433f76cc	0.09968210832399932
40	0x3fb9c7271a349a66	0.10069507970602273
41	0xbfa4276c48f6d7bc	-0.03936327353169086
42	0xbfb0e2b024006e6c	-0.06595898512790094
43	0x3f9bf799a5507334	0.0273117072248283
44	0xbf929a8799488463	-0.018167608957928027
45	0xbfbc63ab7251b342	-0.11089583912844339
46	0xbfc15a87da003734	-0.13557527679989223
47	0xbfb92ff4dd97877e	-0.09838800821265001
48	0x3fb5c3e93a2d5a1c	0.08502061529484489
49	0xbf6c17153a956a8b	-0.0034289755464390107
50	0x3f79ea5fdb49a62c	0.0063270325086733185
51	0xbfb409f51eddbd40	-0.07827693942612246
52	0xbfb18a74559de872	-0.06851889696364014
53	0x3f9cf5c468ac57fb	0.02828127755045527
54	0x3fb7a91b840f1f23	0.09242412542436944
55	0xbfb37d15bbdce710	-0.07612739407059288
56	0xbfb7d36ab24e342b	-0.09306971409951419
57	0x3f972c9df5e3f977	0.02263113797470725
58	0xbf8213d2b828a0d1	-0.008826872105672486
59	0xbfa8cbcb48d46529	-0.04842982543977776
60	0xbfc067c2c0000000	-0.12816652655601501
61	0x3fbd436600000000	0.11430966854095459
62	0xbfa222d800000000	-0.03542208671569824
63	0x3fa964b2a0000000	0.0495963878929615
64	0xbfbac9de00000000	-0.10464274883270264
65	0xbfbb20f9a0000000	-0.10597191005945206
66	0x3fb6392640000000	0.08680953085422516
67	0xbfb963ab40000000	-0.09917707741260529
68	0x3f70fcd800000000	0.004147380590438843
69	0x3f96353980000000	0.02168741077184677
70	0x3f95ec9500000000	0.021410301327705383
71	0xbfb9f83cc0000000	-0.1014440506696701
72	0x3fb2c394e0000000	0.07329683750867844
73	0xbf84f88f60000000	-0.010239715687930584
74	0x3fa6c112e0000000	0.04444178566336632
75	0x3fb8d344e0000000	0.0969737097620964
76	0xbfb8303e20000000	-0.09448612481355667
77	0x3f8dd14b80000000	0.01455935463309288
78	0x3faa0ddfe0000000	0.050887104123830795
79	0xbfa8f48d80000000	-0.04874078929424286
80	0x3fb58d6960000000	0.0841890200972557
81	0x3fbaeec600000000	0.10520589351654053
82	0xbfb208c8a0000000	-0.07044652849435806
83	0xbf975f6aa0000000	-0.02282492257654667
84	0x3fa78947e0000000	0.045969244092702866
85	0xbfb11463a0000000	-0.06671736389398575
86	0xbfc07af120000000	-0.12875188887119293
87	0x3fc0020bc0000000	0.12506243586540222
88	0xbf90a80580000000	-0.016265951097011566
89	0x3fb7573bc0000000	0.09117482602596283
90	0x3fadbc6a40000000	0.05807811766862869
91	0xbf87261580000000	-0.011303108185529709
92	0xbfb394fa60000000	-0.07649197429418564
93	0x3fa1cba840000000	0.03475690633058548
94	0xbfb112a7a0000000	-0.06669089943170547
95	0x3fa489ea60000000	0.040114711970090866
96	0xbfbb7e4920000000	-0.1073957160115242
97	0xbf92a4e740000000	-0.018207181245088577
98	0xbfa4c0a5e0000000	-0.04053228721022606
99	0xbfb8532ac0000000	-0.09501902759075165
100	0xbfbb3c1b40000000	-0.10638590157032013
101	0xbfa91a58a0000000	-0.04902913048863411
102	0xbfa5d13f60000000	-0.04261205717921257
103	0x3faf999440000000	0.061718590557575226
104	0x3fb01d6980000000	0.0629487931728363
105	0xbfb3b47e40000000	-0.0769728571176529
106	0xbfa7df2880000000	-0.04662443697452545
107	0x3fbbe15b40000000	0.10890741646289825
108	0xbfbb614820000000	-0.10695315152406693
109	0xbf9ec26ec0000000	-0.03003857657313347
110	0x3fa80027c0000000	0.04687618464231491
111	0xbfbea85c60000000	-0.11975648254156113
112	0xbfbf1b7d40000000	-0.12151320278644562
113	0x3faff63e00000000	0.06242555379867554
114	0xbfb06d8040000000	-0.06417085230350494
115	0x3fbbd92c40000000	0.10878254473209381
116	0x3fb60e5460000000	0.08615615218877792
117	0x3fbacf3ba0000000	0.10472462326288223
118	0xbfb817b360000000	-0.09411164373159409
119	0xbfa72edac0000000	-0.04527934640645981
120	0x3fc2df8fb3c6c95b	0.1474475505652418
121	0xbfc8ea3ecddf89e6	-0.1946486001243805
122	0xbf9024fca2231cba	-0.01576609363180801
123	0x3fb11abb5e0d105f	0.0668141464821601
124	0x3fb10b6008989ec4	0.06657982072703833
125	0x3f76189916c27fc8	0.005394552234207546
126	0x3f67480b93b16bc3	0.0028419710265956423
127	0xbf7861dc4fe3a1ff	-0.005952702135097797
128	0xbfc7e373fb7083db	-0.18662881638832016
129	0x3f921508b655c6c7	0.017658363465165274
130	0x3f9e710b20a193d9	0.029728101603172383
131	0x3f85e2c7678284de	0.010686452719087244
132	0x3f994dc51dae62b9	0.024710731445881182
133	0xbfc0a8062c06247c	-0.13012768888100712
134	0x3fc58ac687e89611	0.16829759250792667
135	0x3fba5cc714e0938d	0.1029781747789242
136	0x3fbf62b8b76b9899	0.12260012128862953
137	0xbfbb3e01ea1b06ff	-0.1064149090334716
138	0xbfa65e3394c97452	-0.04368745032545775
139	0x3f697dd3fd3338a8	0.003111757317674952
140	0xbfcaa6d9add64cc2	-0.20821686733379435
141	0x3fb4928b364b939e	0.08036108089034008
142	0x3fbe6a2a8c3900bf	0.11880746768383953
143	0x3fc1abc99403b583	0.13805503585119192
144	0xbfb01bd88cf5b8fc	-0.0629248947277325
145	0xbfbce7ea6951875e	-0.11291375228168252
146	0xbfbcaa98919f1d18	-0.11197808795178721
147	0xbf609953788f88f4	-0.0020262365619468873
148	0x3fba32153301c5c5	0.10232670302664022
149	0x3faabb3c973b7040	0.0522097525224301
150	0x3fbf76f8edfcb850	0.12290912447198932
151	0xbfbb801226fe2c98	-0.1074229569623405
152	0xbfb6231b0ee33e82	-0.08647317040890282
153	0x3f96608fd8ae26e2	0.021852729416003032
154	0xbf9ab36f6a8d5e3b	-0.02607511604159483
155	0xbfabd27235a5e425	-0.05433995156176533
156	0x3fc2201eeb86b80e	0.1416052484541414
157	0xbfbec4b8b9fe4e94	-0.12018923321584857
158	0xbfba47f663f30bdb	-0.1026605600373353
159	0x3fbc4ae287d9a56e	0.1105176526704292
160	0x3f856c66eb36c37a	0.010460666707190692
161	0x3f9743650336b885	0.0227180274211425
162	0xbfb294cdb279c8a2	-0.07258306128804518
163	0xbfc62dc9dc805092	-0.17327235476171104
164	0xbfb1e7f9ea6ab8eb	-0.06994592640942059
165	0xbf8b8cdd5d98a184	-0.01345227186091403
166	0xbfb03749e279c8b9	-0.06334363726799354
167	0x3fc19bb37e7b246f	0.13756412196952136
168	0x3f74755d0319b289	0.004994738892133762
169	0x3fa9fb2d1a55add5	0.050744447197611876
170	0xbfb04c4d6269b831	-0.0636642804399521
171	0xbf827555a68840a0	-0.009012860436115766
172	0xbf834221a6d853ac	-0.009403479484754694
173	0x3f953802cae1cebf	0.020721477158487597
174	0xbfa2d75bea3bd99c	-0.03679930910395798
175	0xbf32d42fcf2870d6	-0.00028730551926671227
176	0xbf8793f4ab36f63c	-0.011512671923692534
177	0x3fb11b8084ad9f06	0.06682589759077126
178	0xbfaf70d6a3fc9cac	-0.06140776397506306
179	0x3fbb9858b3b378a6	0.10779337298615363
180	0x3fbd9f43a0000000	0.11571142822504044
181	0xbfba2cd4c0000000	-0.10224656760692596
182	0xbf55f03680000000	-0.0013390094973146915
183	0xbfa5cfd340000000	-0.04260120540857315
184	0x3fba3bb940000000	0.10247381031513214
185	0xbfb17a0ea0000000	-0.06826869398355484
186	0x3f977866a0000000	0.02292023040354252
187	0xbfbc618140000000	-0.11086280643939972
188	0xbfbf177a60000000	-0.12145199626684189
189	0x3fb9ebe3e0000000	0.10125564783811569
190	0xbfc042e180000000	-0.1270410418510437
191	0x3f9cd8d2c0000000	0.028170865029096603
192	0x3fa3dec640000000	0.03880900889635086
193	0x3f68aef740000000	0.003013117704540491
194	0xbfb47f2940000000	-0.08006532490253448
195	0xbfb0b91fc0000000	-0.06532476842403412
196	0xbfb97458c0000000	-0.09943155944347382
197	0xbfb4571220000000	-0.07945359498262405
198	0xbf9fbd5560000000	-0.03099568746984005
199	0x3fb5b61e00000000	0.08481013774871826
200	0xbfa9e72b40000000	-0.05059180408716202
201	0x3f732815a0000000	0.004676899407058954
202	0xbfa401d740000000	-0.0390765443444252
203	0x3f8952c2c0000000	0.012364884838461876
204	0x3fbf5b1640000000	0.12248362600803375
205	0x3f72661cc0000000	0.004491913132369518
206	0xbfb620e120000000	-0.08643919974565506
207	0xbfbc81c540000000	-0.11135514080524445
208	0xbfae89fce0000000	-0.05964651331305504
209	0x3fbccda5a0000000	0.11251292377710342
210	0xbfadf0c700000000	-0.05847761034965515
211	0xbfbf9f2ca0000000	-0.1235225573182106
212	0xbf9676eec0000000	-0.02193806692957878
213	0x3f7f350340000000	0.007618916220963001
214	0x3fbf742c60000000	0.12286641448736191
215	0x3f99991780000000	0.02499806135892868
216	0x3f89f3f320000000	0.012672328390181065
217	0xbfbb42c7c0000000	-0.10648773610591888
218	0xbfa5006500000000	-0.04101863503456116
219	0xbf909b9fc0000000	-0.016218658536672592
220	0xbf69bc4cc0000000	-0.003141546156257391
221	0x3fa2d27de0000000	0.03676217421889305
222	0x3fae2809a0000000	0.05889921262860298
223	0x3f7029d4c0000000	0.003946143202483654
224	0x3f90369240000000	0.01583317294716835
225	0x3f9b626700000000	0.026742562651634216
226	0x3fbddc10a0000000	0.11663917452096939
227	0xbf8841c3a0000000	-0.011844185180962086
228	0x3fba852ca0000000	0.1035945788025856
229	0xbfbf14a5a0000000	-0.12140879780054092
230	0x3fa8a46020000000	0.04812908545136452
231	0xbfa87c0320000000	-0.04782113805413246
232	0xbfbaacb820000000	-0.10419798642396927
233	0x3f998e1f60000000	0.024956217035651207
234	0x3fad749a00000000	0.057530224323272705
235	0xbfb0980e80000000	-0.06482020020484924
236	0xbfac816680000000	-0.05567474663257599
237	0x3fac830e80000000	0.05568738281726837
238	0x3fad5dd160000000	0.057356398552656174
239	0xbfb8daf7c0000000	-0.0970911830663681
240	0xbf893fb9fb65aac9	-0.012328579887897278
241	0x3f76461ab369d86e	0.005437950420505639
242	0x3fbe3996fb091fa4	0.11806625012206823
243	0x3fc56134d38a00a7	0.16702900246673844
244	0xbfb4b84a845fba5d	-0.08093705875192243
245	0xbfd0b0a2701df8a6	-0.2607809157269777
246	0x3f97aafff5b590a0	0.023113250133420693
247	0xbfca15b6eff6bf3c	-0.2037876769732011
248	0x3f76a79d85db136f	0.0055309441792744515
249	0x3fc74d5095842d2f	0.18204695988274852
250	0x3fbc09fea753f6b7	0.1095275076404175
251	0x3f870535a6457204	0.01124040521306658
252	0x3fbd0a9e99c1eb37	0.11344329122395612
253	0x3fc3d7665482c72e	0.1550109779978412
254	0x3fb34974a3518bc3	0.07533959376591697
255	0x3fa5aaa89f8d32f9	0.042317647434719725

bias f8 [128]
0	0xbfb8cdeca9d8024e	-0.09689215799881731
1	0x3fbd648340000000	0.11481495201587677
2	0x3fce949ca2aebc17	0.23891027396663908
3	0xbfbb2305c0000000	-0.10600315034389496
4	0x3fc69485697ca4e6	0.17640750551917178
5	0xbfa9df704ebd0beb	-0.050532827006939694
6	0x3fb4393a5d9cd876	0.07899822984185953
7	0x3fba476839ad3361	0.10265208633536595
8	0xbfad4a477a0360f6	-0.05720733036440777
9	0x3fb47257aca1b721	0.07986972775117042
10	0xbfa02d4daf80c8b5	-0.03159563796397561
11	0x3fbb656520000000	0.10701591521501541
12	0x3fb20becfba9215c	0.07049447197016917
13	0xbfc5578665e4cdbd	-0.16673355078965627
14	0xbf8f4ba718f7b355	-0.015281014871072843
15	0xbfa49ae580000000	-0.040244266390800476
16	0xbf8459ccc0000000	-0.009936904534697533
17	0xbfc03711279d9541	-0.12668051180222942
18	0x3f7af397282b6f8d	0.006579962212267432
19	0xbf95fb6780000000	-0.021466843783855438
20	0x3faf2d2540000000	0.06089130789041519
21	0xbfbc0102aecda4e5	-0.10939041869791628
22	0x3fa21d25cb1d99b0	0.0353786287731056
23	0xbfb28c49faa0aec8	-0.07245313996161962
24	0xbfa763d7b4df7a64	-0.0456836136142911
25	0xbfbf8d731356a498	-0.1232520982945452
26	0x3f9bd3ea81770d54	0.0271755830306238
27	0xbfbb067c63eb726f	-0.10556771697469867
28	0xbfceaed4fcaf53a8	-0.23971044862869673
29	0x3fbf14b5e0000000	0.12140976637601852
30	0x3f6a21a480000000	0.0031898701563477516
31	0x3fa696dcc0000000	0.044119738042354584
32	0xbfaac133a0000000	-0.052255261689424515
33	0x3fb03e5e30fb619b	0.06345165916298472
34	0xbfb735da433dd3f8	-0.0906654752887589
35	0xbfc12fbc2c9f9d0b	-0.13426925829774236
36	0x3fae1f0d9bfe333f	0.05883066682063153
37	0xbfb64b32ef1d774e	-0.0870849450852493
38	0xbfb22cb74c56699a	-0.07099481214246453
39	0xbfb2c4a03f50c123	-0.07331277414119035
40	0xbfb2ca0a25ae1f06	-0.07339538021016886
41	0xbfb5821620000000	-0.08401621133089066
42	0x3f9a6581bdb3b128	0.025777842715727278
43	0x3fc135cbb500cd6f	0.1344542154125565
44	0xbfa275164c5caa9b	-0.03604955370095305
45	0xbfb57140cd17ec4b	-0.08375935561336793
46	0xbf6d8d3200000000	-0.003607366234064102
47	0x3fb8d831d281f40b	0.09704886807772099
48	0x3fb0ddf4409d78da	0.06588675096051891
49	0xbfcd22f0a1c0a7b8	-0.22762878320764712
50	0xbfc11cbc2ab2b2aa	-0.1336894234167592
51	0xbfbf3ab69e5ca008	-0.12198964468245788
52	0x3fbb4c4520000000	0.1066325381398201
53	0xbf91dc8e169c2535	-0.017442913179398906
54	0xbf97349c25d7de01	-0.022661628541724713
55	0xbfaac3d3aa61db26	-0.05227529005872204
56	0x3fba46d84972bf25	0.10264350693864495
57	0x3f705db240000000	0.003995605744421482
58	0x3fae44ec27ee32c3	0.05911958682472609
59	0xbfc239f56fc22e3d	-0.14239376027068032
60	0xbfcc6d9c499472c1	-0.2220950469280947
61	0xbf943fc840000000	-0.019774559885263443
62	0x3fb2c3d3e0000000	0.07330059260129929
63	0xbfaa08c9d2d18743	-0.05084829996554998
64	0xbf9904a946c2ac9f	-0.024431843704104336
65	0x3fb17cf6c95fefa2	0.06831304947257746
66	0x3fb6550c4178d03b	0.08723522756992079
67	0x3f98e19233f64b98	0.024297985478891698
68	0xbfb22cfeaf37993e	-0.07099906709445222
69	0xbfcce6b018ab671e	-0.2257900352913617
70	0x3f8b0b0de6169fe6	0.013204678138961822
71	0x3f743d2d217918e3	0.004941154758460994
72	0x3fa6fb0323b8817e	0.044883821592750714
73	0x3fbf2c9b20000000	0.12177438288927078
74	0xbfa61290d3359e8b	-0.04311039522400247
75	0xbfbedc6a377897f7	-0.12055076460146084
76	0xbfb49e20f9158050	-0.08053785401489333
77	0x3f9954874d5a21d3	0.024736513229557233
78	0xbfbf74b433f7d3a2	-0.12287451046706946
79	0xbfb2ebcb40000000	-0.0739104300737381
80	0xbfaf5aa62fc8ff9a	-0.06123847325625249
81	0x3fa565a5b16a3130	0.04179113188465278
82	0x3fbabd92aca6e953	0.10445515360962547
83	0x3fc4f8eaa28b1888	0.16384633003889726
84	0x3fb9033bc0000000	0.09770558774471283
85	0xbfc37c8cd4a578c9	-0.1522384680092215
86	0x3fb7d8efa0000000	0.0931539312005043
87	0x3fbedfdaa0000000	0.12060324102640152
88	0xbfb46ab86353d785	-0.07975342202175113
89	0xbf8f68f4b0834872	-0.015336906086677458
90	0xbfa8edd2c0000000	-0.04868944734334946
91	0xbfb299a22df0b1c4	-0.07265676137530536
92	0xbfa29837a5bd3db6	-0.036317576391066295
93	0x3fbf262175a85fb9	0.12167557833197308
94	0xbfd335240f4e4181	-0.3001184606046295
95	0x3fb90ef840000000	0.09788466989994049
96	0xbfc084dbd445c475	-0.1290545259940107
97	0xbfa38c9b4908560f	-0.038182118096454436
98	0xbfa7aa08af1115ea	-0.04621913086934255
99	0xbfa423c6c99efdd3	-0.039335453140207165
100	0xbf7997adea4ec338	-0.006248168331624275
101	0xbfb4e2c7aa4bba06	-0.08158538730251771
102	0xbfc3516365cd8196	-0.15092127295339414
103	0x3fbdff867f465811	0.11718025786680665
104	0xbfb00ac3834420d5	-0.0626642413591328
105	0x3facfdc7a0000000	0.056623686105012894
106	0x3f72a5a4bd9d4ae3	0.004552501219069002
107	0xbfc47d79017f6c37	-0.1600791222871025
108	0xbfc72633c1965333	-0.18085333778858512
109	0xbf9e943600000000	-0.029862254858016968
110	0x3fb4b6441515f355	0.08090615763462712
111	0x3fb7a22640000000	0.09231795370578766
112	0xbfcf7c1217bab74d	-0.24597383650455598
113	0xbfbb617e3a6c70cc	-0.1069563763271077
114	0x3f920df640000000	0.01763138547539711
115	0x3faaf7a58ef9adf9	0.05267064447692955
116	0xbf98863800000000	-0.023949503898620605
117	0x3fbe33b6abfbb529	0.11797658633050347
118	0xbfc03e9fced4d863	-0.12691114043417703
119	0xbfb091f880000000	-0.06472733616828918
120	0xbf90433dba5d891d	-0.015881504535522162
121	0xbfc1aab82c6736fd	-0.1380224434673706
122	0xbfc062a3630d1e36	-0.12801019989477574
123	0xbf9fce7d59e10b31	-0.03106113301351882
124	0xbfbdafee2602d8a8	-0.11596573284154721
125	0x3f9fac76c43afc8a	0.030931335188821886
126	0x3faf288c42cceb65	0.06085623088298212
127	0x3fb41885d4f4d3a2	0.07849918793802016

weight f8 [1, 128]
0	0xbfab74781a9e0766	-0.053622964142973115
1	0x3f9f294ecdd2cd73	0.03043101435896518
2	0x3fb6a105b6fc3276	0.08839450566683546
3	0xbfb33e55e9ce516f	-0.0751699157538661
4	0x3fa5e6683851a2a2	0.04277349174009727
5	0xbfaf8fd8c90eadc6	-0.061644339125759326
6	0x3faa2eb7eaff3aaa	0.05113768333068454
7	0x3f91b449f2ca93fb	0.017289309924894507
8	0xbfc25a2301ad7c48	-0.1433757551376138
9	0xbfafdb0924a97c23	-0.06221798489126964
10	0x3fa877fddccac7da	0.04779046364036761
11	0x3fb326607a8db35b	0.07480433456448791
12	0x3fc634ff04fb5a62	0.17349231475118915
13	0x3fc060008ef74cc1	0.12792975407373855
14	0x3fb65db58d89aa6a	0.08736738877784381
15	0x3fb48bb3156e387c	0.0802566459007909
16	0xbfb3c7afec4439d8	-0.07726573484635624
17	0xbfad3726cd0d5a4f	-0.05706139805868259
18	0xbfb9710e823a46d1	-0.09938135795007531
19	0xbfc0eb68e1dc90c4	-0.13218413380048422
20	0x3face17717aedca8	0.05640766300296579
21	0x3fb20e32e1ebfabb	0.07052915588063062
22	0x3fac24bff5c1e7e2	0.05496787905663304
23	0x3f85a628ba08d27b	0.010570829560586184
24	0xbfb8f6ec59340b6b	-0.09751774957480357
25	0xbfa8ede653e2aaea	-0.04869003080360364
26	0x3fbba4f0f3fb88b0	0.10798555332761128
27	0x3fb44f8d42ad58aa	0.07933886411533089
28	0x3fb5588dd047d90f	0.08338247618653248
29	0x3f90ce8db01dc3dd	0.0164129389517632
30	0x3fafce5b2c20f9f0	0.062121247422044834
31	0xbfc7387a2659a2f6	-0.18141104576650208
32	0x3fd949977a999688	0.3951166817917984
33	0xbf9239fe4a3b7ed2	-0.017799351959978456
34	0x3f98c2e00fdefe6a	0.024180890053456507
35	0x3f7a9f4011341a96	0.006499529135232015
36	0xbfbb2531c6958abd	-0.10603629205938155
37	0x3fb3a0f3f3b6eea7	0.07667469692290273
38	0x3fb16eddc54e30ce	0.06809793536212114
39	0xbfc21a6d495c6ddb	-0.1414314850052126
40	0x3fb2f11ac6ad3015	0.07399146414280751
41	0x3fa222c02c3dfbca	0.035421376610421954
42	0xbfb1bc139ff55b35	-0.06927607207522331
43	0xbfbdd01a6984a710	-0.11645665241362857
44	0x3f9d8b7221005dad	0.028852256073233985
45	0x3f793adca515b73f	0.006159650701517637
46	0x3fac69f3e3946095	0.05549585488387369
47	0xbfd583cbb4bafae4	-0.3361691727586005
48	0xbfd969725dac8cd7	-0.3970609583650008
49	0x3fb68dbe97eb93d0	0.0881003495120034
50	0xbfa9a01c19e0c759	-0.05004966560262742
51	0xbfb73d5b90e24d1f	-0.09077999388891954
52	0x3fc7515777bd84da	0.18216985079474207
53	0xbfb4176ad80be448	-0.07848232054301818
54	0x3fac84c573e7cd97	0.055700464628809225
55	0xbf64a8d16e12b3d0	-0.002521904986301206
56	0x3fb4e8e352bed959	0.08167858858255296
57	0xbfa873d60b97e45d	-0.04775875941772576
58	0xbfc21fef554139e8	-0.14159957564193282
59	0x3fc2d4f4c0772e6c	0.14712390325290714
60	0x3fa369ba016f5884	0.037916004824794874
61	0xbf81bb3633828770	-0.00865785927482296
62	0xbf9b4c0be88b03ae	-0.026657281940746173
63	0x3f8b2f52b080b75b	0.013273855220258637
64	0x3f90adabf1643eca	0.01628750477635669
65	0xbfb04cd30009df1b	-0.06367224455777569
66	0x3fa46f39a6bdae3e	0.03991108093654504
67	0xbfaffbc5b6253f07	-0.06246774528938031
68	0xbf9c542b8cc02f93	-0.027664833513014363
69	0x3fb3a9d056f4d1e5	0.07680990336377354
70	0x3fb0a6ffa8fe3fc5	0.06504819751557907
71	0x3fcadf4493023513	0.20993859460978878
72	0x3fc237adb3c99d1e	0.14232417372407097
73	0x3f997f301fe33ed0	0.02489924616457878
74	0x3fa5debf2ca0a06e	0.04271504802483227
75	0xbfb294200b8489e2	-0.07257271081156305
76	0xbfa6e8cbd789a35a	-0.04474484449457945
77	0x3f9f079482c44a08	0.030302353364342977
78	0xbfacf2b401008423	-0.05653917801124233
79	0x3fba84d8a07b4acd	0.10358957212455806
80	0xbfb094b9f177f66b	-0.06476938386182389
81	0xbfa20eaebb6821b8	-0.03526826894455176
82	0x3fb76f1a7a97f042	0.09153905385022745
83	0xbf957ef2d728c263	-0.020992082960392355
84	0xbfaa454adb85ceea	-0.05130990915031737
85	0x3fa8db094b8cffc0	0.04854611441851331
86	0x3fabe4f0f51fe5a6	0.054481058046757
87	0x3fdab394d4d5c878	0.41721077713658117
88	0xbfbac63d255c719c	-0.10458738481651725
89	0xbfb37e82010d1850	-0.07614910627043625
90	0x3fc245e367a8cbf0	0.1427578216695049
91	0x3f88dc7228792f00	0.012139217243336997
92	0xbfb93da042c38859	-0.09859658842063491
93	0x3f6970bf376771fe	0.0031055197425600136
94	0xbf9b0cddd73de315	-0.02641626955252992
95	0x3fc9650f78988e7e	0.1983966196868216
96	0x3fb19a05ef360782	0.0687564572345121
97	0xbf99c51f5b933064	-0.025166025127689187
98	0x3faee83d76bea279	0.06036560129661423
99	0x3f9149dc92749e76	0.016883322180687853
100	0x3fb8ca05e754bc35	0.09683262727479376
101	0x3fa21dd4a4fb9e7f	0.03538383974028835
102	0x3fa22145d105972d	0.03541010071312054
103	0xbf82b55c1a9278ab	-0.009134978829305437
104	0x3fb906ed72b91e8c	0.09776195574624519
105	0x3faf2c6bbc4bc33f	0.060885779128403865
106	0x3fb428b811fb8290	0.07874632300400664
107	0xbfb33bdd81c10dd6	-0.07513222139191753
108	0x3fb3272c33c841f8	0.07481647743430375
109	0xbfd3d5fe9581bd8d	-0.30993618583939836
110	0xbfc5bf6de8f5465c	-0.16990445971400703
111	0x3fb4fa4eaed6a3ee	0.08194438713566374
112	0xbf99195087e403c1	-0.02451062993441489
113	0xbf9c3dc36c1b2114	-0.027579358552231772
114	0x3faee456c21538b7	0.060335837547073216
115	0x3fa09617d93fa551	0.03239511992417
116	0x3fb37bab35b09f63	0.07610578594960553
117	0x3fab61f641f6b33a	0.05348176532002076
118	0xbfb588cabc31df1d	-0.08411852926826353
119	0xbfb7f33a4ed76a1b	-0.093555111168293
120	0x3fa2da82840fdb74	0.03682334768375642
121	0xbfa7c65e18885eff	-0.046435299391474054
122	0x3fb1849f986030ce	0.068429922772512
123	0xbfb0dea941f0e8ae	-0.06589753970993925
124	0x3fab97e89877fde3	0.05389334546270754
125	0x3fa2f0f1e871c3e5	0.03699451410728453
126	0x3fb518a4056d9c04	0.08240723736308558
127	0xbfb16d546c7490b4	-0.06807449004969862

bias f8 [1]
0	0xbfa5bbbc76383e15	-0.042447938376536744

weight f8 [128, 128]
0	0xbfc11d918c5f5d8d	-0.1337148604786588
1	0xbfc2a79f9e97eb31	-0.1457404636747355
2	0x3fc6f9b6f09c5b92	0.1794956850869452
3	0xbfa9e55f20000000	-0.05057809129357338
4	0x3fbd0fbbb464a8c6	0.11352131990557543
5	0x3fa83736fc7dc08c	0.04729625541847424
6	0x3fb17b41c3e5d3b3	0.0682870009675998
7	0xbfc28a3a6fc24479	-0.1448433919618173
8	0x3fc5e5bdb73b4803	0.17107364127019772
9	0x3f76690880000000	0.005471261218190193
10	0xbf93bb8cbf8783e6	-0.019270133199714844
11	0xbfc6709ae62c1837	-0.1753114341628945
12	0xbfabc383fa089b0f	-0.05422604014557041
13	0xbf4ee03ddcf4f8ea	-0.0009422590318662026
14	0xbf9d461210172f97	-0.028587610466089677
15	0xbfc06ec2adcc9fa0	-0.1283801411275336
16	0x3f98e14180000000	0.024296782910823822
17	0xbfac1d70ac2f99ad	-0.054912110346595135
18	0xbfc37000c2c905ad	-0.15185555945394694
19	0xbfb631f2ae51c000	-0.08669964557498133
20	0xbfb68d847aa86ad4	-0.08809688562943602
21	0xbf91abaeaa7eb6c2	-0.017256478458583364
22	0xbfc2957f3077efbd	-0.14518728129030292
23	0xbfc8b400febf6d30	-0.19299328268866978
24	0xbfa794ef36905a36	-0.0460581544977469
25	0xbfc22b114f7f810c	-0.14193931943646765
26	0xbfc5b78bf84a10d8	-0.1696639025068467
27	0x3fb600ef143baa5b	0.0859517502209796
28	0x3fc4c25336bdcc7f	0.16218033001823426
29	0xbf7fe21140000000	-0.007783954031765461
30	0xbfc4f29a88eb35fd	-0.163653675894622
31	0x3fa59ef000000000	0.04222822189331055
32	0x3fa7474660000000	0.045465659350156784
33	0xbf9b98df78271152	-0.026950351437123495
34	0xbfae2a4993899452	-0.05891637731546297
35	0x3fbd2a05ecd9a086	0.11392247230981142
36	0x3f9635cf31b24684	0.02168964138815578
37	0x3fab07ec23d0595e	0.05279481827908471
38	0x3fc180cc32b512bb	0.1367430923075029
39	0xbfa146f9e6a9b821	-0.03374463024816544
40	0xbf9e38b3340f018f	-0.029513168384939056
41	0xbfc74c849b802979	-0.18202264397434556
42	0xbfb7f3abb018bbbd	-0.09356186913713223
43	0x3fad73e1bcac3026	0.05752473285801356
44	0xbfa2dd1bcc42fbfa	-0.036843174633297296
45	0xbfc3eb8bc1b37e8e	-0.15562579114974934
46	0xbfb97c63432fbb2f	-0.09955425634664715
47	0xbfb5cdace40e9b82	-0.08516960685538602
48	0x3fa36e3ce0000000	0.03795042261481285
49	0xbfa80828e8c72175	-0.046937254348054326
50	0xbfad2a4e5df040b1	-0.05696339508733795
51	0xbf81f3e91ce7d8a0	-0.008766003794317634
52	0xbfc162194ef271ce	-0.13580623965107325
53	0xbfc1b4024471827b	-0.13830593435251956
54	0x3fa93a6ebaf369c5	0.0492739299022165
55	0xbfac342e1f952329	-0.05508560309914962
56	0xbfc67b86be4069fb	-0.17564472474698775
57	0x3fa11fc320000000	0.03344545140862465
58	0xbfd6a511bf710999	-0.3538250321909345
59	0x3fc7c54061b647f7	0.18570713778586853
60	0x3f9f4bd8ef313a2b	0.030562772368563678
61	0xbfc0de0156fb04e7	-0.13177506205651143
62	0xbfc33e85270a8a16	-0.1503454628592215
63	0x3fa18809c7a95eac	0.034241014120821006
64	0xbfa61ffb791c8966	-0.043212755712619
65	0x3f5b32a3ec3f5c28	0.0016600228127481385
66	0xbfa5566b0391e339	-0.04167494219377094
67	0xbfb14afba6c3a6ee	-0.06755039998429499
68	0x3fb4c18d83a9de15	0.08107838119928375
69	0x3f98d622975ed9b6	0.02425436066524763
70	0x3fcd3101fc9fe689	0.22805809817491632
71	0xbfabcc428a53328d	-0.054292754540800826
72	0xbfcbb296fd771716	-0.21638762832861208
73	0xbfc5ffb00c358a6e	-0.17186546894216143
74	0xbfa14baeaef58c27	-0.03378053556186727
75	0xbfae6d7da0000000	-0.059429097920656204
76	0xbfe4673544993619	-0.637598642331514
77	0x3f6a2858774a1afa	0.003193066392046415
78	0xbf9007da75a6a8a7	-0.015654958182189784
79	0xbfaec7f267431109	-0.06011922369501305
80	0xbfafacb0feb7b479	-0.06186440572114633
81	0x3fb264d85ef0bed5	0.07185127561455869
82	0xbfddd0eb8978b2e6	-0.46587646889638135
83	0xbfc8c8983016bbba	-0.19362165783010515
84	0x3fb38db200000000	0.07638084888458252
85	0xbfb1fb862eb77ef5	-0.07024420395418558
86	0xbfc4c2d2107bc880	-0.1621954517827966
87	0xbfa420d000000000	-0.03931283950805664
88	0x3fbb5240d5f58fc5	0.1067238352166547
89	0x3f9f4995714017d6	0.030554137265447277
90	0xbfaae65d20000000	-0.052538786083459854
91	0x3fbb45b69b42f8a2	0.10653249064032136
92	0xbfc11ea5455b263c	-0.1337477291729544
93	0x3fc4e4d807bf9b54	0.16323376062720263
94	0xbfc9704ba94d6cde	-0.1987394882843096
95	0xbfb3a1fcbc2184fa	-0.07669047921219266
96	0x3fc4178fab5b4c88	0.15696903101943271
97	0x3f86a1424c407829	0.011049764587422644
98	0xbf9f656fc4a31b92	-0.030660387398508578
99	0x3fc7e466918a63ab	0.18665773493264956
100	0xbfb94e95818c9284	-0.09885534680194935
101	0xbfbbec79bef58020	-0.10907708084187151
102	0xbf7faa7d864c83aa	-0.007730951624382346
103	0xbfaf47a5f519276a	-0.061093507928105265
104	0x3fbf996c74009335	0.12343480903707589
105	0xbfab225bc0000000	-0.05299650877714157
106	0xbfb552c75e7f3039	-0.08329435402919295
107	0x3f9da5b9e94b2cd3	0.028952507843126817
108	0x3fb381b6a9c4f578	0.07619802136192344
109	0xbfa8affe880ae0f2	-0.04821772967028605
110	0xbfadef2ac1fd4f95	-0.05846532457385859
111	0xbf9f845e2f3e8038	-0.030778380998185834
112	0x3fcd0a45b493be4e	0.22687598531000436
113	0x3f9501d467a080b0	0.02051479227532188
114	0xbf9f3f9aa25894ab	-0.030516067656340223
115	0xbfb678719773428f	-0.08777532527461517
116	0xbfa4c24b06d5daa0	-0.04054483850898305
117	0x3fc9c390aeae164e	0.20128067521379694
118	0x3fa35e8767e775bd	0.03783057349549377
119	0xbf953049ec21ff36	-0.02069201949825513
120	0x3faffba80ddba9df	0.06246686143079549
121	0xbf9301cfb8e80043	-0.018561597500593285
122	0xbfb450432cdd15f4	-0.0793497070818246
123	0xbfac16844e282cfa	-0.05485928968490757
124	0xbfc11a1f868bb05b	-0.13360971517193118
125	0xbfaa2587ac50b824	-0.05106758097132083
126	0x3f828a0f9765c120	0.009052392776283613
127	0xbfb7ba10f9a103ce	-0.09268289656121384
128	0x3fcd1c88abc6bbf7	0.2274332846404545
129	0xbf9a46f16d15c487	-0.025661251338025905
130	0xbfc081eb40db753d	-0.12896481196268353
131	0xbfb5e31a8ba83977	-0.0854965773544104
132	0xbfca688bb847ca19	-0.20631548402850866
133	0x3fb811d6846dadfa	0.09402218564144241
134	0xbfab5123492bc893	-0.05335340755654374
135	0x3fb278130bbd6e47	0.0721446899091741
136	0x3fafb6465dcd15a5	0.061937521887141224
137	0xbfa078aa160906d2	-0.03217059630379783
138	0xbfc7adf35de526b1	-0.18499605259630905
139	0xbf9bfc773e09e926	-0.027330268060247985
140	0xbfca13d56019fd95	-0.20373027031380944
141	0x3fb2d13ff6efb723	0.07350539950104155
142	0xbfbda1abd827542b	-0.11574815776050744
143	0x3fb0ff2b65cf9517	0.06639357791535293
144	0xbf9a1a7b489c7beb	-0.025491644198265034
145	0x3fb1d04abcdbf749	0.06958453284093226
146	0x3f9dc8aa4993c607	0.029085789433287015
147	0xbf8fcf883bf8e09f	-0.015532554941373454
148	0xbfa48c972c009f6a	-0.04013512050761288
149	0xbfb9dbb72b840e39	-0.1010088425865029
150	0x3fa83f5d023d4a49	0.047358423732152995
151	0xbfc0e1a7a9912fb4	-0.13188644199032995
152	0xbf7aab0e2e74ef97	-0.006510787388204784
153	0xbf90966de5d851e6	-0.016198842195153683
154	0xbfb7db1adf8b5ef7	-0.09318702657344234
155	0x3fb4e6570c679eef	0.08163970997668078
156	0xbf74557d71cfa144	-0.004964342134350656
157	0xbfaa6467079f1a98	-0.051547259979590254
158	0x3fa7287a7169b97c	0.045230699867590624
159	0xbfd071b7d374fce7	-0.25694080019088833
160	0x3fb2aea64b7b5d91	0.07297744124240625
161	0xbfa325435259c5b8	-0.03739366894013635
162	0x3fb76ff809f9743b	0.0915522598601947
163	0xbf729859671dcea9	-0.0045398227974719286
164	0x3f914c1599f10b53	0.016891801377151804
165	0x3f9c770327935cc1	0.027797745981698044
166	0x3fbebea58d268041	0.12009653755240014
167	0xbf79945573371f34	-0.006244977750107062
168	0x3f718c5807e71fb8	0.004284232969844419
169	0x3fa62cc0489e767f	0.04331017385923718
170	0x3fc4e4a18230d975	0.16322726113294164
171	0xbfb01a303e3cc226	-0.06289960402933356
172	0x3f92399ad17621e4	0.017797869715225803
173	0x3fb2a23191193868	0.07278737823910009
174	0xbfb374a86027e604	-0.07599880549960153
175	0xbfd391990cba28fd	-0.30576158755196997
176	0x3fc126105e66f9af	0.13397411927685485
177	0x3f93d85472eb869b	0.019379920496140995
178	0x3faca8aefd741844	0.05597445339121568
179	0xbfb4c63831c79662	-0.08114958968470767
180	0x3fb3e1f87d59ce2f	0.0776667886764748
181	0xbf7b10890a11effd	-0.006607566175372168
182	0x3fb37bbb60ef3f4a	0.07610674969259637
183	0x3fa02a9111bf6102	0.03157475797314825
184	0x3fb6bd6db8b2a633	0.08882795104241197
185	0xbfb140c72c1e3be1	-0.0673946840963562
186	0xbf901f9106ab8d99	-0.01574541667186011
187	0xbfc280ed5e3eaa7a	-0.1445595464877732
188	0x3fc79f215af45e32	0.18454377118244875
189	0xbfa976719e4b38cd	-0.04973177964494511
190	0xbfb712f5592bcf58	-0.09013303210286716
191	0x3f96b726b9876964	0.022183041642941062
192	0xbfb00e41f03800dd	-0.06271755327907465
193	0x3fceeef843e73f98	0.24166777911750326
194	0x3faa6cd0ae7098d9	0.051611443799900854
195	0xbfb342bacb9f268d	-0.0752369639514205
196	0xbfb2bfc193771df1	-0.07323846674182001
197	0x3fb1deccc610410e	0.06980590663465966
198	0xbfa96c6d76652a96	-0.049655361845528365
199	0x3faf86d08879a73d	0.06157542863804941
200	0x3fa968971ba35a5c	0.04962608539942856
201	0x3fa8c4befbf182e8	0.04837605309945109
202	0xbfb9a6f62975b4e5	-0.10020388138009968
203	0xbf74dba04172976f	-0.005092264174128987
204	0xbfcf1e3d4ae03eb4	-0.24311033397724702
205	0xbfbf5a337cad1d19	-0.12247010988095432
206	0xbf9a0749674244bc	-0.02541842167608331
207	0xbfbfe9bf42d59a69	-0.12466044789980803
208	0x3fa2f1c0c63becba	0.037000679205414014
209	0xbfa12a5fbc6d0cba	-0.0335264127266099
210	0xbf988c2d0a250d98	-0.023972228759942732
211	0x3faffca6bc1b28c8	0.06247445150582248
212	0xbfb2cdac60000000	-0.07345082610845566
213	0x3f7bb2abbf2f1ad0	0.006762190710054752
214	0xbfa5ca3a9dcdb730	-0.042558509600765126
215	0x3fbb907efc811440	0.10767358460096066
216	0x3fb87d6a36f59d27	0.09566367952139797
217	0x3f623240d229623e	0.002221228221327003
218	0x3f8d89766c4df581	0.014422345333282351
219	0x3fb55deaff17e2c4	0.08346432426322808
220	0xbfc5a7489e3acdbe	-0.16916759229716932
221	0xbfb5f77fa1be52c3	-0.08580777834715562
222	0x3fae10f2b896a21f	0.058723053963437126
223	0x3fc5eff4b360240b	0.1713853717667749
224	0xbf8bc0f65e9f85db	-0.013551640284222557
225	0xbfb0425bac3e7674	-0.06351254420447977
226	0xbfb08853dd8156fc	-0.06458019407122245
227	0x3fb1274bf3c510d1	0.06700586987887226
228	0x3fc45bb1f6788c14	0.1590483144255762
229	0xbfa7824809796aad	-0.045915843159226234
230	0x3fa7915b421dd58f	0.0460308569153468
231	0xbfc0c8b1dfe38baf	-0.13112471992562066
232	0xbf8d83c55ce55f6c	-0.014411489388905095
233	0xbfb1eeea40bb276e	-0.07005180435512923
234	0xbfc111994df1c01a	-0.1333495741450868
235	0xbfa464a798462123	-0.03983043416798384
236	0x3fbbdee837a52089	0.1088700424053305
237	0xbfb6ac7e53f5e62c	-0.08856954145257906
238	0x3fa7652d3f720a0a	0.045693792338188
239	0x3fb3fb43ace8d5e1	0.07805273982452078
240	0x3fb8cf50b84cf504	0.09691338061835003
241	0xbfa6711ee920336f	-0.043831792791116146
242	0x3fa8f85750c28ffd	0.048769692047500236
243	0x3fbe5d6aca87baa0	0.11861293263039352
244	0x3f7aa9d1226ef02f	0.00650960629621626
245	0xbfa9ef68c12b776c	-0.050654672222420455
246	0x3f849fdbb9a56dd3	0.010070530512783648
247	0xbf8acde0d3622934	-0.013087994051848108
248	0x3fc2f61ea2110f99	0.14813597596559872
249	0x3fc8d8bbaab6c155	0.19411416850699462
250	0x3f74ea8c000f2024	0.005106493831540635
251	0x3fb2d2ce85511752	0.07352915530017626
252	0xbfadfd9e85dfbf6b	-0.058575586168329995
253	0xbf968fe52bccf458	-0.022033291624428436
254	0x3fc15cf82fc270e3	0.13564970333107515
255	0xbfba66bbdc0b6cb6	-0.10313009378608026

bias f8 [128]
0	0xbfb215be24409f59	-0.07064426789349677
1	0x3f8f9d57c623fcd8	0.01543682645251325
2	0x3fa8730ab68f6e13	0.0477526996471306
3	0x3fb91b7bcbf34cb4	0.09807561616189525
4	0xbfb3ace9993366d6	-0.07685718527082072
5	0x3f29a336830a9645	0.00019559898784853223
6	0x3faf18d69583f450	0.06073637557162981
7	0xbfc51bfbca251c84	-0.1649164902721375
8	0xbfb1358f3347eb5a	-0.06722350122428847
9	0x3f95dfd007c47784	0.021361589883887713
10	0x3f7a1bea4807eaa1	0.006374278222660707
11	0xbfc2e6c9c1bafd1f	-0.14766809424870872
12	0x3fa4a0ed40eaeeba	0.040290273832821424
13	0xbf94baf925ac4efd	-0.0202444962734054
14	0xbfbcd799f9a3ba45	-0.1126648172828278
15	0xbfbf71b905fef1e6	-0.12282902141937022
16	0x3f990c1ad253b0f7	0.024460238540016523
17	0x3fb6c448cf8e5d7b	0.08893256251609742
18	0x3fb236ee63f5981f	0.07115068378843191
19	0xbfb89df2fcca2691	-0.09616011306402529
20	0xbfbea6831f060fbc	-0.1197282744161034
21	0xbfb2d8c713bcb03f	-0.07362026435720369
22	0xbfa33864191c91d2	-0.03753960424936377
23	0xbfb87df8bcca721c	-0.09567217454100113
24	0x3f9c8b846ffa613d	0.027875966391179608
25	0xbfa796ff53b6a219	-0.046073893517420035
26	0x3fb4cda531b08dbd	0.0812628980934766
27	0xbf8c4278ecedfed7	-0.013798660974998196
28	0x3fa4b5540ed62e78	0.0404459255324498
29	0xbfc13d07a01eae1a	-0.13467498129226457
30	0x3f520896783b7055	0.0011006802969211378
31	0x3fa5c944fa6fbe26	0.0425511890133488
32	0xbfc245f56b7f0b0c	-0.14275996922341283
33	0xbfa085df10d8bef6	-0.0322713573517585
34	0xbfa73154bef9e79e	-0.04529824095966649
35	0xbfb7217fc5db62fe	-0.0903549058961168
36	0x3fc4608bb478fc81	0.15919634163035215
37	0x3fa2c3a1bf88fc23	0.03664880240511816
38	0xbfacd0958a7de472	-0.0562788707310994
39	0xbfa4d55d863d3939	-0.04069034827863267
40	0xbfa57de8e87f1bcf	-0.04197624052135717
41	0x3f9dd863fd867167	0.029145777081440196
42	0x3fb4113f17f48ffa	0.07838816008421637
43	0xbfa3294a9156e0f4	-0.037424402467367474
44	0xbfb187f6bac21469	-0.06848089274906645
45	0xbf9ecf1405e0638d	-0.03008681569926668
46	0xbfa9807b3df51963	-0.049808360398446515
47	0xbf93007bd85c070e	-0.018556532936606245
48	0xbfa0bf9d12b1b6d0	-0.03271189549637443
49	0xbfbbf197e0d7c2ba	-0.10915517081572093
50	0xbfb023798717ecbe	-0.06304130123310167
51	0x3f9bb82f7555aa97	0.027069798981225714
52	0xbf7ace8e626f9679	-0.006544643582832793
53	0xbfa2b1959f1e1246	-0.03651111190177807
54	0xbfb28e492f1f25ab	-0.07248361015731201
55	0xbfac505736a9282a	-0.055300450727898756
56	0xbfb3130399e7665a	-0.07450888163966721
57	0xbfa6bc4c055509bf	-0.04440534176912391
58	0x3fba8bdf09b64d20	0.10369676577675024
59	0xbfc04f6f1ce66d2f	-0.12742413436067454
60	0xbf9386cf0cd60481	-0.019068942221114774
61	0x3f9a93f4b80a2894	0.02595503209389756
62	0xbfaef2dfcd40e16e	-0.060446733289100205
63	0xbfb165eb4df30112	-0.0679614129358053
64	0xbfa32460aa573f9a	-0.03738691405635493
65	0x3fc0f0eee6016801	0.13235269766556715
66	0xbf9f17b2520dc895	-0.030363832719964085
67	0x3f93f253f296839a	0.019479095155137217
68	0xbfb78fd376a4da27	-0.09203836103993322
69	0xbfa1258a820f6ff6	-0.03348954045915768
70	0xbfc12592ce007f10	-0.13395915087402743
71	0xbfb23e994d3d7ba1	-0.07126768241640359
72	0xbfb5521e6d2888ca	-0.08328428425787418
73	0xbfb4901c5b47859f	-0.08032395580769112
74	0x3fc084e971505fd6	0.1290561488428909
75	0xbfa62cbf37174ccb	-0.04331014201638935
76	0xbfaa45095ea3b489	-0.051307957461042504
77	0xbfb1627a2e540828	-0.06790889388142374
78	0x3faa73bdf7459caf	0.05166429179626541
79	0xbfa99266bd636b7c	-0.04994507848615279
80	0x3fa3a00e9e357c40	0.0383305137754566
81	0x3fb9bfa55fbfdbf5	0.10058053577073152
82	0xbf90b19c0569074f	-0.016302526312080897
83	0x3fbb5b20208ccf6b	0.10685921473196706
84	0xbfb6689e263e68e8	-0.08753384050070034
85	0xbf93927f1e499f4d	-0.019113527511222462
86	0x3f98e333a423b36e	0.024304205792691595
87	0x3fa1a0e712d02a72	0.0344307146516102
88	0xbfa941e4a1f21a97	-0.04933084942699855
89	0x3fba323e7c743dd4	0.10232916391782193
90	0xbfc314c08403a462	-0.14907080122000865
91	0x3fb0924d8a9c2278	0.06473240503340516
92	0xbf98b7ad3f80bf5f	-0.02413817119685235
93	0x3f97e99358f84c7a	0.023351957612316877
94	0xbfb413bb245de33c	-0.07842607152805398
95	0xbfb8fc9c4e3a9a72	-0.09760453138242456
96	0xbfa0ff307b3f19f9	-0.033196940464723164
97	0x3fac2b620b99b269	0.05501848594289955
98	0xbf892bee19a52297	-0.012290821225762456
99	0xbf9a5fb234bceca5	-0.02575567671668168
100	0x3f5cee061dc66b8f	0.001765733693082725
101	0x3fb4db01e93f9938	0.08146678871671476
102	0xbfc30327bad1a591	-0.14853378889101213
103	0x3fafcd5bc33c5d7a	0.062113635618682175
104	0xbfa5631acfc5c04e	-0.04177173410687428
105	0xbfba53ac70ff97bc	-0.10283925780058117
106	0xbfa1b00ce4523cd5	-0.03454628264545937
107	0xbfb6baf4d77f2d2b	-0.08879022847320488
108	0xbfae4379f87d07e5	-0.05910855444245992
109	0x3fc7b9819d66c960	0.18534870324726693
110	0xbf98ae2b55beaccb	-0.024101903065155732
111	0xbfc16a63de81c435	-0.13605926861376508
112	0xbf9bead40dd1a30c	-0.02726298651069485
113	0xbfada9001e3d5651	-0.05792999619613382
114	0x3fa5eaa90b9f2ba4	0.04280594126574691
115	0xbfbfaa8dfcafc397	-0.12369620722871698
116	0xbfa39b8fa4b25ac8	-0.03829621205766426
117	0x3facf5c0c301cd9f	0.05656244640786245
118	0x3fa10d0138535e59	0.033302343488398285
119	0x3f911f76658c9426	0.016721582363192898
120	0x3fb615cd08733234	0.08627015548990685
121	0x3f9a92b8aa452cf6	0.02595032252547199
122	0xbfb2c8aaf5fd0464	-0.07337444787573727
123	0x3fc0b484250976b3	0.13050891693540265
124	0xbfa3be99aedfd1c8	-0.03856354007431012
125	0xbfacfe72862c5a9b	-0.05662877929551265
126	0xbf95bb690b9d4443	-0.021222726186639795
127	0x3fb053bcbcc0eaf8	0.06377772911302404
