result/IMDBMulti/N2Gim/sum_none_pGinFalse_woNodeattFalse_woGraphattFalse/2022-09-10_16-48-56/final_0.pt (torch, 281822 bytes, 36 tensors)

weight f4 [64, 64]
1.0 0.0 0.0 0.0 0.0 0.0 1.7513e-40 0.0
0.0 0.0 0.0 0.0 0.0 0.0 0.0 0.0
0.0 0.0 0.0 0.0 0.0 0.0 0.0 0.0
0.0 0.0 0.0 0.0 0.0 0.0 0.0 0.0
0.0 0.0 0.0 0.0 0.0 0.0 0.0 0.0
0.0 0.0 0.0 0.0 0.0 0.0 0.0 0.0
0.0 0.0 0.0 0.0 0.0 0.0 0.0 0.0
0.0 0.0 0.0 0.0 0.0 0.0 0.0 0.0
0.0 0.0 0.0 0.0 0.0 0.0 0.0 0.0
0.0 0.0 0.0 0.0 0.0 0.0 0.0 0.0
0.0 0.0 0.0 0.0 0.0 0.0 0.0 0.0
0.0 0.0 0.0 0.0 0.0 1.0 0.0 0.0
0.0 0.0 0.0 0.0 0.0 0.0 0.0 0.0
0.0 0.0 0.0 0.0 0.0 0.0 0.0 0.0
0.0 0.0 0.0 0.0 0.0 0.0 0.0 0.0
0.0 0.0 0.0 0.0 0.0 0.0 0.0 0.0
0.0 0.0 0.0 0.0 0.0 0.0 0.0 0.0
0.0 0.0 0.0 0.0 0.0 0.0 0.0 0.0
0.0 0.0 0.0 0.0 0.0 0.0 0.0 0.0
0.0 0.0 0.0 0.0 0.0 0.0 0.0 0.0
0.0 0.0 0.0 0.0 0.0 0.0 0.0 0.0
0.0 0.0 0.0 0.0 0.0 0.0 0.0 0.0
0.0 0.0 1.0 0.0 0.0 0.0 0.0 0.0
0.0 0.0 0.0 0.0 0.0 0.0 0.0 0.0
0.0 0.0 0.0 0.0 0.0 0.0 0.0 0.0
0.0 0.0 0.0 0.0 0.0 0.0 0.0 0.0
0.0 0.0 0.0 0.0 0.0 0.0 0.0 0.0
0.0 0.0 0.0 0.0 0.0 0.0 0.0 0.0
0.0 0.0 0.0 0.0 0.0 0.0 0.0 0.0
0.0 0.0 0.0 0.0 0.0 0.0 0.0 0.0
0.0 0.0 0.0 0.0 0.0 0.0 0.0 0.0
0.0 0.0 0.0 0.0 0.0 0.0 0.0 0.0
00000000: 0000 803f 0000 0000 0000 0000 0000 0000
00000010: 0000 0000 0000 0000 31e8 0100 0000 0000
00000020: 0000 0000 0000 0000 0000 0000 0000 0000
00000030: 0000 0000 0000 0000 0000 0000 0000 0000
00000040: 0000 0000 0000 0000 0000 0000 0000 0000
00000050: 0000 0000 0000 0000 0000 0000 0000 0000
00000060: 0000 0000 0000 0000 0000 0000 0000 0000
00000070: 0000 0000 0000 0000 0000 0000 0000 0000
00000080: 0000 0000 0000 0000 0000 0000 0000 0000
00000090: 0000 0000 0000 0000 0000 0000 0000 0000
000000a0: 0000 0000 0000 0000 0000 0000 0000 0000
000000b0: 0000 0000 0000 0000 0000 0000 0000 0000
000000c0: 0000 0000 0000 0000 0000 0000 0000 0000
000000d0: 0000 0000 0000 0000 0000 0000 0000 0000
000000e0: 0000 0000 0000 0000 0000 0000 0000 0000
000000f0: 0000 0000 0000 0000 0000 0000 0000 0000
00000100: 0000 0000 0000 0000 0000 0000 0000 0000
00000110: 0000 0000 0000 0000 0000 0000 0000 0000
00000120: 0000 0000 0000 0000 0000 0000 0000 0000
00000130: 0000 0000 0000 0000 0000 0000 0000 0000
00000140: 0000 0000 0000 0000 0000 0000 0000 0000
00000150: 0000 0000 0000 0000 0000 0000 0000 0000
00000160: 0000 0000 0000 0000 0000 0000 0000 0000
00000170: 0000 0000 0000 803f 0000 0000 0000 0000
00000180: 0000 0000 0000 0000 0000 0000 0000 0000
00000190: 0000 0000 0000 0000 0000 0000 0000 0000
000001a0: 0000 0000 0000 0000 0000 0000 0000 0000
000001b0: 0000 0000 0000 0000 0000 0000 0000 0000
000001c0: 0000 0000 0000 0000 0000 0000 0000 0000
000001d0: 0000 0000 0000 0000 0000 0000 0000 0000
000001e0: 0000 0000 0000 0000 0000 0000 0000 0000
000001f0: 0000 0000 0000 0000 0000 0000 0000 0000
00000200: 0000 0000 0000 0000 0000 0000 0000 0000
00000210: 0000 0000 0000 0000 0000 0000 0000 0000
00000220: 0000 0000 0000 0000 0000 0000 0000 0000
00000230: 0000 0000 0000 0000 0000 0000 0000 0000
00000240: 0000 0000 0000 0000 0000 0000 0000 0000
00000250: 0000 0000 0000 0000 0000 0000 0000 0000
00000260: 0000 0000 0000 0000 0000 0000 0000 0000
00000270: 0000 0000 0000 0000 0000 0000 0000 0000
00000280: 0000 0000 0000 0000 0000 0000 0000 0000
00000290: 0000 0000 0000 0000 0000 0000 0000 0000
000002a0: 0000 0000 0000 0000 0000 0000 0000 0000
000002b0: 0000 0000 0000 0000 0000 0000 0000 0000
000002c0: 0000 0000 0000 0000 0000 803f 0000 0000
000002d0: 0000 0000 0000 0000 0000 0000 0000 0000
000002e0: 0000 0000 0000 0000 0000 0000 0000 0000
000002f0: 0000 0000 0000 0000 0000 0000 0000 0000
00000300: 0000 0000 0000 0000 0000 0000 0000 0000
00000310: 0000 0000 0000 0000 0000 0000 0000 0000
00000320: 0000 0000 0000 0000 0000 0000 0000 0000
00000330: 0000 0000 0000 0000 0000 0000 0000 0000
00000340: 0000 0000 0000 0000 0000 0000 0000 0000
00000350: 0000 0000 0000 0000 0000 0000 0000 0000
00000360: 0000 0000 0000 0000 0000 0000 0000 0000
00000370: 0000 0000 0000 0000 0000 0000 0000 0000
00000380: 0000 0000 0000 0000 0000 0000 0000 0000
00000390: 0000 0000 0000 0000 0000 0000 0000 0000
000003a0: 0000 0000 0000 0000 0000 0000 0000 0000
000003b0: 0000 0000 0000 0000 0000 0000 0000 0000
000003c0: 0000 0000 0000 0000 0000 0000 0000 0000
000003d0: 0000 0000 0000 0000 0000 0000 0000 0000
000003e0: 0000 0000 0000 0000 0000 0000 0000 0000
000003f0: 0000 0000 0000 0000 0000 0000 0000 0000

bias f4 [64, 64]
0.0 0.0 1.52104e-40 0.0 0.0 0.0 0.0 0.0
0.0 0.0 0.0 0.0 0.0 0.0 0.0 0.0
0.0 0.0 0.0 0.0 0.0 0.0 0.0 0.0
0.0 0.0 0.0 0.0 0.0 0.0 0.0 0.0
0.0 0.0 0.0 0.0 0.0 0.0 0.0 0.0
0.0 0.0 0.0 0.0 0.0 0.0 0.0 0.0
0.0 0.0 0.0 0.0 0.0 0.0 0.0 0.0
0.0 0.0 0.0 0.0 0.0 0.0 0.0 0.0
0.0 0.0 0.0 0.0 0.0 0.0 0.0 0.0
0.0 0.0 0.0 0.0 0.0 0.0 0.0 0.0
0.0 0.0 0.0 0.0 0.0 0.0 0.0 0.0
0.0 0.0 0.0 0.0 0.0 0.0 0.0 0.0
0.0 0.0 0.0 0.0 0.0 0.0 0.0 0.0
0.0 0.0 0.0 0.0 0.0 0.0 0.0 0.0
0.0 0.0 0.0 0.0 0.0 0.0 0.0 0.0
0.0 0.0 0.0 0.0 0.0 0.0 0.0 0.0
0.0 0.0 0.0 0.0 0.0 0.0 0.0 0.0
0.0 0.0 0.0 0.0 0.0 0.0 0.0 0.0
0.0 0.0 0.0 0.0 0.0 0.0 0.0 0.0
0.0 0.0 0.0 0.0 0.0 0.0 0.0 0.0
0.0 0.0 0.0 0.0 0.0 0.0 0.0 0.0
0.0 0.0 0.0 0.0 0.0 0.0 0.0 0.0
0.0 0.0 0.0 0.0 0.0 0.0 0.0 0.0
0.0 0.0 0.0 0.0 0.0 0.0 0.0 0.0
0.0 0.0 0.0 0.0 0.0 0.0 0.0 0.0
0.0 0.0 0.0 0.0 0.0 0.0 0.0 0.0
0.0 0.0 0.0 0.0 0.0 0.0 0.0 0.0
0.0 0.0 0.0 0.0 0.0 0.0 0.0 0.0
0.0 0.0 0.0 0.0 0.0 0.0 0.0 0.0
0.0 0.0 0.0 0.0 0.0 0.0 0.0 0.0
0.0 0.0 0.0 0.0 0.0 0.0 0.0 0.0
0.0 0.0 0.0 0.0 0.0 0.0 0.0 0.0
00000000: 0000 0000 0000 0000 01a8 0100 0000 0000
00000010: 0000 0000 0000 0000 0000 0000 0000 0000
00000020: 0000 0000 0000 0000 0000 0000 0000 0000
00000030: 0000 0000 0000 0000 0000 0000 0000 0000
00000040: 0000 0000 0000 0000 0000 0000 0000 0000
00000050: 0000 0000 0000 0000 0000 0000 0000 0000
00000060: 0000 0000 0000 0000 0000 0000 0000 0000
00000070: 0000 0000 0000 0000 0000 0000 0000 0000
00000080: 0000 0000 0000 0000 0000 0000 0000 0000
00000090: 0000 0000 0000 0000 0000 0000 0000 0000
000000a0: 0000 0000 0000 0000 0000 0000 0000 0000
000000b0: 0000 0000 0000 0000 0000 0000 0000 0000
000000c0: 0000 0000 0000 0000 0000 0000 0000 0000
000000d0: 0000 0000 0000 0000 0000 0000 0000 0000
000000e0: 0000 0000 0000 0000 0000 0000 0000 0000
000000f0: 0000 0000 0000 0000 0000 0000 0000 0000
00000100: 0000 0000 0000 0000 0000 0000 0000 0000
00000110: 0000 0000 0000 0000 0000 0000 0000 0000
00000120: 0000 0000 0000 0000 0000 0000 0000 0000
00000130: 0000 0000 0000 0000 0000 0000 0000 0000
00000140: 0000 0000 0000 0000 0000 0000 0000 0000
00000150: 0000 0000 0000 0000 0000 0000 0000 0000
00000160: 0000 0000 0000 0000 0000 0000 0000 0000
00000170: 0000 0000 0000 0000 0000 0000 0000 0000
00000180: 0000 0000 0000 0000 0000 0000 0000 0000
00000190: 0000 0000 0000 0000 0000 0000 0000 0000
000001a0: 0000 0000 0000 0000 0000 0000 0000 0000
000001b0: 0000 0000 0000 0000 0000 0000 0000 0000
000001c0: 0000 0000 0000 0000 0000 0000 0000 0000
000001d0: 0000 0000 0000 0000 0000 0000 0000 0000
000001e0: 0000 0000 0000 0000 0000 0000 0000 0000
000001f0: 0000 0000 0000 0000 0000 0000 0000 0000
00000200: 0000 0000 0000 0000 0000 0000 0000 0000
00000210: 0000 0000 0000 0000 0000 0000 0000 0000
00000220: 0000 0000 0000 0000 0000 0000 0000 0000
00000230: 0000 0000 0000 0000 0000 0000 0000 0000
00000240: 0000 0000 0000 0000 0000 0000 0000 0000
00000250: 0000 0000 0000 0000 0000 0000 0000 0000
00000260: 0000 0000 0000 0000 0000 0000 0000 0000
00000270: 0000 0000 0000 0000 0000 0000 0000 0000
00000280: 0000 0000 0000 0000 0000 0000 0000 0000
00000290: 0000 0000 0000 0000 0000 0000 0000 0000
000002a0: 0000 0000 0000 0000 0000 0000 0000 0000
000002b0: 0000 0000 0000 0000 0000 0000 0000 0000
000002c0: 0000 0000 0000 0000 0000 0000 0000 0000
000002d0: 0000 0000 0000 0000 0000 0000 0000 0000
000002e0: 0000 0000 0000 0000 0000 0000 0000 0000
000002f0: 0000 0000 0000 0000 0000 0000 0000 0000
00000300: 0000 0000 0000 0000 0000 0000 0000 0000
00000310: 0000 0000 0000 0000 0000 0000 0000 0000
00000320: 0000 0000 0000 0000 0000 0000 0000 0000
00000330: 0000 0000 0000 0000 0000 0000 0000 0000
00000340: 0000 0000 0000 0000 0000 0000 0000 0000
00000350: 0000 0000 0000 0000 0000 0000 0000 0000
00000360: 0000 0000 0000 0000 0000 0000 0000 0000
00000370: 0000 0000 0000 0000 0000 0000 0000 0000
00000380: 0000 0000 0000 0000 0000 0000 0000 0000
00000390: 0000 0000 0000 0000 0000 0000 0000 0000
000003a0: 0000 0000 0000 0000 0000 0000 0000 0000
000003b0: 0000 0000 0000 0000 0000 0000 0000 0000
000003c0: 0000 0000 0000 0000 0000 0000 0000 0000
000003d0: 0000 0000 0000 0000 0000 0000 0000 0000
000003e0: 0000 0000 0000 0000 0000 0000 0000 0000
000003f0: 0000 0000 0000 0000 0000 0000 0000 0000

weight f4 [64, 64]
0.31944364 -0.092334785 0.6116993 -0.06402098 0.32453817 0.08862154 -0.084436364 0.025586063
0.11821782 -0.10173304 -0.05583451 -0.18170823 0.27283168 -0.16111363 0.05545773 0.19855294
0.032852992 -0.32816017 -0.20203237 -0.4530719 -0.1579476 -0.09044338 0.06715551 0.1765682
-0.18241829 0.19332807 -0.20192732 0.17680752 0.08844959 0.08605812 -0.4172853 0.03150439
-0.12207537 -1.06803 0.2703872 0.56763124 -0.1178276 -0.08992264 0.38533968 -0.25229046
-0.3756893 0.098525405 -0.019450868 0.10142098 0.31991374 -0.12560873 -0.025923343 0.15695651
0.13667087 0.61498725 0.27542263 0.056702454 0.056999803 -0.23937275 0.25402433 0.063256785
-0.21227244 0.18423502 0.028683865 0.045080524 -0.14903252 -0.6644815 -0.039350793 -0.125344
0.023829903 -0.06067781 -0.27616575 -0.039794404 0.23545673 -0.041899104 -0.076018736 -0.032190423
-0.0024205006 0.25190556 0.17180608 0.14131214 -0.31831056 -0.32443628 -0.35433438 0.21937303
-0.04794031 -0.0800284 0.27569753 0.16595018 -0.24665166 0.29885074 0.11212722 -0.14069629
-0.11772744 0.018156005 0.53826135 0.066546455 0.10408658 0.29632542 0.02476767 0.11310325
-0.44084334 -0.13920075 0.059169274 -0.18730964 -0.021562465 -0.28525162 -0.24479896 0.055705838
-0.19451968 -0.27739337 0.3230929 0.34288952 -0.321145 0.062275726 -0.048128724 -0.002115185
-0.10473711 -0.14366922 -0.0052880165 0.008396736 -0.06236116 -0.0003970963 -0.14017056 0.21208458
0.20664649 -0.16010621 0.24193223 0.08476226 0.19380999 -0.14982574 -0.091550656 0.090563476
0.38200477 -0.59558386 0.25668174 -0.26202384 -0.32544628 0.30760306 -0.021015782 0.40790316
-0.09546651 0.018966585 0.023070084 0.100406155 0.092297204 0.56253564 0.30530816 0.4186167
0.29158574 0.09693278 -0.32966962 -0.2480942 -0.97861725 0.41922575 -0.4779841 -0.3979018
0.38950184 0.015652481 0.03957922 0.0553131 0.19596195 0.4247547 -0.18076251 0.28493518
-0.1736963 -0.38100898 -0.5012254 -0.25147653 -0.010845133 0.2646567 0.13747379 0.038547043
0.21433194 -0.16610579 0.13020259 0.0482077 -0.036181048 -0.37496105 0.44019714 -0.09154105
0.05680912 0.13291687 -0.62035614 -0.901623 -0.36308545 -0.033836693 0.37978664 0.10831813
0.12458845 0.03470967 -0.14866884 -0.18399237 0.004073187 -0.47419986 -0.30841702 0.22480321
0.02966782 0.033534277 -0.30519786 0.22601229 0.10954094 -0.7243492 0.10556635 0.31275773
-0.163673 -0.026071856 0.20008515 -0.08983204 -0.16155422 0.097555 0.18309979 -0.07284377
-0.05630997 0.19743776 0.12339028 -0.10602714 -0.16350107 -0.059764493 0.13914339 0.19504756
0.36645755 0.30676118 0.2178844 -0.122900315 0.014218524 0.039649554 -0.14258012 0.009070682
0.27731258 -0.27831608 0.23787583 0.047940526 0.08513473 0.014806272 0.093256 -0.21852614
-0.42969075 0.06956281 0.12721138 -0.07945502 0.16668676 0.03187616 0.27136165 0.24704097
0.014556124 -0.030977039 0.106570244 0.09812125 0.10844458 -0.036725122 0.08141769 0.0732503
-0.25572696 -0.60070664 0.5044249 0.15665969 -0.03949547 0.10745992 -1.0114721 0.33119878
00000000: 1e8e a33e 051a bdbd 5398 1c3f 6e1d 83bd
00000010: de29 a63e 367f b53d f9ec acbd dd99 d13c
00000020: 2f1c f23d 6959 d0bd bab2 64bd b911 3abe
00000030: 98b0 8b3e f9fa 24be a527 633d 7651 4b3e
00000040: dc90 063d 9c04 a8be 93e1 4ebe 0af9 e7be
00000050: 04bd 21be 613a b9bd d488 893d 4bce 343e
00000060: dccb 3abe cbf7 453e 09c6 4ebe 080d 353e
00000070: 0f25 b53d 3d3f b03d 6ba6 d5be bf0a 013d
00000080: a702 fabd 35b5 88bf 3170 8a3e 4850 113f
00000090: 994f f1bd 5c29 b8bd 3e4b c53e 372c 81be
000000a0: 595a c0be b0c7 c93d 6d57 9fbc ceb5 cf3d
000000b0: bccb a33e 939f 00be 315d d4bc 35b9 203e
000000c0: 73f3 0b3e ce6f 1d3f 3204 8d3e d540 683d
000000d0: a078 693d 211e 75be 7a0f 823e c68c 813d
000000e0: f25d 59be 1ba8 3c3e 6dfa ea3c 5ba6 383d
000000f0: fb9b 18be 761b 2abf 4c2e 21bd 2d5a 00be
00000100: ee36 c33c 4c89 78bd 9965 8dbe 75ff 22bd
00000110: 921b 713e 659e 2bbd b6af 9bbd 1bda 03bd
00000120: 43a1 1ebb c4f9 803e efed 2f3e 21b4 103e
00000130: 9af9 a2be 831c a6be 516b b5be 53a3 603e
00000140: 0f5d 44bd eee5 a3bd 3a28 8d3e d8ee 293e
00000150: 4192 7cbe f702 993e f5a2 e53d b012 10be
00000160: 161b f1bd e7bb 943c 7fcb 093f 8249 883d
00000170: 582b d53d f7b7 973e 92e5 ca3c ada2 e73d
00000180: 38b6 e1be a48a 0ebe 7b5b 723d 19ce 3fbe
00000190: c4a3 b0bc 800c 92be 94ac 7abe ce2b 643d
000001a0: 2b30 47be 8106 8ebe 6f6c a53e 378f af3e
000001b0: 1e6d a4be d514 7f3d a022 45bd ea9e 0abb
000001c0: 6980 d6bd 061e 13be 1947 adbb 7792 093c
000001d0: 6a6e 7fbd 5d31 d0b9 df88 0fbe b32c 593e
000001e0: 239b 533e e2f2 23be 15bd 773e d697 ad3d
000001f0: 2076 463e eb6b 19be e97e bbbd 5879 b93d
00000200: 2196 c33e 2f78 18bf ca6b 833e fd27 86be
00000210: e5a0 a6be 267e 9d3e 4a29 acbc afd8 d03e
00000220: f283 c3bd d05f 9b3c 79fd bc3c bea1 cd3d
00000230: 5106 bd3d 5602 103f 5a51 9c3e ee54 d63e
00000240: ba4a 953e b284 c63d 75ca a8be 680c 7ebe
00000250: a986 7abf c2a4 d63e 55ba f4be c9b9 cbbe
00000260: c96c c73e a239 803c d21d 223d fd8f 623d
00000270: 40aa 483e 7379 d93e cf19 39be 06e3 913e
00000280: 71dd 31be 9c13 c3be 4f50 00bf 88c1 80be
00000290: c9af 31bc 1581 873e eec5 0c3e 81e3 1d3d
000002a0: d579 5b3e a317 2abe d453 053e 7075 453d
000002b0: 9432 14bd e5fa bfbe 8561 e13e e079 bbbd
000002c0: aeb0 683d 5c1b 083e a9cf 1ebf c4d0 66bf
000002d0: 56e6 b9be 5898 0abd 6573 c23e e5d5 dd3d
000002e0: 3b28 ff3d ba2b 0e3d a53c 18be 7f68 3cbe
000002f0: 5e78 853b 53ca f2be d6e8 9dbe d032 663e
00000300: ee09 f33c 3d5b 093d e542 9cbe c46f 673e
00000310: 0057 e03d f36e 39bf 2c33 d83d c821 a03e
00000320: e599 27be a594 d5bc 1fe3 4c3e dcf9 b7bd
00000330: 786e 25be eaca c73d 837e 3b3e 1d2f 95bd
00000340: 48a5 66bd 202d 4a3e 0bb4 fc3d c224 d9bd
00000350: d36c 27be 9dcb 74bd 9b7b 0e3e 8cba 473e
00000360: 53a0 bb3e cd0f 9d3e 171d 5f3e 29b3 fbbd
00000370: d0f4 683c 9267 223d 8600 12be 339d 143c
00000380: eafb 8d3e 727f 8ebe b995 733e 495d 443d
00000390: 1e5b ae3d 0296 723c 00fd be3d 51c5 5fbe
000003a0: 6d00 dcbe f276 8e3d b343 023e 50b9 a2bd
000003b0: efaf 2a3e 9490 023d eaef 8a3e 4ff8 7c3e
000003c0: cf7c 6e3c 8fc3 fdbc 8041 da3d cbf3 c83d
000003d0: 3118 de3d 156d 16bd 51be a63d 4104 963d
000003e0: a5ee 82be e9c7 19bf fe21 013f 666b 203e
000003f0: 00c6 21bd f213 dc3d eb77 81bf e392 a93e

bias f4 [64]
-0.05027799 0.019125585 0.18342608 -0.015979659 0.25989246 -0.19597907 -0.12328625 0.16794796
0.48106647 0.21065648 -0.4642453 0.02857835 0.044807907 0.24330723 0.28821093 -0.2395453
0.31817 0.114027426 0.12468384 -0.19547214 0.08478372 0.33996636 -0.025518836 -0.09806563
0.2713109 0.12258997 -0.6757926 0.87674564 -0.59846365 0.059102025 0.5027477 0.03666716
-0.3229632 -0.2993993 -0.10996559 0.06989675 0.020543661 0.4026288 0.528333 0.25719342
-0.24934894 0.017316082 -0.14432938 0.29989696 0.53016335 -0.07516438 0.21930933 0.73059165
0.1700306 -0.303979 0.063108586 0.32611603 0.57271576 -0.06789234 0.036768727 -0.33126348
0.27095687 0.15254973 -0.108705506 0.051636126 0.29446456 -0.6576856 0.039390936 0.19735801
00000000: 4bf0 4dbd 42ad 9c3c 0cd4 3b3e c6e7 82bc
00000010: a010 853e bdae 48be 807d fcbd 8dfa 2b3e
00000020: 584e f63e 55b6 573e 8fb1 edbe 251d ea3c
00000030: 7f88 373d 8825 793e 6290 933e 5d4b 75be
00000040: 2ee7 a23e 3687 e93d 3e5a ff3d d929 48be
00000050: 16a3 ad3d 1210 ae3e e10c d1bc a2d6 c8bd
00000060: 43e9 8a3e 7310 fb3d be00 2dbf 6772 603f
00000070: ea34 19bf f714 723d 13b4 003f 4e30 163d
00000080: 6f5b a5be dd4a 99be a435 e1bd 0726 8f3d
00000090: 2e4b a83c 5d25 ce3e d540 073f dbae 833e
000000a0: 5455 7fbe 75da 8d3c 15cb 13be 188c 993e
000000b0: c9b8 073f c8ef 99bd a092 603e 0e08 3b3f
000000c0: 801c 2e3e 23a3 9bbe 133f 813d aef8 a63e
000000d0: 809d 123f 240b 8bbd ce9a 163d 5e9b a9be
000000e0: dcba 8a3e ff35 1c3e fea0 debd 6780 533d
000000f0: 0fc4 963e 155e 28bf 6458 213d 3818 4a3e

weight f4 [64, 89]
0.098493315 0.5426163 0.7094322 -0.33565477 0.22421715 0.16360833 0.007821952 0.18866405
-0.234129 0.046534378 0.1608382 -0.5232642 -0.14373784 0.12871912 -0.026744949 -0.6257133
-0.4626683 -0.5605683 -0.49836364 0.15769087 -0.17897303 0.8961702 -0.6181522 -0.2052247
0.7297628 -0.08623676 0.03759766 0.28184238 1.0234914 0.32844275 0.13376024 0.1234792
-0.17082353 -0.15064517 0.13564262 -0.16407901 0.57865685 0.034601722 -0.09914896 -0.6169065
0.0027633891 0.00014729971 1.5899174 -0.10423487 0.034810007 0.7575939 0.03743935 -0.16802697
0.050556302 1.1178707 0.35885367 -0.09562676 0.0664155 0.00999222 0.08860966 -0.010743706
-0.021632701 0.07163842 0.059585385 -0.034226604 0.011103457 0.04764842 -0.24132584 -0.092536315
-0.06564726 -0.012096987 0.07662897 -0.01583112 -0.0070880265 -0.024763511 -0.028468521 -0.09328563
-0.07140498 -0.04691058 -0.077043615 0.046199974 0.08651948 0.0077547124 -0.09918939 -0.010874957
0.040108446 0.018113365 0.07430107 -0.012274146 -0.030326454 0.07324159 0.07359734 -0.0818147
0.07082474 -0.02408854 0.59880763 0.13111754 0.049745418 -0.2632912 -0.12864935 0.13129582
0.3130939 0.075108714 0.122316994 0.11651761 0.055859905 0.47612342 -0.16199553 0.37487656
-0.099379994 -0.39885136 -0.5591107 0.40734345 0.20187855 -0.8719724 -0.16708562 -0.764923
-1.0476153 -0.4588441 -0.2430844 -0.9466937 -0.2947514 -0.31029236 -0.291798 0.09585789
-0.09736941 0.19867477 -0.29368854 -0.6291513 0.21778268 -0.224453 -0.09642204 0.03912127
-0.53514147 -0.08760418 0.003376167 -0.50354624 0.08694305 0.4252696 -0.6698652 -0.063691005
-0.08379001 0.2020092 -0.3509729 -0.07470378 0.10559196 -0.06578304 -0.09222555 -0.067002974
0.030360585 -0.09119223 0.039035525 -0.01900163 0.019930117 0.055005733 -0.010808782 -0.014275378
-0.054578606 0.09077734 -0.009276382 0.056312352 0.15843587 0.06655546 -0.03441059 0.054065894
-0.10010875 0.08365101 0.011499803 -0.06361547 -0.044194553 -0.052272975 0.1686067 0.04405573
0.051274136 0.02286728 -0.06645494 0.07911345 0.022974787 0.017129023 -0.0030515061 0.09449413
-0.007718659 0.061339457 -0.011368033 -0.04696321 0.2130266 0.24911703 0.17031065 0.16767736
-0.0025061576 -0.05121702 -0.019006457 0.015199364 -0.027591094 -0.021769714 0.19304334 -0.457199
-0.12588225 -0.2288942 -0.42224714 -0.6192307 -0.36668962 -0.2792654 -0.91097486 -0.13656163
-0.13685977 -0.92582875 -0.8886637 -0.6227782 -1.0021434 0.2639817 -1.6738652 -1.6295695
-0.41620696 -0.41288567 0.72170895 -0.30246934 -0.22563449 -0.7422261 -0.05036874 -0.91518056
0.04813624 -0.8580591 0.0004750564 -0.09562788 -0.4748352 -0.8640253 -0.593202 -0.68729556
-0.048067536 0.09530346 0.056227185 -0.26527372 -0.04991166 -0.019046256 0.02853447 0.08395703
-0.0076947263 0.028088553 0.043520715 0.02129534 -0.12156139 0.07464095 -0.077691406 -0.0865539
-0.79083973 0.10387932 -0.010245133 0.04433691 0.013051687 0.03487233 -0.06738664 0.061245974
-0.020844445 0.02004618 0.07165174 -0.09527489 -0.056997962 -0.020873507 -0.081583925 -0.07297903
00000000: ddb6 c93d e7e8 0a3f 599d 353f f1da abbe
00000010: 2e99 653e f188 273e a527 003c 2631 413e
00000020: 83bf 6fbe d59a 3e3d c5b2 243e a5f4 05bf
00000030: 0330 13be f2ce 033e 3918 dbbc bf2e 20bf
00000040: dce2 ecbe 6781 0fbf 8529 ffbe b779 213e
00000050: b544 37be 696b 653f 393f 1ebf 6c26 52be
00000060: bcd1 3a3f e69c b0bd 0100 1a3d a54d 903e
00000070: c401 833f a629 a83e 72f8 083e aae2 fc3d
00000080: 5dec 2ebe ba42 1abe e6e5 0a3e 5404 28be
00000090: db22 143f 89ba 0d3d 9c0e cbbd 96ed 1dbf
000000a0: fa19 353b 7774 1a39 6a82 cb3f 1779 d5bd
000000b0: f094 0e3d adf1 413f 015a 193d 430f 2cbe
000000c0: 2014 4f3d 6316 8f3f abbb b73e f6d7 c3bd
000000d0: da04 883d 69b6 233c fb78 b53d 5e06 30bc
000000e0: 1037 b1bc 2ab7 923d ce0f 743d 3231 0cbd
000000f0: 46eb 353c fd2a 433d 1f1e 77be ae83 bdbd
00000100: 1272 86bd 7132 46bc a6ef 9c3d 44b0 81bc
00000110: ad42 e8bb d9dc cabc d136 e9bc 890c bfbd
00000120: c63c 92bd 4f25 40bd 0bc9 9dbd 2f3c 3d3d
00000130: 2031 b13d 3e1b fe3b cf23 cbbd e02c 32bc
00000140: c148 243d 7b62 943c 292b 983d 8019 49bc
00000150: 2f6f f8bc b0ff 953d 34ba 963d 778e a7bd
00000160: 900c 913d 5455 c5bc 754b 193f ad43 063e
00000170: dac1 4b3d 1bce 86be a8bc 03be 6972 063e
00000180: d84d a03e 99d2 993d 5581 fa3d c9a0 ee3d
00000190: 5bcd 643d 73c6 f33e 28e2 25be d2ef bf3e
000001a0: bd87 cbbd 3f36 ccbe e121 0fbf 528f d03e
000001b0: 40b9 4e3e 9539 5fbf 7e18 2bbe fed1 43bf
000001c0: 4218 86bf 9ded eabe 1eeb 78be 855a 72bf
000001d0: a8e9 96be a4de 9ebe 8c66 95be 2451 c43d
000001e0: 9d69 c7bd 6671 4b3e 585e 96be 0f10 21bf
000001f0: 6c02 5f3e 02d7 65be eb78 c5bd a03d 203d
00000200: 08ff 08bf d269 b3bd af42 5d3b 68e8 00bf
00000210: 330f b23d f0bc d93e 497c 2bbf 6e70 82bd
00000220: 199a abbd 80db 4e3e b8b2 b3be 4cfe 98bd
00000230: 9940 d83d 42b9 86bd c0e0 bcbd db38 89bd
00000240: c3b6 f83c fec2 babd b7e3 1f3d 4ea9 9bbc
00000250: 7c44 a33c b14d 613d 5117 31bc 46e3 69bc
00000260: d18d 5fbd 78e9 b93d f7fb 17bc c8a7 663d
00000270: 033d 223e 3b4e 883d 1ef2 0cbd 3374 5d3d
00000280: d105 cdbd 3951 ab3d ab69 3c3c d448 82bd
00000290: 5905 35bd 301c 56bd 3ca7 2c3e c873 343d
000002a0: d404 523d 2954 bb3c 8719 88bd 3c06 a23d
000002b0: 9f35 bc3c 2a52 8c3c c7fb 47bb 2386 c13d
000002c0: ceec fcbb 153f 7b3d fc40 3abc 7f5c 40bd
000002d0: a523 5a3e 8918 7f3e ea65 2e3e 9db3 2b3e
000002e0: 593e 24bb f0c8 51bd 6eb3 9bbc c106 793c
000002f0: b806 e2bc 6656 b2bc 27ad 453e fd15 eabe
00000300: 47e7 00be 3e63 6abe c730 d8be e785 1ebf
00000310: bebe bbbe e0fb 8ebe a635 69bf d0d6 0bbe
00000320: f824 0cbe 1d03 6dbf 777f 63bf 646e 1fbf
00000330: 3c46 80bf 9c28 873e 3741 d6bf bc95 d0bf
00000340: 1419 d5be c065 d3be ebc1 383f 43dd 9abe
00000350: ba0c 67be 8802 3ebf 744f 4ebd 4649 6abf
00000360: 822a 453d c3a9 5bbf fe10 f939 8dd8 c3bd
00000370: 991d f3be c330 5dbf 16dc 17bf 9af2 2fbf
00000380: 77e2 44bd 762e c33d 7a4e 663d f5d1 87be
00000390: 2b70 4cbd e506 9cbc 1fc1 e93c aaf1 ab3d
000003a0: 0b24 fcbb f719 e63c c742 323d 9173 ae3c
000003b0: 2ef5 f8bd 5bdd 983d ac1c 9fbd 2c43 b1bd
000003c0: 7974 4abf aebe d43d 34db 27bc 9f9a 353d
000003d0: bed6 553c 4ad6 0e3d 0202 8abd 0fdd 7a3d
000003e0: f8c1 aabc e337 a43c 26be 923d 7b1f c3bd
000003f0: b276 69bd ebfe aabc 7915 a7bd 0876 95bd

bias f4 [64]
0.024353836 -0.041109566 -0.13712312 -0.037645686 0.15513602 -0.19030799 0.018142909 0.1374002
-0.121967606 0.09525454 0.06518814 0.0006557355 0.04273317 0.058935527 0.06320578 -0.03040651
0.12226117 0.07385269 0.0020174244 -0.031900488 -0.037730373 0.010318766 -0.008121609 -0.072892286
-0.046189792 -0.01690777 -0.0493048 0.05630828 0.01221756 0.055347614 -0.034306843 -0.11940587
0.0308054 0.05143358 0.018623143 -0.081216 -0.012900898 0.043583073 0.0032437178 0.048609827
0.059801985 -0.045334082 -0.08409857 -0.11133417 0.064762235 0.028266978 0.051451154 -0.10278581
0.008449539 -0.018253375 0.011166697 -0.13630638 -0.10263096 0.12963745 0.045989692 0.028798047
0.057948112 -0.015112642 -0.103153855 -0.020540988 -0.15019853 0.011940543 -0.065387726 0.053005155
00000000: b281 c73c 8162 28bd 016a 0cbe 5d32 1abd
00000010: fadb 1e3e 19e0 42be 70a0 943c a3b2 0c3e
00000020: 27ca f9bd d014 c33d 5c81 853d aae5 2b3a
00000030: fa08 2f3d 6166 713d 0872 813d 1317 f9bc
00000040: 1064 fa3d 1440 973d c436 043b 16aa 02bd
00000050: 2a8b 1abd 0b10 293c 7f10 05bc 8d48 95bd
00000060: 8231 3dbd 2a82 8abc d4f3 49bd 83a3 663d
00000070: 292c 483c 2eb4 623d 5585 0cbd 118b f4bd
00000080: 9b5b fc3c 05ac 523d 908f 983c 9354 a6bd
00000090: 4a5e 53bc 2a84 323d 8e94 543b 191b 473d
000000a0: edf2 743d 3bb0 39bd df3b acbd 2b03 e4bd
000000b0: 10a2 843d 2690 e73c 72be 523d 5e81 d2bd
000000c0: ef6f 0a3c 1a88 95bc 86f4 363c e693 0bbe
000000d0: 2e30 d2bd aebf 043e b05f 3c3d e2e9 eb3c
000000e0: 005b 6d3d 049b 77bc 5442 d3bd 9345 a8bc
000000f0: a5cd 19be 44a2 433c 00ea 85bd ef1b 593d

weight f4 [64, 64]
-0.10123765 0.30827665 -0.08435916 0.06961131 -0.11470341 0.26266858 0.24606311 0.024954323
-0.061530493 -0.26522157 -0.05532638 0.18515868 -0.022570653 -0.021709707 0.34778944 0.3354131
-0.0856294 -0.16681065 0.14206183 0.15288319 0.00999132 0.1661613 0.2670165 0.3512828
0.4046148 -0.3083289 -0.09763418 -0.062424302 -0.27303866 0.12324639 0.13009843 0.22964647
0.2343473 -0.047977854 -0.28453246 0.27999282 -0.2506405 0.38467476 -0.3719495 -0.15194233
0.041447844 0.39363784 0.339378 0.7564958 0.06978527 0.010023625 0.15819058 0.2424207
-0.03924507 0.43937057 -0.29115152 0.33187988 0.25988528 0.09934436 -0.05274052 -0.02009494
0.2419967 -0.56932306 0.43859744 -0.20635915 -0.07763655 0.010590086 0.011224143 -0.18841268
-0.00060969224 -0.09153553 -0.027301408 0.1958278 -0.18018374 0.011881538 0.07611029 -0.1887494
0.10928388 -0.15141821 0.17124632 -0.15718924 -0.15429324 -0.08038947 -0.017483432 0.19520405
-0.042049065 0.15939207 -0.085357726 0.18734957 0.10293226 0.3498208 -0.09452771 0.1670996
0.030346535 -0.09465759 0.23311968 0.0497833 -0.280967 -0.08501508 0.11523316 0.04631117
0.3078421 -0.22188239 -0.2666267 0.18405516 -0.0045984737 0.14587404 0.05009123 0.22592065
0.06323142 0.25863186 0.22979946 0.04648147 0.082496494 -0.15098071 -0.065745175 0.4432072
0.12991664 0.07335279 -0.239112 -0.07581218 0.22866437 0.08622693 0.24500607 0.04667535
0.3381345 -0.13222055 0.36529797 0.24430022 0.09955149 -0.167086 -0.1688008 -0.067490645
0.037816413 0.33999968 -0.0013987217 -0.11918307 -0.021844799 -0.2625624 0.06483848 0.17900711
0.30560234 -0.091973156 -0.023302361 0.069925144 -0.29023716 -0.4441525 0.2730807 0.3386455
-0.5916722 -0.15542226 0.07601593 -0.3026103 0.19604899 -0.0024903263 -0.30106577 0.31905982
-0.13808581 0.33024934 0.074245535 -0.012810204 0.50950545 0.13736577 -0.4482569 -0.29351607
-0.13005672 0.060660984 -0.22172074 -0.34047312 0.020098433 -0.53890944 -0.16696855 0.017154694
-0.489746 0.26518905 -0.1241524 0.28023914 0.0092951385 -0.24302113 0.06413428 0.034094345
-0.099752635 0.16542417 0.042395808 -0.101577535 0.40133187 -0.029551476 0.26134074 0.11839841
0.112761475 0.1407448 0.035701044 0.098372154 0.07052772 -0.35360128 -0.2299889 0.113743335
0.33079752 0.4705423 -0.06308972 -0.1254142 -0.13205336 0.21798976 0.31133196 -0.049551543
-0.08408864 -0.004178066 0.58438796 -0.11080601 0.21800356 -0.123978265 0.15746811 0.45381606
0.06346567 -0.2652965 -0.22807194 -0.1374099 0.08765575 -0.16209356 0.2027839 0.03431101
0.07055321 -0.28547385 0.21911114 -0.17222714 0.18574333 0.14837511 0.02150044 0.24735752
0.124989346 -0.38556394 -0.1059294 0.298885 -0.12899387 0.02965516 0.20231588 0.45561305
-0.28341612 -0.056335747 0.20769852 0.03520789 0.2517742 0.029600576 0.92145765 -0.29704428
0.22596113 -0.022856964 0.22138481 -0.07459447 0.07130612 -0.009336371 0.18465592 0.18620634
0.0395855 -0.2288185 -0.0013335196 0.45277423 -0.06138042 -0.13609792 0.2527336 0.28937963
00000000: af55 cfbd 70d6 9d3e 7fc4 acbd 6090 8e3d
00000010: 9fe9 eabd 7f7c 863e f8f7 7b3e 026d cc3c
00000020: 6607 7cbd 1fcb 87be ea9d 62bd 3d9a 3d3e
00000030: 17e6 b8bc 8ed8 b1bc 7511 b23e 44bb ab3e
00000040: 785e afbd 69d0 2abe a878 113e 698d 1c3e
00000050: a2b2 233c 3026 2a3e 63b6 883e 57db b33e
00000060: ac29 cf3e 49dd 9dbe 6ef4 c7bd a0b0 7fbd
00000070: b9cb 8bbe 9a68 fc3d 8638 053e 7228 6b3e
00000080: bdf8 6f3e 6d84 44bd 3dae 91be 385b 8f3e
00000090: f453 80be 17f4 c43e 2a70 bebe c596 1bbe
000000a0: 37c5 293d e68a c93e f4c2 ad3e b5a9 413f
000000b0: 94eb 8e3d 213a 243c b6fc 213e 223d 783e
000000c0: 70bf 20bd 2ef5 e03e d011 95be 29ec a93e
000000d0: af0f 853e 0e75 cb3d 7206 58bd 259e a4bc
000000e0: fccd 773e 28bf 11bf d88f e03e d04f 53be
000000f0: e9ff 9ebd 0a82 2d3c 78e5 373c 41ef 40be
00000100: c1d3 1fba fb76 bbbd 34a7 dfbc 1587 483e
00000110: 1682 38be c8aa 423c b6df 9b3d 8647 41be
00000120: 3ad0 df3d 600d 1bbe 325b 2f3e 37f6 20be
00000130: 0cff 1dbe 3ca3 a4bd 6a39 8fbc 92e3 473e
00000140: a43b 2cbd ad37 233e 08d0 aebd 91d8 3f3e
00000150: 26ce d23d b61b b33e be97 c1bd 281c 2b3e
00000160: 4c99 f83c d7db c1bd edb6 6e3e 93e9 4b3d
00000170: e8da 8fbe 631c aebd 5dff eb3d c8b0 3d3d
00000180: 7b9d 9d3e 2335 63be 4b83 88be f578 3c3e
00000190: cbae 96bb 0160 153e 762c 4d3d be57 673e
000001a0: 7a7f 813d 656b 843e 8d50 6b3e 5b63 3e3d
000001b0: ecf3 a83d b09a 1abe 68a5 86bd 0eec e23e
000001c0: de08 053e fd39 963d c7d9 74be 6b43 9bbd
000001d0: fe26 6a3e bf97 b03d dfe2 7a3e a72e 3f3d
000001e0: f71f ad3e d364 07be 5608 bb3e d629 7a3e
000001f0: a7e1 cb3d 9818 2bbe 1eda 2cbe 8938 8abd
00000200: 62e5 1a3d 7014 ae3e 5055 b7ba 4116 f4bd
00000210: ddf3 b2bc 946e 86be 09ca 843d a44d 373e
00000220: e977 9c3e 6c5c bcbd 98e4 bebc ea34 8f3d
00000230: f799 94be f567 e3be 3cd1 8b3e f162 ad3e
00000240: d477 17bf 0327 1fbe 3dae 9b3d bdef 9abe
00000250: 11c1 483e be34 23bb 4b25 9abe cf5b a33e
00000260: 5e66 0dbe 7116 a93e 0b0e 983d e4e1 51bc
00000270: f36e 023f 9da9 0c3e ee81 e5be bd47 96be
00000280: 972d 05be a777 783d c30a 63be 7e52 aebe
00000290: 78a5 a43c f8f5 09bf cef9 2abe 0088 8c3c
000002a0: fdbf fabe dcc6 873e 9d43 febd 817b 8f3e
000002b0: a34a 183c 88da 78be d558 833d 83a6 0b3d
000002c0: 1c4b ccbd f464 293e 3aa7 2d3d e207 d0bd
000002d0: 5f7b cd3e f015 f2bc 74ce 853e de7a f23d
000002e0: 7def e63d 681f 103e 423b 123d 5777 c93d
000002f0: d670 903d 3a0b b5be 3682 6bbe 44f2 e83d
00000300: 4b5e a93e ecea f03e 2f35 81bd 946c 00be
00000310: ff38 07be b538 5f3e e766 9f3e 8ff6 4abd
00000320: aa36 acbd 28e8 88bb 739a 153f 43ee e2bd
00000330: 533c 5f3e 51e8 fdbd 523f 213e 945a e83e
00000340: 4afa 813d f1d4 87be b18b 69be 2eb5 0cbe
00000350: dc84 b33d dbfb 25be 95a6 4f3e b489 0c3d
00000360: 347e 903d a129 92be ac5e 603e 505c 30be
00000370: 8033 3e3e a5ef 173e b121 b03c 4a4b 7d3e
00000380: 6afa ff3d a368 c5be 83f1 d8bd 7407 993e
00000390: f816 04be 61ef f23c e52b 4f3e 1d46 e93e
000003a0: eb1b 91be 50c0 66bd ecae 543e 2636 103d
000003b0: 8ce8 803e e87c f23c a6e4 6b3f 3016 98be
000003c0: 5b62 673e 873e bbbc b3b2 623e fcc4 98bd
000003d0: f108 923d 94f7 18bc 7116 3d3e e0ac 3e3e
000003e0: 6824 223d 664f 6abe 7ec9 aeba 06d2 e73e
000003f0: 096a 7bbd 415d 0bbe 4c66 813e 9129 943e

bias f4 [64]
-0.34688854 -0.32055587 0.3096361 -0.31178856 -0.1687609 0.17301427 0.126038 -0.031897098
0.4767499 0.25692147 0.16273336 -0.37118223 -0.020310456 0.3836843 0.53265876 -0.01466339
-0.0033517252 0.13409911 -0.21865156 -0.0084733525 0.19297186 0.17492647 -0.29624698 0.061730187
-0.037391644 -0.1669312 -0.14546692 -0.35392618 -0.35366973 -0.31237996 0.0075155306 -0.39100358
0.26814908 -0.03704863 -0.46438113 -0.013033827 -0.20117064 -0.32275814 -0.19580019 -0.6036957
-0.1800912 -0.2547655 -0.048029598 -0.1590204 -0.074016064 -0.31083682 -0.15953399 0.107861795
0.19913864 -0.027727284 -0.042923566 -0.0026715463 0.3557154 -0.38427547 -0.24269581 -0.2999753
-0.35858145 -0.29346672 0.1431661 0.4455048 0.18030092 0.29349372 -0.075677514 0.06731346
00000000: 609b b1be e61f a4be 9f88 9e3e c0a2 9fbe
00000010: a8cf 2cbe a72a 313e 1b10 013e 88a6 02bd
00000020: 9018 f43e 368b 833e 93a3 263e 990b bebe
00000030: 1d62 a6bc 4572 c43e 535c 083f b73e 70bc
00000040: 9ea8 5bbb 4751 093e 32e6 5fbe d1d3 0abc
00000050: 6a9a 453e ed1f 333e afad 97be cbd8 7c3d
00000060: fb27 19bd 03f0 2abe 48f5 14be d035 b5be
00000070: 3314 b5be 44f0 9fbe d744 f63b 9f31 c8be
00000080: d64a 893e 4ec0 17bd 5dc3 edbe d58b 55bc
00000090: adff 4dbe 8e40 a5be d87f 48be cd8b 1abf
000000a0: d469 38be a070 82be afba 44bd 3ed6 22be
000000b0: bc95 97bd 0126 9fbe e15c 23be a5e6 dc3d
000000c0: 00eb 4b3e 5424 e3bc 9fd0 2fbd 1c15 2fbb
000000d0: 5420 b63e c1bf c4be 4085 78be 5d96 99be
000000e0: fd97 b7be 4541 96be 229a 123e 3519 e43e
000000f0: cea0 383e cf44 963e d0fc 9abd a4db 893d

weight f4 [64, 64]
0.6899035 0.03341104 -0.17801982 0.08738386 -0.045597196 -0.08325299 0.10770014 -0.4932359
0.072519235 -0.2105043 -0.036617488 0.22100398 0.01149873 -0.1040004 0.07005764 0.005975612
-0.15921201 -0.18287593 0.030172372 0.10546681 -0.46633786 0.24655047 -0.43022847 -0.17995976
-0.2547206 -0.45682696 0.05808313 -0.018286398 -0.49513826 0.006446971 0.24842426 -0.039523564
0.35761064 -0.26776958 0.12888525 0.13960555 0.030263323 0.061469216 -0.360182 0.25148576
-0.057803605 0.45063832 -0.031014623 0.23930237 0.023774317 -0.036424488 -0.19935986 0.153335
0.17637835 0.10204344 -0.20285708 0.072664015 0.33167732 -0.3133648 0.25516993 0.17425324
0.06370889 -0.40999287 0.25141054 -0.18703766 0.28056562 -0.023893083 -0.16088307 -0.07002007
-0.20221576 0.2826688 0.28761768 0.24854909 -0.14738093 0.1788181 0.12236689 -0.087460086
-0.027774068 -0.17039019 0.18332018 -0.076728374 0.13176621 0.046700522 -0.09435536 -0.25674483
-0.031344734 0.07889161 -0.07248414 0.29961628 0.12015979 -0.25738284 0.19079234 0.14637125
-0.4850109 0.33067214 -0.084883876 -0.19185011 -0.3016306 0.33965927 0.07142155 -0.034929506
0.37460306 0.03960172 0.007880701 0.17983083 -0.007410022 0.13869947 0.45074353 -0.47826463
-0.14347829 -0.22545227 0.39142746 0.20868628 0.36805567 0.05018854 0.16455588 -0.026079912
0.25104803 0.51328224 0.03021455 0.028292175 0.62837094 -0.2773836 -0.32827997 0.53953844
0.27126288 -0.10369307 -0.1488788 0.17759307 -0.18259308 0.2479701 -0.18196058 0.1047875
-0.37625027 0.8478623 0.1680922 -0.21850759 -0.5161783 -0.020698188 -0.35364982 -0.15720074
-0.22282079 -0.07810115 0.02829455 -0.18874569 -0.3491759 0.6286156 -0.10628059 -0.42430225
-0.81062484 -0.41514286 -0.24124248 -0.43723014 0.057474233 -0.38369673 -0.105354354 0.22930352
0.39043257 0.03491388 -0.69186145 -0.56746536 0.33878976 -0.7309206 -0.7526975 0.37880152
-0.08900363 -0.64995223 -0.20283698 -0.14177929 -0.25893152 -0.24695049 -0.527265 0.09434387
-0.18371561 -0.30383566 -0.5607485 -0.12747324 -0.8984249 -0.4766317 -0.11215569 -0.05445533
-0.32717255 0.50014985 0.46480522 0.26959074 0.43007052 -0.44203615 -0.683074 -0.06952021
0.05633701 0.76343143 -0.052704662 -0.5166463 -0.42920014 -0.026956351 0.34372 -0.25777817
-0.59896547 1.06213 0.058954004 -0.6652614 -0.42976695 -0.32982397 -0.22899324 0.4079643
-0.15336463 -0.17852393 -0.15674898 -0.5574534 0.07978949 -0.30152595 -0.27761003 0.19388236
0.07608045 -0.13421892 -0.3378123 0.27630347 -0.21609047 -0.03528137 0.492148 -0.33994555
0.4688881 -0.3738936 0.15671185 -0.13074166 -0.102537714 -0.6229289 -0.19720851 0.9172683
-0.6503508 -0.0772411 -0.28325826 0.65856713 -0.7505579 -0.8121054 0.23266123 0.5845462
0.03569307 -0.16013491 0.017442567 -0.8521588 0.08444705 -0.34318164 -0.56429094 -0.4694
-0.08883139 -0.2022383 -0.19481374 -0.08711577 -0.66313773 -0.51333076 -0.35130063 -0.47525254
0.32075658 0.17612976 -0.3515612 -0.46546268 -0.6319187 0.28745735 -0.088579684 -0.06897519
00000000: 849d 303f 04da 083d d44a 36be 4ff6 b23d
00000010: 20c4 3abd 8b80 aabd e491 dc3d 6a89 fcbe
00000020: f784 943d 708e 57be 38fc 15bd de4e 623e
00000030: 2b65 3c3c 29fe d4bd 617a 8f3d 11cf c33b
00000040: 7908 23be d443 3bbe 0d2c f73c fcfe d73d
00000050: d6c3 eebe ba77 7c3e e846 dcbe 5f47 38be
00000060: bd6a 82be 39e5 e9be 93e8 6d3d 5bcd 95bc
00000070: c382 fdbe 1d41 d33b ee62 7e3e 76e3 21bd
00000080: be18 b73e 1819 89be 7ffa 033e c2f4 0e3e
00000090: caea f73c 25c7 7b3d c669 b8be bec2 803e
000000a0: 79c3 6cbd 11ba e63e 6112 febc ae0b 753e
000000b0: 5bc2 c23c d831 15bd fe24 4cbe da03 1d3e
000000c0: 879c 343e 27fc d03d c4b9 4fbe dfd0 943d
000000d0: 9cd1 a93e 5a71 a0be a2a5 823e 716f 323e
000000e0: ce79 823d 96ea d1be e2b8 803e cd86 3fbe
000000f0: 4ca6 8f3e 6dbb c3bc 88be 24be af66 8fbd
00000100: a611 4fbe f7b9 903e a042 933e a783 7e3e
00000110: 07eb 16be 181c 373e 7e9b fa3d 461e b3bd
00000120: 7186 e3bc c47a 2ebe 49b8 3b3e c423 9dbd
00000130: b9ed 063e 0c49 3f3d 623d c1bd 0f74 83be
00000140: 5663 00bd ed91 a13d 9172 94bd 4e67 993e
00000150: 5616 f63d afc7 83be 115f 433e 58e2 153e
00000160: 5953 f8be dc4d a93e 99d7 adbd 5b74 44be
00000170: 536f 9abe d2e7 ad3e 7645 923d 3e12 0fbd
00000180: f9cb bf3e 6a35 223d 0e1e 013c 9325 383e
00000190: c5cf f2bb 3c07 0e3e dbc7 e63e 1adf f4be
000001a0: f9eb 12be f6dc 66be 2e69 c83e dbb1 553e
000001b0: cb71 bc3e 8092 4d3d 5681 283e 8aa5 d5bc
000001c0: 5e89 803e 7766 033f 8184 f73c fec4 e73c
000001d0: ebdc 203f 3905 8ebe 5014 a8be 311f 0a3f
000001e0: f8e2 8a3e 085d d4bd af73 18be f5da 353e
000001f0: aef9 3abe e0eb 7d3e e053 3abe d49a d63d
00000200: e0a3 c0be 810d 593f 5d20 2c3e 74c0 5fbe
00000210: 4324 04bf 3f8f a9bc 9711 b5be 3bf9 20be
00000220: 222b 64be 7ff3 9fbd f9c9 e73c 8d46 41be
00000230: 2fc7 b2be f4ec 203f a3a9 d9bd 253e d9be
00000240: 1c85 4fbf 9b8d d4be 4508 77be a1dc dfbe
00000250: 1a6a 6b3d e673 c4be 06c4 d7bd 8bce 6a3e
00000260: c7e6 c73e db01 0f3d d51d 31bf 6945 11bf
00000270: da75 ad3e 9d1d 3bbf c9b0 40bf 46f2 c13e
00000280: 8947 b6bd 4563 26bf 7fb4 4fbe 972e 11be
00000290: ac92 84be 97e0 7cbe d7fa 06bf 5c37 c13d
000002a0: f21f 3cbe 5990 9bbe 378d 0fbf 5888 02be
000002b0: 2dff 65bf 1209 f4be e2b1 e5bd 8d0c 5fbd
000002c0: 2983 a7be d209 003f f3fa ed3e cc07 8a3e
000002d0: 3432 dc3e 9052 e2be f0dd 2ebf 9d60 8ebd
000002e0: a3c1 663d 3e70 433f d8e0 57bd ef42 04bf
000002f0: 1fc0 dbbe 91d3 dcbc 11fc af3e 80fb 83be
00000300: cd55 19bf e0f3 873f c179 713d 924e 2abf
00000310: 6a0a dcbe b0de a8be 347d 6abe b2e0 d03e
00000320: 9e0b 1dbe face 36be ce82 20be 44b5 0ebf
00000330: ac68 a33d 9c61 9abe e722 8ebe 1989 463e
00000340: 11d0 9b3d af70 09be bcf5 acbe a677 8d3e
00000350: d246 5dbe 3383 10bd d3fa fb3e 580d aebe
00000360: 1a12 f03e fb6e bfbe 1279 203e 24e1 05be
00000370: 4bff d1bd 4578 1fbf 07f1 49be 18d2 6a3f
00000380: 647d 26bf 9530 9ebd 3a07 91be db97 283f
00000390: 9024 40bf 24e6 4fbf bf3e 6e3e d2a4 153f
000003a0: e632 123d 68fa 23be b7e3 8e3c 1427 5abf
000003b0: 93f2 ac3d 81b5 afbe 5f75 10bf 3255 f0be
000003c0: 3bed b5bd 8f17 4fbe 417d 47be c169 b2bd
000003d0: 65c3 29bf a569 03bf addd b3be 4d54 f3be
000003e0: 353a a43e 5c5b 343e d4ff b3be 2051 eebe
000003f0: 6dc5 21bf 9c2d 933e 4469 b5bd dd42 8dbd

bias f4 [64]
0.24114633 0.17983906 -0.15444681 -0.2692101 0.23521444 -0.45520943 0.24799328 -0.48066857
0.24200389 -0.15459329 -0.07756015 -0.09147966 0.054887 -0.06961421 0.111575454 -0.054450233
0.05401892 -0.1925719 0.22462825 -0.8284991 0.21134073 -0.3489323 0.17211252 0.22559598
0.0816991 -0.21309826 -0.48866963 0.14753862 0.03302425 0.19606279 0.08465959 0.1345181
0.24739492 -0.775294 0.06083244 -0.20612068 0.018139208 0.45258376 0.3090145 -0.30589488
0.098265104 -0.026359184 0.06046561 0.31318286 0.026006833 -0.15732642 0.10631988 -0.006404333
0.05544795 0.04987366 0.005552422 -1.0298969 0.22844654 -0.7410882 0.047958996 -0.37955415
0.043496437 -0.08090102 -0.23992138 0.10655038 0.07459049 -0.13305752 -0.3195446 0.16293094
00000000: 10ef 763e bb27 383e 4e27 1ebe e8d5 89be
00000010: 0edc 703e 3611 e9be f3f1 7d3e 311a f6be
00000020: decf 773e b44d 1ebe dbd7 9ebd b059 bbbd
00000030: 31d1 603d e591 8ebd ac81 e43d 3507 5fbd
00000040: f142 5d3d 9131 45be f304 663e 8418 54bf
00000050: b469 583e 41a7 b2be 443e 303e a202 673e
00000060: dc51 a73d 6e36 5abe e832 fabe 5d14 173e
00000070: 7044 073d afc4 483e 0262 ad3d 1dbf 093e
00000080: 1855 7d3e ab79 46bf 702b 793d 4d11 53be
00000090: ad98 943c 0fb9 e73e 2637 9e3e 419e 9cbe
000000a0: 373f c93d 37ef d7bc caaa 773d 8159 a03e
000000b0: 480c d53c 2d1a 21be 3dbe d93d 70db d1bb
000000c0: 641d 633d 5348 4c3d 17f1 b53b a9d3 83bf
000000d0: e4ed 693e f5b7 3dbf a770 443d ec54 c2be
000000e0: 5229 323d 6faf a5bd f3ad 75be 1637 da3d
000000f0: e6c2 983d 3b40 08be 5a9b a3be 5ed7 263e

weight f4 [64, 64]
-0.07924881 0.049414154 0.039513003 0.14881831 -0.08060309 0.06330623 -0.17165157 0.09639311
-0.22235335 -0.07017818 0.2347131 -0.017032336 0.2655291 0.38626784 -0.09083145 -0.24412581
-0.59312457 -0.16718063 -0.18594971 -0.047967628 -0.1871463 -0.07984367 -0.15157765 -0.08720297
-0.52344793 0.019969782 -0.052837156 -0.04043935 -0.42551917 -0.36086592 -0.123859935 0.09122077
-0.5743893 -0.05301922 -0.20241368 -0.09686028 0.17159195 0.16414227 -0.14184412 0.11438232
-0.13414454 0.0990924 0.20833956 0.23313686 0.29695433 0.102111496 -0.055482272 -0.025522998
-0.3581582 -0.10280326 -0.3849594 0.035926294 -0.13049965 0.15473959 0.16400845 -0.17456858
0.06834092 -0.25293213 -0.044069596 -0.15727074 -0.35131004 -0.024687521 0.28301457 -0.06141996
0.12100942 0.20717832 0.8775091 -0.11029411 -0.033889327 -0.0012980361 -0.5045338 0.24359013
0.3561607 -0.42876807 0.028320383 -1.0878241 0.25933883 0.115117334 0.9827439 -0.20454001
-0.2985966 -0.3089067 -0.7319203 0.115276314 -0.5087233 1.2293357 -0.23711644 -0.55107117
1.2739469 -0.19880106 -0.112280235 0.20757124 -0.053627275 -0.6515012 -0.046744835 -0.325349
-0.26334402 -0.026883105 -0.05463944 -0.3208942 0.5311365 -0.022113448 0.21986791 -0.68265444
0.12070514 -0.13010147 -0.4337057 -0.13764885 0.028988916 -0.31583387 -0.018471071 -0.3333138
-0.510664 0.06169014 -0.34086555 0.23734558 -0.15955767 -0.02782381 0.011519095 1.668281
-0.018132634 0.4656326 0.23422813 0.15547782 0.2472027 -0.83041537 0.16571435 -0.20703799
0.2302796 -0.16291295 0.8378397 0.8930954 0.057234917 -0.63935345 0.32089344 -0.1237774
-0.09680831 0.30539206 -0.118925795 0.16978514 0.43882427 0.64769673 0.36394453 -0.20747823
-0.3937302 0.28797555 0.16233636 -0.1286531 -0.15958892 0.06970549 0.21721068 0.23417753
-0.2691095 0.384419 0.22914565 0.033576854 0.09304348 -0.25279242 0.06422582 0.21861541
0.17581308 0.15574922 0.083824344 0.1294649 0.007457862 0.01909451 0.10490008 0.21200398
0.09494148 -0.11924637 -0.35940194 0.058713 0.00477733 0.06033535 -0.2879241 0.15468991
0.3550681 -0.15919818 0.06287505 -0.17985357 0.22324975 0.4972199 0.27740976 -0.096395224
-0.30733162 -0.43307683 -0.10818592 0.28646916 -0.07431785 -0.072156124 0.28151792 0.098094046
-0.0843489 -0.09320554 -0.2529264 0.21839778 -0.7351419 0.0212555 -0.006737732 0.30424294
-0.7536925 -0.14891858 -0.5315335 -0.72230864 0.7190938 0.28708133 -0.85762227 0.14146292
0.85083854 0.24107413 -0.24051805 -0.19225234 -0.28853267 -0.062245842 0.0031457748 0.011112404
-0.4296447 0.62548876 -0.119330384 -0.36732087 -0.36551893 0.2183341 -0.48709738 0.3375319
0.08980867 -0.10652357 0.40826252 0.01248197 0.29954723 0.10875815 -0.14782776 -0.308757
-0.31447497 -0.18296848 1.556847 -0.39977813 -0.24481758 0.58191544 0.20965512 0.18062013
-1.0147012 0.17515323 0.5379022 -0.10871986 -0.35811573 0.078786924 -0.25140655 0.3236427
0.25015917 -0.022561157 0.747643 -0.6183592 -0.0108914 0.3859737 0.54202485 -0.1294231
00000000: 334d a2bd 7f66 4a3d 63d8 213d d463 183e
00000010: 3c13 a5bd b2a6 813d 6ec5 2fbe c069 c53d
00000020: 99b0 63be 94b9 8fbd a258 703e 6687 8bbc
00000030: 6ef3 873e e6c4 c53e d705 babd 1efc 79be
00000040: 03d7 17bf 6631 2bbe 9a69 3ebe b479 44bd
00000050: 48a3 3fbe 1485 a3bd 2c37 1bbe 7997 b2bd
00000060: af00 06bf ab97 a33c c66b 58bd bba3 25bd
00000070: a6dd d9be 6bc3 b8be 47aa fdbd f4d1 ba3d
00000080: 2d0b 13bf ae2a 59bd 8845 4fbe af5e c6bd
00000090: cdb5 2f3e e914 283e 963f 11be 4741 ea3d
000000a0: 305d 09be f5f0 ca3d f756 553e 6ebb 6e3e
000000b0: 660a 983e d51f d13d 6141 63bd 9b15 d1bc
000000c0: 8360 b7be 848a d2bd 6619 c5be 7327 133d
000000d0: b3a1 05be 0e74 1e3e d5f1 273e 1bc2 32be
000000e0: 53f6 8b3d 5280 81be 5282 34bd 950b 21be
000000f0: e9de b3be 7c3d cabc 49e7 903e 7f93 7bbd
00000100: c9d3 f73d 8e26 543e 70a4 603f e1e1 e1bd
00000110: 89cf 0abd dd22 aaba 2129 01bf b16f 793e
00000120: b25a b63e 7d87 dbbe 2600 e83c d23d 8bbf
00000130: 0fc8 843e a3c2 eb3d 1b95 7b3f f072 51be
00000140: a7e1 98be 0529 9ebe 215f 3bbf fd15 ec3d
00000150: b13b 02bf df5a 9d3f a7ce 72be 0013 0dbf
00000160: b110 a33f 8192 4bbe 2ef3 e5bd 8e8d 543e
00000170: 46a8 5bbd c8c8 26bf 8377 3fbd 2594 a6be
00000180: 07d5 86be f539 dcbc 9bcd 5fbd 3f4c a4be
00000190: 90f8 073f 4327 b5bc 0e25 613e 71c2 2ebf
000001a0: 4234 f73d 5239 05be ac0e debe d2f3 0cbe
000001b0: 2a7a ed3c fab4 a1be a550 97bc 1ba8 aabe
000001c0: e0ba 02bf cdae 7c3d ee85 aebe b80a 733e
000001d0: 1663 23be c2ee e3bc 96ba 3c3c 3b8a d53f
000001e0: e48a 94bc 6567 ee3e 80d9 6f3e 9435 1f3e
000001f0: b422 7d3e 1a96 54bf 06b1 293e c401 54be
00000200: 6ace 6b3e a7d2 26be aa7c 563f e6a1 643f
00000210: 296f 6a3d abac 23bf 254c a43e 017f fdbd
00000220: 6f43 c6bd 595c 9c3e 5e8f f3bd 28dc 2d3e
00000230: 93ad e03e 74cf 253f f056 ba3e 2c75 54be
00000240: 0197 c9be 8871 933e 813b 263e a3bd 03be
00000250: 476b 23be c0c1 8e3d 7a6c 5e3e 3ccc 6f3e
00000260: b8c8 89be 91d2 c43e 28a5 6a3e e287 093d
00000270: 948d be3d 026e 81be d488 833d b8dc 5f3e
00000280: 5808 343e b97c 1f3e 19ac ab3d 7292 043e
00000290: 1561 f43b 176c 9c3c dad5 d63d 9217 593e
000002a0: ae70 c23d 7137 f4bd 8803 b8be 0b7d 703d
000002b0: 268b 9c3b 3322 773d ca6a 93be 0867 1e3e
000002c0: 7ccb b53e d904 23be a2c4 803d 892b 38be
000002d0: 959b 643e 9b93 fe3e a708 8e3e dc6a c5bd
000002e0: 925a 9dbe 3fbc ddbe 9490 ddbd 16ac 923e
000002f0: f533 98bd 97c6 93bd 1e23 903e 88e5 c83d
00000300: 1ebf acbd 8ce2 bebd 927f 81be aba3 5f3e
00000310: 4232 3cbf 0420 ae3c 31c8 dcbb bbc5 9b3e
00000320: fef1 40bf 1d7e 18be 9412 08bf 38e9 38bf
00000330: 8816 383f 53fc 923e 228d 5bbf a8db 103e
00000340: 8ed0 593f 23dc 763e 5d4a 76be ccdd 44be
00000350: 8eba 93be 7ff5 7ebd 5829 4e3b cd10 363c
00000360: 64fa dbbe 0820 203f 7d63 f4bd 7b11 bcbe
00000370: 4c25 bbbe f992 5f3e d464 f9be fbd0 ac3e
00000380: 9ced b73d 0829 dabd c907 d13e 2d81 4c3c
00000390: 415e 993e 98bc de3d 2960 17be 6615 9ebe
000003a0: dd02 a1be 175c 3bbe c346 c73f b8af ccbe
000003b0: 76b1 7abe 69f8 143f d5af 563e 7cf4 383e
000003c0: bbe1 81bf 5e5b 333e f5b3 093f 85a8 debd
000003d0: f25a b7be 0a5b a13d 5cb8 80be 7fb4 a53e
000003e0: dd14 803e 2dd2 b8bc 8865 3f3f ca4c 1ebf
000003f0: d871 32bc 589e c53e 24c2 0a3f 7d87 04be

bias f4 [64]
-0.13148065 0.11330655 0.3763131 -0.5262585 -0.18886948 0.2583175 -0.0726255 0.39134276
0.053738236 0.09894492 0.35970777 -0.21290772 -0.4315924 0.17937289 0.36663222 -0.1790834
-0.108874775 -0.041912593 -0.17364849 -0.20575982 0.36006194 -0.13158092 -0.18317756 -0.1796382
-0.13634473 0.045923825 -0.18809217 -0.40219837 -0.19679287 -0.17296833 -0.14380355 -0.13712327
0.09479046 0.22142999 0.20096834 -0.0317906 -0.10113121 0.0034518458 -0.06821896 -0.2699555
0.403968 -0.100041784 0.118045986 -0.1024582 -0.13361147 -0.06835826 0.25184348 -0.43593764
0.0447018 -0.57906 -0.2813662 -0.3720656 0.12999798 -0.26896957 0.073661886 0.22661401
0.21216334 -0.0909662 -0.61123157 -0.28063866 -0.5894546 -0.29742235 -0.16169019 -0.20476073
00000000: dda2 06be 440d e83d 1cac c03e e1b8 06bf
00000010: 0067 41be 3142 843e aebc 94bd 145e c83e
00000020: a01c 5c3d a2a3 ca3d 9e2b b83e 7b04 5abe
00000030: aef9 dcbe 87ad 373e 38b7 bb3e a461 37be
00000040: bdf9 debd 8aac 2bbd e9d0 31be b4b2 52be
00000050: 0a5a b83e 26bd 06be e692 3bbe 14f3 37be
00000060: f49d 0bbe 9f1a 3c3d 3c9b 40be f2ec cdbe
00000070: 1284 49be 9c1e 31be 3d41 13be 0b6a 0cbe
00000080: 8021 c23d 8bbe 623e a5ca 4d3e dc36 02bd
00000090: e11d cfbd 5d38 623b 62b6 8bbd 9b37 8abe
000000a0: e5d4 ce3e b5e2 ccbd 18c2 f13d 9bd5 d1bd
000000b0: 72d1 08be 6aff 8bbd a1f1 803e 3833 dfbe
000000c0: 3c19 373d 473d 14bf 3b0f 90be 627f bebe
000000d0: 311e 053e 61b6 89be 0bdc 963d 810d 683e
000000e0: 5941 593e 7d4c babd ac79 1cbf dfaf 8fbe
000000f0: 7fe6 16bf be47 98be 1d92 25be ccac 51be
