result/IMDBMulti/N2Gim/sum_none_pGinFalse_woNodeattFalse_woGraphattFalse/2022-09-10_16-48-56/minvaild_0.pt (torch, 281822 bytes, 36 tensors)

weight f4 [64, 64]
00000000: 0000 803f 0000 0000 0000 0000 0000 0000
00000010: 0000 0000 0000 0000 31e8 0100 0000 0000
00000020: 0000 0000 0000 0000 0000 0000 0000 0000
00000030: 0000 0000 0000 0000 0000 0000 0000 0000
00000040: 0000 0000 0000 0000 0000 0000 0000 0000
00000050: 0000 0000 0000 0000 0000 0000 0000 0000
00000060: 0000 0000 0000 0000 0000 0000 0000 0000
00000070: 0000 0000 0000 0000 0000 0000 0000 0000
00000080: 0000 0000 0000 0000 0000 0000 0000 0000
00000090: 0000 0000 0000 0000 0000 0000 0000 0000
000000a0: 0000 0000 0000 0000 0000 0000 0000 0000
000000b0: 0000 0000 0000 0000 0000 0000 0000 0000
000000c0: 0000 0000 0000 0000 0000 0000 0000 0000
000000d0: 0000 0000 0000 0000 0000 0000 0000 0000
000000e0: 0000 0000 0000 0000 0000 0000 0000 0000
000000f0: 0000 0000 0000 0000 0000 0000 0000 0000
00000100: 0000 0000 0000 0000 0000 0000 0000 0000
00000110: 0000 0000 0000 0000 0000 0000 0000 0000
00000120: 0000 0000 0000 0000 0000 0000 0000 0000
00000130: 0000 0000 0000 0000 0000 0000 0000 0000
00000140: 0000 0000 0000 0000 0000 0000 0000 0000
00000150: 0000 0000 0000 0000 0000 0000 0000 0000
00000160: 0000 0000 0000 0000 0000 0000 0000 0000
00000170: 0000 0000 0000 803f 0000 0000 0000 0000
00000180: 0000 0000 0000 0000 0000 0000 0000 0000
00000190: 0000 0000 0000 0000 0000 0000 0000 0000
000001a0: 0000 0000 0000 0000 0000 0000 0000 0000
000001b0: 0000 0000 0000 0000 0000 0000 0000 0000
000001c0: 0000 0000 0000 0000 0000 0000 0000 0000
000001d0: 0000 0000 0000 0000 0000 0000 0000 0000
000001e0: 0000 0000 0000 0000 0000 0000 0000 0000
000001f0: 0000 0000 0000 0000 0000 0000 0000 0000
00000200: 0000 0000 0000 0000 0000 0000 0000 0000
00000210: 0000 0000 0000 0000 0000 0000 0000 0000
00000220: 0000 0000 0000 0000 0000 0000 0000 0000
00000230: 0000 0000 0000 0000 0000 0000 0000 0000
00000240: 0000 0000 0000 0000 0000 0000 0000 0000
00000250: 0000 0000 0000 0000 0000 0000 0000 0000
00000260: 0000 0000 0000 0000 0000 0000 0000 0000
00000270: 0000 0000 0000 0000 0000 0000 0000 0000
00000280: 0000 0000 0000 0000 0000 0000 0000 0000
00000290: 0000 0000 0000 0000 0000 0000 0000 0000
000002a0: 0000 0000 0000 0000 0000 0000 0000 0000
000002b0: 0000 0000 0000 0000 0000 0000 0000 0000
000002c0: 0000 0000 0000 0000 0000 803f 0000 0000
000002d0: 0000 0000 0000 0000 0000 0000 0000 0000
000002e0: 0000 0000 0000 0000 0000 0000 0000 0000
000002f0: 0000 0000 0000 0000 0000 0000 0000 0000
00000300: 0000 0000 0000 0000 0000 0000 0000 0000
00000310: 0000 0000 0000 0000 0000 0000 0000 0000
00000320: 0000 0000 0000 0000 0000 0000 0000 0000
00000330: 0000 0000 0000 0000 0000 0000 0000 0000
00000340: 0000 0000 0000 0000 0000 0000 0000 0000
00000350: 0000 0000 0000 0000 0000 0000 0000 0000
00000360: 0000 0000 0000 0000 0000 0000 0000 0000
00000370: 0000 0000 0000 0000 0000 0000 0000 0000
00000380: 0000 0000 0000 0000 0000 0000 0000 0000
00000390: 0000 0000 0000 0000 0000 0000 0000 0000
000003a0: 0000 0000 0000 0000 0000 0000 0000 0000
000003b0: 0000 0000 0000 0000 0000 0000 0000 0000
000003c0: 0000 0000 0000 0000 0000 0000 0000 0000
000003d0: 0000 0000 0000 0000 0000 0000 0000 0000
000003e0: 0000 0000 0000 0000 0000 0000 0000 0000
000003f0: 0000 0000 0000 0000 0000 0000 0000 0000
1.0 0.0 0.0 0.0 0.0 0.0 1.7513e-40 0.0
0.0 0.0 0.0 0.0 0.0 0.0 0.0 0.0
0.0 0.0 0.0 0.0 0.0 0.0 0.0 0.0
0.0 0.0 0.0 0.0 0.0 0.0 0.0 0.0
0.0 0.0 0.0 0.0 0.0 0.0 0.0 0.0
0.0 0.0 0.0 0.0 0.0 0.0 0.0 0.0
0.0 0.0 0.0 0.0 0.0 0.0 0.0 0.0
0.0 0.0 0.0 0.0 0.0 0.0 0.0 0.0
0.0 0.0 0.0 0.0 0.0 0.0 0.0 0.0
0.0 0.0 0.0 0.0 0.0 0.0 0.0 0.0
0.0 0.0 0.0 0.0 0.0 0.0 0.0 0.0
0.0 0.0 0.0 0.0 0.0 1.0 0.0 0.0
0.0 0.0 0.0 0.0 0.0 0.0 0.0 0.0
0.0 0.0 0.0 0.0 0.0 0.0 0.0 0.0
0.0 0.0 0.0 0.0 0.0 0.0 0.0 0.0
0.0 0.0 0.0 0.0 0.0 0.0 0.0 0.0
0.0 0.0 0.0 0.0 0.0 0.0 0.0 0.0
0.0 0.0 0.0 0.0 0.0 0.0 0.0 0.0
0.0 0.0 0.0 0.0 0.0 0.0 0.0 0.0
0.0 0.0 0.0 0.0 0.0 0.0 0.0 0.0
0.0 0.0 0.0 0.0 0.0 0.0 0.0 0.0
0.0 0.0 0.0 0.0 0.0 0.0 0.0 0.0
0.0 0.0 1.0 0.0 0.0 0.0 0.0 0.0
0.0 0.0 0.0 0.0 0.0 0.0 0.0 0.0
0.0 0.0 0.0 0.0 0.0 0.0 0.0 0.0
0.0 0.0 0.0 0.0 0.0 0.0 0.0 0.0
0.0 0.0 0.0 0.0 0.0 0.0 0.0 0.0
0.0 0.0 0.0 0.0 0.0 0.0 0.0 0.0
0.0 0.0 0.0 0.0 0.0 0.0 0.0 0.0
0.0 0.0 0.0 0.0 0.0 0.0 0.0 0.0
0.0 0.0 0.0 0.0 0.0 0.0 0.0 0.0
0.0 0.0 0.0 0.0 0.0 0.0 0.0 0.0

bias f4 [64, 64]
00000000: 0000 0000 0000 0000 01a8 0100 0000 0000
00000010: 0000 0000 0000 0000 0000 0000 0000 0000
00000020: 0000 0000 0000 0000 0000 0000 0000 0000
00000030: 0000 0000 0000 0000 0000 0000 0000 0000
00000040: 0000 0000 0000 0000 0000 0000 0000 0000
00000050: 0000 0000 0000 0000 0000 0000 0000 0000
00000060: 0000 0000 0000 0000 0000 0000 0000 0000
00000070: 0000 0000 0000 0000 0000 0000 0000 0000
00000080: 0000 0000 0000 0000 0000 0000 0000 0000
00000090: 0000 0000 0000 0000 0000 0000 0000 0000
000000a0: 0000 0000 0000 0000 0000 0000 0000 0000
000000b0: 0000 0000 0000 0000 0000 0000 0000 0000
000000c0: 0000 0000 0000 0000 0000 0000 0000 0000
000000d0: 0000 0000 0000 0000 0000 0000 0000 0000
000000e0: 0000 0000 0000 0000 0000 0000 0000 0000
000000f0: 0000 0000 0000 0000 0000 0000 0000 0000
00000100: 0000 0000 0000 0000 0000 0000 0000 0000
00000110: 0000 0000 0000 0000 0000 0000 0000 0000
00000120: 0000 0000 0000 0000 0000 0000 0000 0000
00000130: 0000 0000 0000 0000 0000 0000 0000 0000
00000140: 0000 0000 0000 0000 0000 0000 0000 0000
00000150: 0000 0000 0000 0000 0000 0000 0000 0000
00000160: 0000 0000 0000 0000 0000 0000 0000 0000
00000170: 0000 0000 0000 0000 0000 0000 0000 0000
00000180: 0000 0000 0000 0000 0000 0000 0000 0000
00000190: 0000 0000 0000 0000 0000 0000 0000 0000
000001a0: 0000 0000 0000 0000 0000 0000 0000 0000
000001b0: 0000 0000 0000 0000 0000 0000 0000 0000
000001c0: 0000 0000 0000 0000 0000 0000 0000 0000
000001d0: 0000 0000 0000 0000 0000 0000 0000 0000
000001e0: 0000 0000 0000 0000 0000 0000 0000 0000
000001f0: 0000 0000 0000 0000 0000 0000 0000 0000
00000200: 0000 0000 0000 0000 0000 0000 0000 0000
00000210: 0000 0000 0000 0000 0000 0000 0000 0000
00000220: 0000 0000 0000 0000 0000 0000 0000 0000
00000230: 0000 0000 0000 0000 0000 0000 0000 0000
00000240: 0000 0000 0000 0000 0000 0000 0000 0000
00000250: 0000 0000 0000 0000 0000 0000 0000 0000
00000260: 0000 0000 0000 0000 0000 0000 0000 0000
00000270: 0000 0000 0000 0000 0000 0000 0000 0000
00000280: 0000 0000 0000 0000 0000 0000 0000 0000
00000290: 0000 0000 0000 0000 0000 0000 0000 0000
000002a0: 0000 0000 0000 0000 0000 0000 0000 0000
000002b0: 0000 0000 0000 0000 0000 0000 0000 0000
000002c0: 0000 0000 0000 0000 0000 0000 0000 0000
000002d0: 0000 0000 0000 0000 0000 0000 0000 0000
000002e0: 0000 0000 0000 0000 0000 0000 0000 0000
000002f0: 0000 0000 0000 0000 0000 0000 0000 0000
00000300: 0000 0000 0000 0000 0000 0000 0000 0000
00000310: 0000 0000 0000 0000 0000 0000 0000 0000
00000320: 0000 0000 0000 0000 0000 0000 0000 0000
00000330: 0000 0000 0000 0000 0000 0000 0000 0000
00000340: 0000 0000 0000 0000 0000 0000 0000 0000
00000350: 0000 0000 0000 0000 0000 0000 0000 0000
00000360: 0000 0000 0000 0000 0000 0000 0000 0000
00000370: 0000 0000 0000 0000 0000 0000 0000 0000
00000380: 0000 0000 0000 0000 0000 0000 0000 0000
00000390: 0000 0000 0000 0000 0000 0000 0000 0000
000003a0: 0000 0000 0000 0000 0000 0000 0000 0000
000003b0: 0000 0000 0000 0000 0000 0000 0000 0000
000003c0: 0000 0000 0000 0000 0000 0000 0000 0000
000003d0: 0000 0000 0000 0000 0000 0000 0000 0000
000003e0: 0000 0000 0000 0000 0000 0000 0000 0000
000003f0: 0000 0000 0000 0000 0000 0000 0000 0000
0.0 0.0 1.52104e-40 0.0 0.0 0.0 0.0 0.0
0.0 0.0 0.0 0.0 0.0 0.0 0.0 0.0
0.0 0.0 0.0 0.0 0.0 0.0 0.0 0.0
0.0 0.0 0.0 0.0 0.0 0.0 0.0 0.0
0.0 0.0 0.0 0.0 0.0 0.0 0.0 0.0
0.0 0.0 0.0 0.0 0.0 0.0 0.0 0.0
0.0 0.0 0.0 0.0 0.0 0.0 0.0 0.0
0.0 0.0 0.0 0.0 0.0 0.0 0.0 0.0
0.0 0.0 0.0 0.0 0.0 0.0 0.0 0.0
0.0 0.0 0.0 0.0 0.0 0.0 0.0 0.0
0.0 0.0 0.0 0.0 0.0 0.0 0.0 0.0
0.0 0.0 0.0 0.0 0.0 0.0 0.0 0.0
0.0 0.0 0.0 0.0 0.0 0.0 0.0 0.0
0.0 0.0 0.0 0.0 0.0 0.0 0.0 0.0
0.0 0.0 0.0 0.0 0.0 0.0 0.0 0.0
0.0 0.0 0.0 0.0 0.0 0.0 0.0 0.0
0.0 0.0 0.0 0.0 0.0 0.0 0.0 0.0
0.0 0.0 0.0 0.0 0.0 0.0 0.0 0.0
0.0 0.0 0.0 0.0 0.0 0.0 0.0 0.0
0.0 0.0 0.0 0.0 0.0 0.0 0.0 0.0
0.0 0.0 0.0 0.0 0.0 0.0 0.0 0.0
0.0 0.0 0.0 0.0 0.0 0.0 0.0 0.0
0.0 0.0 0.0 0.0 0.0 0.0 0.0 0.0
0.0 0.0 0.0 0.0 0.0 0.0 0.0 0.0
0.0 0.0 0.0 0.0 0.0 0.0 0.0 0.0
0.0 0.0 0.0 0.0 0.0 0.0 0.0 0.0
0.0 0.0 0.0 0.0 0.0 0.0 0.0 0.0
0.0 0.0 0.0 0.0 0.0 0.0 0.0 0.0
0.0 0.0 0.0 0.0 0.0 0.0 0.0 0.0
0.0 0.0 0.0 0.0 0.0 0.0 0.0 0.0
0.0 0.0 0.0 0.0 0.0 0.0 0.0 0.0
0.0 0.0 0.0 0.0 0.0 0.0 0.0 0.0

weight f4 [64, 64]
00000000: 5b88 8b3e 7a6b 8cbd 36a2 173f e8ef 9a3c
00000010: 4673 773e c7a3 e83c 38cb f1bd 8aee 5e3d
00000020: e792 bb3d 00cc e3bd 7e3d 7ebd 6222 33be
00000030: e346 663e 7053 5cbe 41e2 c63c df58 043e
00000040: e970 b53c 3037 98be 4013 4ebe dea0 e4be
00000050: 2deb 07be 32dd 02be e289 163d 554c 353e
00000060: a078 f9bd 0639 1f3e 9f9e 42bd 56cf 143e
00000070: 9f00 a63d b7b0 8c3d a6a8 cfbe fc2c e73c
00000080: fbfc 9cbd d9aa 7dbf 7670 623e 8379 d63e
00000090: 656f adbd 014a 9cbd 2e3d b83e dc50 75be
000000a0: d5c6 88be fde1 af3d b389 74bc 4ac9 b33d
000000b0: 5db3 7b3e 311f dabd 107a febc 9d45 043e
000000c0: 290a f83d 0128 053f 444f 683e 43f3 7e3d
000000d0: e0d0 8c3d 70cd 96be 1ec9 563e 1aa2 dc3d
000000e0: 1d67 29be c3ab 3a3e 1ad2 2e3d 8be5 a53d
000000f0: d1fe 34be 6d70 0ebf 6d1d 66bc 7f07 f2bd
00000100: 0b06 ee3c 8e01 4abd e50a 59be 2835 85bd
00000110: 0697 563e 0da6 97bd d1e0 bdbd bdbe 59bd
00000120: 1841 1abd 6940 573e 3667 183e 08fd f53d
00000130: 6984 93be e313 9bbe 9aa3 8cbe 5c2e 223e
00000140: 5c14 5dbd 3417 8cbd 593b 723e 7bb1 4a3e
00000150: 16f6 71be 4c32 933e 28b3 843d 7bd0 f5bd
00000160: 2ad9 f0bd af19 3cbc 5df6 f63e f988 9d3d
00000170: f881 9e3d 862e 833e a873 b53c 8f70 b03d
00000180: dfbd c3be b59e d5bd c515 1c3c 0914 34be
00000190: e4d0 84bc f3e8 84be 1dbd 68be 9b27 ab3d
000001a0: ec92 38be c3b2 5dbe 18d0 723e 1aa9 9a3e
000001b0: 64ec 7fbe fc00 a83c 860a 36bd 210a 9b3b
000001c0: dd8a ecbd b827 dfbd 129b d03b 6f75 393b
000001d0: c849 9fbd 55ed 513d c53d ddbd 40ca 273e
000001e0: 3f5d 4a3e 2366 16be 91c3 6b3e 00b9 963c
000001f0: 9746 273e f266 02be 8d2e a3bd 70ee 893d
00000200: b870 ba3e a6e1 febe 2774 5b3e 11b8 21be
00000210: 8cc6 a8be 4eef a53e d351 98bc 9849 bd3e
00000220: 704c bfbd 47d7 593d 822c 1fbd 93f9 86bc
00000230: 7082 cf3d 9011 d53e e008 953e 1cfb db3e
00000240: c841 993e 7ba4 103e 82c4 97be c445 6dbe
00000250: fad3 4dbf e651 9d3e ef76 cdbe 948c 95be
00000260: e541 8c3e b1d3 d8bc b577 14bc 943a 333d
00000270: e47c 2f3e ab11 a03e 8cbf 4abe a8d6 893e
00000280: c4e8 0abe 9759 c1be 9b30 d8be fc3e 7abe
00000290: fcd8 31bc 00de 743e 67c3 ed3d 83bf a13d
000002a0: 3eb4 0d3e c93e 25be 391f 6d3d 75cc 303d
000002b0: 3f95 15bd 48de 6ebe 23e3 a23e 2570 9cbd
000002c0: 8b1a 9fbd 84f8 ea3d 9ebf eebe 766d 3fbf
000002d0: 592b 80be 7174 3e3d 19fc a33e ea72 1e3e
000002e0: 38bd e33c b439 eebc 2a69 7ebe c36c 37be
000002f0: fdef 81bc f428 f5be 681c 92be 1c75 803e
00000300: acc7 433d 2195 0cbd bc77 5fbe e748 323e
00000310: 3b4c df3d b7bc 04bf 0dc2 9e3d efcb 913e
00000320: 2458 0ebe 548f 1cbd 59bd 413e b676 acbd
00000330: 3b61 0bbe 7ad6 873d bddd 2f3e 8996 cbbb
00000340: 8763 dabd e28f 2a3e 595f 1d3d fcb2 abbd
00000350: 9f45 29be 07a0 82bd e4d0 223e c401 1e3e
00000360: 8cb0 943e d263 813e f267 783e f0e9 98bd
00000370: 535a b63c 330d 623d cd16 ccbd fad3 593a
00000380: b7cd 843e cbf5 0ebe 3ebb 333e 806c b53d
00000390: 5f16 8e3d 61a5 df3c df76 d03d 6703 17be
000003a0: 1b52 babe debe 6d3d 04b5 b73d d6d6 d9bd
000003b0: 3b3f ec3d 3795 973c 29fb 7c3e 8a12 4e3e
000003c0: 164e b53c d029 61bd 7c46 f13d e15e 7b3d
000003d0: 4cdf ae3d 6ee3 80bd 9dec c83d 2597 c43d
000003e0: 3211 5abe 63e5 ffbe f63e ed3e f5c5 bc3d
000003f0: 5c29 62bd f90d 963d 8990 63bf f537 8c3e
0.27252468 -0.06856437 0.5923189 0.018913224 0.24165067 0.028398408 -0.11806339 0.054426707
0.09158879 -0.11122894 -0.062070362 -0.17493585 0.22487979 -0.21516204 0.024277808 0.12924527
0.022148566 -0.29729605 -0.20124531 -0.44653982 -0.13273306 -0.12779692 0.03675259 0.177049
-0.121812105 0.15549096 -0.047514554 0.14532217 0.08105587 0.06869643 -0.40558356 0.028219692
-0.0766544 -0.9908882 0.22113213 0.4188958 -0.084685124 -0.076313026 0.35984176 -0.23956627
-0.26714197 0.08588026 -0.014925408 0.08778627 0.2458014 -0.106504805 -0.031064063 0.1291718
0.12111313 0.52014166 0.22686487 0.06224371 0.06875777 -0.2945361 0.20975158 0.10773106
-0.16543241 0.18229584 0.042680837 0.081004225 -0.1767533 -0.556403 -0.014045102 -0.11817836
0.029055616 -0.04931789 -0.21195562 -0.065042794 0.20956048 -0.074047185 -0.09271396 -0.053160418
-0.037659734 0.21020664 0.14883122 0.120111525 -0.28811958 -0.3028861 -0.27468568 0.15837997
-0.053974494 -0.06840363 0.23655452 0.19794266 -0.2362903 0.2874931 0.06479484 -0.12002655
-0.11760171 -0.011480733 0.48234835 0.07692141 0.07739633 0.25621432 0.022149876 0.08615219
-0.38230798 -0.104306616 0.009526675 -0.17585768 -0.016212888 -0.25958976 -0.22728391 0.083571635
-0.18024796 -0.21650223 0.23712194 0.3020714 -0.2499252 0.020508282 -0.04444363 0.004731432
-0.115499236 -0.108962476 0.006366142 0.0028298756 -0.077777445 0.051251728 -0.10802797 0.16385746
0.19762133 -0.146874 0.23023821 0.018398762 0.16335522 -0.12734583 -0.07967863 0.067349315
0.36414123 -0.4978153 0.21431027 -0.15792872 -0.3296398 0.32409137 -0.018593704 0.3697021
-0.09340751 0.05318382 -0.038860805 -0.016476428 0.10132301 0.41614962 0.29108334 0.4296502
0.29933 0.14125244 -0.2964211 -0.23171145 -0.80401576 0.30726546 -0.40129802 -0.29208815
0.27394024 -0.02646813 -0.0090617435 0.043757036 0.17137486 0.3126348 -0.19799632 0.26921582
-0.13565356 -0.37763664 -0.42224583 -0.24438089 -0.010854956 0.23912811 0.11609536 0.07897856
0.13838288 -0.16137232 0.057891104 0.043163735 -0.036519285 -0.23326981 0.31813917 -0.07638577
-0.077687345 0.11473182 -0.46630567 -0.747764 -0.25033072 0.046497766 0.32028273 0.15473524
0.027800187 -0.02908025 -0.24844804 -0.17912583 -0.015861506 -0.47882807 -0.28537297 0.25089347
0.047797844 -0.034321908 -0.21823019 0.17410623 0.10903212 -0.51850456 0.07751856 0.284759
-0.1390081 -0.038222626 0.18919887 -0.0842108 -0.13611309 0.06632705 0.1717443 -0.0062130135
-0.106635146 0.1665645 0.03842101 -0.08383748 -0.16530465 -0.06378179 0.15899998 0.15430361
0.29040945 0.2527147 0.24258402 -0.07466495 0.022259867 0.05518837 -0.099652864 0.000830948
0.25938198 -0.1396095 0.17551896 0.08858585 0.06937861 0.027300538 0.10178923 -0.14747392
-0.36390767 0.058043353 0.08970073 -0.1063668 0.11535498 0.018503768 0.24705185 0.2012426
0.02213196 -0.054971516 0.11781022 0.06136978 0.08538684 -0.06293379 0.098107554 0.09599141
-0.21295622 -0.49979696 0.46337098 0.09217445 -0.055215225 0.07326884 -0.8889242 0.27386442

bias f4 [64]
00000000: 244a 2ebd 6ee0 c43c 94ae af3d c944 ecbb
00000010: 3ab5 523e 3ee5 f4bd 3ecd cdbd 3406 e23d
00000020: 81a8 c33e 6af8 0d3e f8d3 c1be d9e9 983b
00000030: caae 993d 1ff6 083e 5266 3d3e 3310 39be
00000040: e725 8f3e 933b 453e 120f a93d 5bf2 49be
00000050: 97dd 343d 78ee ab3e 72f2 a13c a16b a7bd
00000060: 6e7e 233e b961 a93d 5642 09bf 8e2e 3c3f
00000070: a2a7 0cbf 6ffe 593d 4951 d23e 31a1 26ba
00000080: ab36 95be 1444 44be 4f16 a2bd a32a cf3d
00000090: a54a 353d 63ec 8d3e a43c d93e 6bfb 383e
000000a0: 57b2 75be 4c70 93bc 5b98 71bd 5902 423e
000000b0: e1d0 e43e 338a dabd e6f7 263e 52cb 183f
000000c0: 6ce8 e53d 45db 84be add4 4fbc e74e 813e
000000d0: eed0 ec3e 49ad f6bd 114c ef3b 1eee 9ebe
000000e0: c521 4b3e f359 e33d 9ae1 b0bd 5273 063c
000000f0: 3c18 8a3e c8cc 09bf 81d7 d73b f8a7 fc3d
-0.042551175 0.024032798 0.0857822 -0.0072103483 0.20576945 -0.11957787 -0.100489125 0.110363394
0.38214496 0.13864294 -0.37857032 0.0046665487 0.075040415 0.13375138 0.18496063 -0.18072586
0.27958605 0.19261007 0.082548276 -0.19721358 0.044156637 0.33580375 0.019768927 -0.081748255
0.15966198 0.08270592 -0.53616846 0.73508537 -0.5494329 0.053221162 0.4107764 -0.0006356417
-0.2914327 -0.19166595 -0.07914411 0.10115554 0.04426064 0.2771941 0.42429078 0.18064658
-0.23993813 -0.017997883 -0.058983188 0.18946208 0.44690612 -0.10670891 0.16305503 0.5968524
0.112259716 -0.2594854 -0.012684983 0.2525551 0.4625315 -0.1204477 0.007302769 -0.31041044
0.19837101 0.11101141 -0.0863678 0.008206205 0.26971614 -0.53828096 0.0065869694 0.12336725

weight f4 [64, 89]
00000000: ddb6 c93d b277 1b3f ab59 3d3f cc8c adbe
00000010: 98be 503e 1687 1d3e ea12 8b3c ba2f 283e
00000020: 36b8 56be 7f75 043d 12b7 043e 27a7 f8be
00000030: 8aea fabd 7a63 163e 342d 98bd ca32 f2be
00000040: 5eaa dfbe bb9b 01bf 75cd a8be 9cb9 5c3d
00000050: be61 2fbe 054d 433f bcaf 10bf 9ade 79be
00000060: 4b6b 453f dd4e 26be 2920 4d3d b28a cb3e
00000070: f9ff 4f3f 5bd9 8a3e 50b7 133e 901e 1d3e
00000080: b295 1f3d 2984 67be cf4e 1b3e 8be6 55bd
00000090: a5e6 0c3f ce47 54bc c7f5 cebd a169 fcbe
000000a0: fa19 353b 7774 1a39 91aa bc3f 96be a0bd
000000b0: fced 0f3e f511 333f 015a 193d c784 1bbe
000000c0: 40b7 373d b49b 763f 4a6b 8d3e f6d7 c3bd
000000d0: da04 883d 69b6 233c fb78 b53d 5e06 30bc
000000e0: 1037 b1bc 2ab7 923d cf9a 0a3d 3231 0cbd
000000f0: 46eb 353c fd2a 433d bb59 56be ae83 bdbd
00000100: 1272 86bd 7132 46bc a6ef 9c3d d488 02bd
00000110: ad42 e8bb d9dc cabc d136 e9bc 890c bfbd
00000120: c63c 92bd 4f25 40bd 0bc9 9dbd 2f3c 3d3d
00000130: 2031 b13d da4d a1bb cf23 cbbd e02c 32bc
00000140: c148 243d 7b62 943c 292b 983d 8019 49bc
00000150: 2f6f f8bc b0ff 953d 34ba 963d 778e a7bd
00000160: 900c 913d 5455 c5bc 2ec2 003f 6575 e53d
00000170: db4f 323d 990b 91be 26fa fcbd 594a 033e
00000180: d0d0 993e b3d3 b93d 2327 f13d 9f97 e83d
00000190: 4f33 c53c bcc1 eb3e 8f2c 0fbe 7b8a a73e
000001a0: b0f1 e6bc b685 d3be 17c0 0fbf e2df dc3e
000001b0: fefa 3f3e cf69 2fbf 9f12 2bbe d402 46bf
000001c0: 4c71 63bf c1f1 a7be 771e 88be 89f9 57bf
000001d0: eec3 52be 3e8f 9abe 6bc3 63be 6de8 bc3d
000001e0: 6538 70be 4750 8c3e c831 70be 6632 16bf
000001f0: 01c3 593e b863 c8be c553 63bc 5dbd 2f3d
00000200: 527d bfbe d269 b3bd af42 5d3b e03b c8be
00000210: 8d8a a83d 4efc 983e 0f1e 08bf 6e70 82bd
00000220: 1906 efbd f9e5 433e 0a26 66be 7120 abbb
00000230: 9940 d83d 42b9 86bd c0e0 bcbd db38 89bd
00000240: c3b6 f83c fec2 babd b7e3 1f3d 7e89 c2bd
00000250: 7c44 a33c b14d 613d 5117 31bc 8852 10bd
00000260: d18d 5fbd 78e9 b93d f7fb 17bc c8a7 663d
00000270: 1566 1a3e 3b4e 883d 1ef2 0cbd 3374 5d3d
00000280: d105 cdbd 3951 ab3d ab69 3c3c d448 82bd
00000290: 5905 35bd 301c 56bd a43b 1f3e c873 343d
000002a0: d404 523d 2954 bb3c 8719 88bd 3c06 a23d
000002b0: 9f35 bc3c 2a52 8c3c c7fb 47bb 2386 c13d
000002c0: ceec fcbb 153f 7b3d fc40 3abc a168 d53d
000002d0: 15d7 393e 4ff4 6f3e 3812 283e 195f 1f3e
000002e0: 294d f0ba 4ea9 78bd 56b0 c0bc fa81 c23c
000002f0: b529 8ebc 8def 95bc 6e89 1d3e 63a0 fcbe
00000300: 5cbb 1bbe 3b9d 2ebe b1d9 a4be aeda 0abf
00000310: f563 a2be d532 84be 865b 51bf dfef 81bd
00000320: 15c0 26be 1fd8 77bf e52e 39bf c967 06bf
00000330: 952a 34bf 0da5 403e 9188 bfbf c273 b0bf
00000340: c76a d1be 70ff debe 06a7 1e3f 8752 4cbe
00000350: f1e2 67be dd0d 01bf bc08 f5bd 7308 0abf
00000360: 16c3 003d 8720 44bf fe10 f939 8dd8 c3bd
00000370: f9a9 c0be c45f 50bf 0fdd e4be 1790 21bf
00000380: 77e2 44bd 0586 3abc 7b2d 3a3d 2bef 1ebc
00000390: b4d5 8cbd e506 9cbc 1fc1 e93c aaf1 ab3d
000003a0: 0b24 fcbb f719 e63c c742 323d 9173 ae3c
000003b0: 849c 2fbd 5bdd 983d ac1c 9fbd 2c43 b1bd
000003c0: 49b6 40bf aebe d43d 34db 27bc 9f9a 353d
000003d0: bed6 553c b7af fc3c 0202 8abd 0fdd 7a3d
000003e0: f8c1 aabc e337 a43c 26be 923d 7b1f c3bd
000003f0: b276 69bd ebfe aabc 7915 a7bd 2fb9 71bd
0.098493315 0.60729516 0.7396495 -0.33896482 0.20385206 0.15383562 0.016976792 0.16424456
-0.20968708 0.032338616 0.12960461 -0.48565027 -0.12251766 0.14686385 -0.07430497 -0.47304374
-0.43684667 -0.5062825 -0.3296925 0.05388795 -0.1712713 0.762894 -0.5651815 -0.24401322
0.7711684 -0.16241021 0.0500795 0.39754254 0.8124996 0.27118954 0.14425397 0.1534369
0.03896112 -0.22609009 0.15166782 -0.052221816 0.55039436 -0.012956573 -0.10105472 -0.49299338
0.0027633891 0.00014729971 1.4739553 -0.078488514 0.14055628 0.69949275 0.03743935 -0.1518737
0.044852495 0.96331334 0.27620918 -0.09562676 0.0664155 0.00999222 0.08860966 -0.010743706
-0.021632701 0.07163842 0.033839043 -0.034226604 0.011103457 0.04764842 -0.20932667 -0.092536315
-0.06564726 -0.012096987 0.07662897 -0.03186877 -0.0070880265 -0.024763511 -0.028468521 -0.09328563
-0.07140498 -0.04691058 -0.077043615 0.046199974 0.08651948 -0.0049226107 -0.09918939 -0.010874957
0.040108446 0.018113365 0.07430107 -0.012274146 -0.030326454 0.07324159 0.07359734 -0.0818147
0.07082474 -0.02408854 0.50296295 0.11204032 0.043533187 -0.2832916 -0.123523995 0.1282133
0.30042124 0.090735815 0.11775043 0.113570444 0.024072317 0.46046245 -0.13981842 0.3272284
-0.028191417 -0.4131295 -0.5615248 0.4313956 0.1874809 -0.68520826 -0.16706322 -0.77348065
-0.8884475 -0.3280163 -0.26585743 -0.84365135 -0.20582554 -0.3018741 -0.22242515 0.09224019
-0.23459013 0.27404997 -0.2345649 -0.5867065 0.21265794 -0.3913858 -0.013874953 0.0429052
-0.374003 -0.08760418 0.003376167 -0.3910818 0.082295515 0.29879993 -0.53170866 -0.063691005
-0.11671085 0.19130696 -0.22475448 -0.005222373 0.10559196 -0.06578304 -0.09222555 -0.067002974
0.030360585 -0.09119223 0.039035525 -0.09498881 0.019930117 0.055005733 -0.010808782 -0.035234958
-0.054578606 0.09077734 -0.009276382 0.056312352 0.15078004 0.06655546 -0.03441059 0.054065894
-0.10010875 0.08365101 0.011499803 -0.06361547 -0.044194553 -0.052272975 0.15550095 0.04405573
0.051274136 0.02286728 -0.06645494 0.07911345 0.022974787 0.017129023 -0.0030515061 0.09449413
-0.007718659 0.061339457 -0.011368033 0.10420347 0.18148454 0.2343304 0.164132 0.1556362
-0.0018333542 -0.060708337 -0.023521584 0.023743618 -0.017353872 -0.018302703 0.15384457 -0.49341115
-0.1520819 -0.17052166 -0.32197335 -0.5423993 -0.31716886 -0.25820032 -0.8178028 -0.0634458
-0.16284211 -0.9681415 -0.7233718 -0.52502114 -0.70377475 0.18812962 -1.4963552 -1.3785326
-0.40901777 -0.43554258 0.6197361 -0.19953357 -0.22645165 -0.5041178 -0.119645566 -0.5391914
0.03143605 -0.7661213 0.0004750564 -0.09562788 -0.3762968 -0.81396127 -0.44699904 -0.6311049
-0.048067536 -0.011384492 0.04545353 -0.009700577 -0.06876698 -0.019046256 0.02853447 0.08395703
-0.0076947263 0.028088553 0.043520715 0.02129534 -0.042873874 0.07464095 -0.077691406 -0.0865539
-0.75278145 0.10387932 -0.010245133 0.04433691 0.013051687 0.030845506 -0.06738664 0.061245974
-0.020844445 0.02004618 0.07165174 -0.09527489 -0.056997962 -0.020873507 -0.081583925 -0.059014495

bias f4 [64]
00000000: 724e c63c 9d66 2fbd 227a 03be 7d5f c5bc
00000010: 5662 143e 5bb2 33be f09c 993c 9e3f 033e
00000020: eb95 f0bd 80c0 b13d aade a23d c8be 283c
00000030: 3413 1c3d f34b 553d 714c 6d3d 0371 4bbc
00000040: 062f fd3d 74df 903d 467b 98b9 e96b 10bd
00000050: 5ed9 03bd bfa6 133c 50d6 913b 098a 95bd
00000060: 0ff6 2abd d3df 93bc 251b 21bd f03f 743d
00000070: 8675 823c 2eb0 693d ca3d d6bc 9bd9 e9bd
00000080: 9375 b83c 6c41 683d da11 883c 13bc b4bd
00000090: 8589 72bb f436 3b3d 399c 773b 011d 4d3d
000000a0: c5af 6b3d a30b 5cbd 1bca d1bd 598e f3bd
000000b0: 9775 8a3d 334c 943c e1b9 4f3d 7b5c dfbd
000000c0: a116 4c3c 7a5c ad3b f737 a23a e1db 06be
000000d0: ed76 c7bd 607b ef3d 176d 303d a479 023d
000000e0: a807 443d 30eb 0cbc 00f7 c6bd 7ed3 9abc
000000f0: be8a 09be 0b9f 3c3c f7e8 7cbd b9c3 4a3d
0.024207328 -0.04282247 -0.12839559 -0.024093384 0.14490637 -0.17548506 0.018751591 0.12817237
-0.117473446 0.086792946 0.07952626 0.010299392 0.03810425 0.052074384 0.05793423 -0.012417081
0.12362485 0.0707387 -0.00029083545 -0.03525916 -0.03218972 0.009011923 0.004450597 -0.07301719
-0.041738566 -0.018051064 -0.039332528 0.059631288 0.01592518 0.057052784 -0.02615251 -0.11418458
0.022517001 0.056703016 0.016610075 -0.08824935 -0.0037008238 0.045706704 0.0037782325 0.05007649
0.057540674 -0.053722035 -0.10243627 -0.11892385 0.0676071 0.01810274 0.050714377 -0.10906311
0.012456567 0.005290565 0.0012376298 -0.13169815 -0.0973948 0.11693454 0.043072786 0.031854287
0.047858864 -0.008600995 -0.0971508 -0.018899675 -0.13431832 0.011512528 -0.06174561 0.049503062

weight f4 [64, 64]
00000000: 9c6d f5bd f262 673e 2b94 61bd 6e70 7bbb
00000010: 6b33 c5bd 8b48 523e 41ce 923d a13d 113d
00000020: 48b1 2fbd daf3 80be 0d1d 8dbd 5001 223e
00000030: 9b32 4cbd bd00 87bd 8d89 533e e784 543e
00000040: 3e79 bdbd cf9f 05be 7e05 e13d 823b 1c3e
00000050: c767 8dba 89d6 bd3d 5026 b83d caa9 9c3e
00000060: 7063 803e 2d7f 2abe e87b e4bc 6753 2cbd
00000070: d722 83be 44fa 9a3d be81 843d 4ad5 323e
00000080: 4d87 143e 3b59 11bd 74f3 7bbe 925e 0a3e
00000090: 6bae 5abe 8409 a73e 7b30 c9be cd19 14be
000000a0: 918a bd3b 7460 9b3e 92c5 973e 224f 2f3f
000000b0: e8a1 743d 8a2f 043a 468f b83d a3f4 583e
000000c0: 3429 45bd cbd2 c03e 9876 4fbe ef0f 923e
000000d0: e3cb 2c3e 0987 d03d 0019 f5bc 59e6 a1bd
000000e0: 8c43 6f3e 7718 bebe 7a60 bf3e caa3 35be
000000f0: 721e bcbd 0001 093d 8bdf 9ebd c904 1dbe
00000100: d451 45bd bf1a b4bd 836a d0bc 5e53 1f3e
00000110: cad9 26be 04fd 053c e8cc ac3d e605 2bbe
00000120: 5ae2 133d 9865 f8bd 8258 003e e8e1 07be
00000130: a0b3 c0bd da36 bbbd 4af8 a0bd 479c 173e
00000140: 3ffb 03bc 23a9 073e eda9 68bd 7e10 5e3e
00000150: ed59 083d 2e5c 953e af94 20bd aa4e cb3d
00000160: 51f8 6c3d b725 f9bc c834 133e 9082 11bc
00000170: 7753 91be abd3 90bd f601 d83d 23d5 5d3d
00000180: eef1 703e 0d38 2cbe 64b8 3ebe 8167 453e
00000190: 4dd3 e5bc 184f b13d c661 0c3d 744b 2c3e
000001a0: 56c6 4d3d 1947 583e e114 393e 114d 9a3d
000001b0: d887 d43d 7e5f bcbd dcff 16be 607b de3e
000001c0: eb54 903d e907 063e 4718 56be 02f0 88bd
000001d0: dd34 153e 9c9d 6d3d 0370 573e 2592 88bc
000001e0: 0bc3 b43e 4724 fbbd 004d a13e 4be2 373e
000001f0: e713 bd3d 5ee6 e5ba c8f6 b2bd 8ca5 95bd
00000200: b489 183d 657b 8d3e 33d6 063d da18 e2bd
00000210: 40e4 12bd 1ff2 64be cfb2 c03c d47f 163e
00000220: f8cc 843e d658 56bd 350a ad3c e1c3 b13d
00000230: 1b5c 83be c310 bcbe fefd 8b3e 3f19 983e
00000240: b04e f0be 1fd0 4bbe c8d4 c83d a6ce 89be
00000250: b9a8 3c3e 1c2e 453d 4dab 80be 6ce1 8f3e
00000260: ee10 ddbd a210 8f3e c0a6 143d cb12 98bb
00000270: b152 eb3e 6d4a af3d 86f9 c7be f584 6dbe
00000280: 168c f2bd 3356 343d 5779 4bbe 1cdb 8ebe
00000290: db97 b1bc 9e46 d8be 7c7a 35be aa9a 0e3c
000002a0: 08a8 b6be b929 843e 70ca c9bd d9b7 753e
000002b0: cd40 473d c625 3ebe 135b 373d 93e7 063d
000002c0: d195 93bd 6852 543e 903b a73c a4a8 5cbd
000002d0: 7391 b93e 4af1 19bb 814f 523e 6d97 013e
000002e0: d696 d53d 5816 023e 81dc d43d eacc b53d
000002f0: 46d4 a63d fa32 90be daef 56be ed2a 8c3d
00000300: 0f58 a13e 2f6d c73e e814 c0bc b3fa afbd
00000310: 49b5 09be b423 583e 3659 8a3e ff0a 91bd
00000320: d1d5 abbd ada2 6ebb 29fd ce3e 34ce c7bd
00000330: 2a0b 4d3e a574 04be 51f2 e03d b64c b43e
00000340: 535f b23c d005 68be 6b75 23be daec 05be
00000350: 7312 0c3d c927 debd 0e88 083e b261 4fbc
00000360: 28b0 fd3c 243a 7cbe 9b28 5a3e 47a1 0ebe
00000370: 85fa c43d f48c e43d 0c7d 3abc c184 483e
00000380: 093a f33d f8c3 abbe 35f7 c4bd 6b7d 663e
00000390: 0be7 debd 48ee 073e 6659 f93d 76da 963e
000003a0: 4a12 87be 6747 6ebd 3ee7 463e f4aa 833b
000003b0: dc86 033e 0bae f93c 12fd 383f 9373 85be
000003c0: 6809 563e 48ba a1bd b5c3 2d3e ed22 81bd
000003d0: fe3e 3739 3202 033c d0c7 263e dfb1 f13d
000003e0: 8814 303d 6c66 66be 7840 8b3c d294 ed3e
000003f0: 4fde 4abd 1a31 10be 8912 0b3e a0cb 393e
-0.11983797 0.22596338 -0.055072945 -0.0038366574 -0.09628948 0.20535485 0.07168246 0.035459165
-0.042893678 -0.25186044 -0.068903066 0.15820813 -0.04985295 -0.06591938 0.2065794 0.20753823
-0.09251641 -0.13049243 0.10987376 0.15257075 -0.0010788374 0.09269435 0.089916825 0.3059829
0.25075865 -0.16650076 -0.027891114 -0.042071726 -0.25612518 0.07567266 0.06470059 0.17464176
0.14504738 -0.035485487 -0.24604589 0.13512638 -0.21355598 0.32624447 -0.392948 -0.14462967
0.0057843407 0.30347025 0.29642922 0.6848012 0.05972472 0.0005042484 0.09011702 0.21187072
-0.048134997 0.37660822 -0.20260084 0.2852778 0.16874652 0.10182006 -0.029919147 -0.079052635
0.23365611 -0.3712804 0.37378293 -0.17738262 -0.091854945 0.03344822 -0.07757481 -0.15333857
-0.04817374 -0.08794164 -0.025441414 0.15559146 -0.16294017 0.008177999 0.0843752 -0.16701469
0.036104538 -0.121287525 0.12533763 -0.1326977 -0.09409261 -0.091413215 -0.078598574 0.14805709
-0.008055507 0.13248114 -0.05680268 0.21685979 0.033288885 0.2917189 -0.039204296 0.09927113
0.057854 -0.030413492 0.14375603 -0.008881226 -0.2838399 -0.070716225 0.10547249 0.05415834
0.23529789 -0.16818257 -0.18625027 0.19277765 -0.028054858 0.08657664 0.03427293 0.16825658
0.050237976 0.21120872 0.18074371 0.075342305 0.10377473 -0.09197901 -0.1474604 0.43453503
0.07047447 0.13088955 -0.20907699 -0.06686403 0.14570947 0.058011636 0.21038823 -0.01667125
0.35305056 -0.12262779 0.3150406 0.17957418 0.09232312 -0.0017539968 -0.08738476 -0.07306966
0.0372407 0.27633205 0.03291912 -0.11039896 -0.035862207 -0.22357987 0.023522763 0.146972
0.2593763 -0.052330814 0.021123031 0.08679939 -0.25656208 -0.36731538 0.27342218 0.2970676
-0.46935034 -0.1990361 0.0980621 -0.26915473 0.18423738 0.048139676 -0.25130692 0.2810167
-0.10794245 0.27942377 0.036291838 -0.004640912 0.45961526 0.085591175 -0.3905756 -0.2319525
-0.118431255 0.04402752 -0.19870506 -0.27901542 -0.021678856 -0.42241377 -0.17722505 0.008703867
-0.35675073 0.25813082 -0.09853065 0.23995914 0.048645783 -0.18569097 0.04476459 0.03293569
-0.072063096 0.2073456 0.020414144 -0.053871766 0.3624378 -0.0023489767 0.20538141 0.1265542
0.1042916 0.12703836 0.1039362 0.08876975 0.08145957 -0.28163892 -0.20989934 0.06844125
0.31512496 0.38950488 -0.023447469 -0.08592739 -0.13448061 0.2110737 0.27021188 -0.070821755
-0.083903916 -0.003641288 0.4042752 -0.09756127 0.2002379 -0.12935121 0.10983718 0.35214776
0.02177397 -0.22658467 -0.1596276 -0.13078633 0.034197282 -0.10847432 0.1333315 -0.01265757
0.030967787 -0.24631554 0.21304552 -0.1392871 0.09618095 0.11159697 -0.011382353 0.19581892
0.11876304 -0.3354795 -0.096174635 0.2250878 -0.10883912 0.13274491 0.121752545 0.29463547
-0.2638114 -0.058173563 0.1942415 0.004018182 0.12844414 0.030478498 0.72261155 -0.2606474
0.20902026 -0.078968585 0.16969188 -0.0630549 0.00017475706 0.007996129 0.1628716 0.11801504
0.04298833 -0.22500008 0.016998515 0.46402603 -0.049528416 -0.14081231 0.1358129 0.18144083

bias f4 [64]
00000000: c1a2 8dbe 1f13 6ebe 7653 7c3e e9a1 66be
00000010: 99cd f7bd f109 f83d bda7 f23d 95a6 5a3c
00000020: 38a6 c63e 4bd5 663e 4fe4 ba3d 50a9 8ebe
00000030: 7cb3 5abc 2cce bd3e 01bf d63e 0620 e83c
00000040: f31d 6a3a 7f96 9e3d fe6c 1cbe a15a 14bc
00000050: 5e62 263e c9c4 3a3e 6ef4 60be 894e 003d
00000060: 493b 28bd 9a19 d6bd 861e 1bbe 18db 7ebe
00000070: ee21 9bbe ed4c 81be 2907 a13c 40f7 9dbe
00000080: 10c7 763e 88ba 37bd 35f8 d3be 5da6 e4bc
00000090: 496d 16be 56c0 6fbe f02f 27be 9181 febe
000000a0: e562 03be d38a 57be 8d77 bbbd bb98 13be
000000b0: b552 02be 92c4 85be 2325 e7bd 80ae 823d
000000c0: 8738 073e 7c86 dbbc 9ebd 94bd 0869 33bb
000000d0: f1ff 9f3e d3a0 9fbe e42c 31be 5a4e 73be
000000e0: 582b 9cbe 73ac 77be 0958 233e 0a83 c53e
000000f0: a890 083e 88b3 773e b969 0cbd 7848 1e3d
-0.27663234 -0.23249482 0.24641213 -0.22522701 -0.120997615 0.12111271 0.118484 0.01334538
0.3879869 0.22542302 0.09125578 -0.2786355 -0.0133484565 0.3707136 0.419426 0.028335582
0.00089308544 0.077435486 -0.15275952 -0.009054811 0.16248462 0.1823913 -0.21968243 0.031324897
-0.041072164 -0.10454102 -0.15148363 -0.24888265 -0.30299324 -0.25254002 0.019656735 -0.308527
0.24099374 -0.044855624 -0.41400304 -0.02791136 -0.14690126 -0.23413214 -0.1632688 -0.49708226
-0.12830694 -0.21049051 -0.09153662 -0.14413731 -0.12726863 -0.26126534 -0.1128638 0.063809395
0.13205157 -0.026797526 -0.07262729 -0.0027375836 0.31249955 -0.31177387 -0.1730228 -0.23760357
-0.3050182 -0.24186878 0.15951551 0.38576537 0.13336432 0.2418958 -0.034280512 0.03864333

weight f4 [64, 64]
00000000: ad94 1a3f f36e d3bc 98fd b5bd 0cdc 803d
00000010: 3722 25bd 1405 9fbd a92a a53d e842 dcbe
00000020: 0467 b43d 761d 51be c14e 39bd a6ca 1c3e
00000030: e1f6 27bc a0fa c9bd 13ad b23d 7644 6abc
00000040: 126e 0dbe 8db4 1cbe 1a21 3a3d 113a 893d
00000050: 6f93 bebe 3ff2 753e 3b1b c0be 121c 34be
00000060: 264c 17be 7eb9 bdbe 5fab 2c3d e14f 28bd
00000070: d027 dfbe 875e a43c 95f8 773e 4e24 c6bd
00000080: caa0 903e e107 79be 268f d93d d90f e33d
00000090: 584f 023d cb85 a43d 6cee bbbe a094 8d3e
000000a0: 4a91 98bd 4359 cb3e 9314 55bd 2b76 7b3e
000000b0: e22a acba 5d82 373c a448 86be b3f0 fb3d
000000c0: aa15 163e a0a3 a53d c2e0 6bbe 1f27 373c
000000d0: 5bb0 a83e 9062 88be 082f 7c3e 2d6d 173e
000000e0: 2052 c93d 4816 c3be a76b 213e 1f78 1abe
000000f0: c973 873e 07e4 0e3d 8eb1 a1bd a656 6abd
00000100: 6504 d5bd 5127 963e c5e9 5d3e 522f 273e
00000110: 47d4 aabd f7e3 153e fe41 403d 393e 52bd
00000120: f365 84bd deeb 24be 6708 613e f10d 9bbc
00000130: 2c58 043e e5bd 873d f168 acbd e185 75be
00000140: b4f9 853c ada0 ba3d f86b 0cbe 0267 993e
00000150: 65f9 2d3e e925 4fbe 1073 1e3e 2b3a 0a3e
00000160: f486 cfbe 462e a03e 3338 60ba fd80 06be
00000170: 4868 7ebe b0cc 863e 416e 2d3d f090 9f3c
00000180: 2b13 9a3e 3ded b23c 2749 5c3d 9423 0e3e
00000190: 1fb2 cebb b42b 1c3e 2740 d13e 36f2 e1be
000001a0: 266b f0bd 36e5 4bbe b942 9c3e cce1 4b3e
000001b0: 50af 883e 7f61 8a3d fce3 3b3e f2a9 273d
000001c0: 1fd7 2e3e ba67 e93e ba62 e23a 15f2 383d
000001d0: b6ac 093f 6e34 a1be 1f96 9abe bfb7 d43e
000001e0: 6b8f 5f3e 4656 a8bc d9bd f5bd 9728 413e
000001f0: e22f 2cbe 5b02 483e b676 48be c4fa 983d
00000200: 532a a2be 006d 163f 952a 043e 8e01 4cbe
00000210: b71d b1be 9594 833d 3fd3 c7be 87c7 2cbe
00000220: d483 2cbe 9215 dfbd ffce 653d af99 66be
00000230: 9aa9 7abe 04f4 143f 284e 61bd d1e0 babe
00000240: f00e 30bf f1cb aabe da8e 46be 2f3d bebe
00000250: 4f4a 633d 7503 b0be 73ab 873c eeff 123e
00000260: aca9 9c3e d2fc a1bc 0661 2bbf 4809 02bf
00000270: b856 063e d58f 1bbf fce1 12bf d12c e73e
00000280: 4818 febd 8641 12bf 7a19 72be 559a 31be
00000290: 9cc6 14be 5a3b 48be bc52 e7be 5ac7 8d3d
000002a0: 7be2 34be 9584 5abe 44b3 ebbe 8bc0 0bbe
000002b0: 2f76 2dbf 98d6 c2be 15c0 66bd 1846 39be
000002c0: 8865 95be a454 e63e 8168 d73e f4dc 713e
000002d0: 4867 b23e 8a07 bfbe e980 efbe 16f4 00be
000002e0: fc41 cc3c 623e 233f c56a a1bd 969a e3be
000002f0: fec7 ccbe 8330 dabd 3c19 253e bd38 7bbe
00000300: 3f8e f3be 2b16 433f bb6b 0e3e 97bb 31bf
00000310: 9e42 cbbe 4b83 73be 906d c6be 9fe4 b03e
00000320: fe77 c9bd c27d 08be ccb5 26be 8752 bfbe
00000330: b1a1 6e3d 372f 9dbe 5aa3 45be 2ac1 123e
00000340: e0e0 173c 5e88 89bd eff3 c1bd 1044 993e
00000350: 1a67 3fbd 9e0a a4bd 8b2f b13e 3fd7 5cbe
00000360: 0c1e ef3e d5fc cabe 0dd7 d23d 7e80 1bbd
00000370: 5e05 0fbe 35bf f6be 3e5e 64be c0a2 563f
00000380: 89f7 03bf 0dac 1abd b7ca a5be fe98 0f3f
00000390: 9d38 39bf df33 1cbf d770 373e 8535 d83e
000003a0: aac6 ad3c c8c8 18be b22f d7bd 3122 35bf
000003b0: c0ba 333d 3704 a8be c96a 0abf 59f7 cdbe
000003c0: 0293 ff3c 789e 36be c076 6ebe c344 2bbe
000003d0: fc7d e0be ad02 ebbe f47d c0be 0368 d5be
000003e0: 8825 d03e cafd 8d3e 01c9 abbe 48b6 c1be
000003f0: 6d66 1dbf befe 1d3e c5d0 74be 58aa c2bd
0.6038311 -0.02580974 -0.0888626 0.062919706 -0.040315833 -0.077646405 0.080647774 -0.43019795
0.08808711 -0.20421395 -0.04524112 0.15311679 -0.010251732 -0.09862256 0.087244175 -0.014298549
-0.1381152 -0.1530325 0.045441724 0.067005284 -0.37221858 0.24018191 -0.37520775 -0.17588833
-0.14775142 -0.37055582 0.04215562 -0.041091803 -0.43585062 0.020064605 0.2421592 -0.09674893
0.28247672 -0.24319412 0.106230065 0.11087007 0.03181395 0.080333315 -0.3670534 0.27652454
-0.07449587 0.3971654 -0.052021574 0.24556796 -0.0013135339 0.011200515 -0.26227295 0.12301769
0.14656702 0.080878496 -0.23034957 0.011178761 0.3294705 -0.26637697 0.24627316 0.14787741
0.09830117 -0.38102937 0.15763722 -0.15084885 0.26455525 0.034885433 -0.07895194 -0.05721154
-0.10401229 0.2932687 0.21671207 0.16326645 -0.0834127 0.14637743 0.046937935 -0.05132887
-0.06464758 -0.16105601 0.21975861 -0.018927546 0.1292426 0.066280164 -0.084184535 -0.23976852
0.01635442 0.09112678 -0.13713062 0.299614 0.16989668 -0.20229305 0.1547358 0.13498752
-0.4053265 0.31285304 -0.0008553296 -0.13135143 -0.24844468 0.2632804 0.042341474 0.019478291
0.3009275 0.02184164 0.0537807 0.1388076 -0.006307855 0.15251046 0.40869257 -0.44130105
-0.11739187 -0.19911656 0.30519655 0.19910353 0.26696253 0.06756877 0.18348688 0.040933557
0.1707425 0.4558695 0.0017271854 0.045152742 0.5377916 -0.31485313 -0.30192658 0.41546437
0.21832053 -0.02054895 -0.11999101 0.1886314 -0.16815141 0.19532149 -0.19576535 0.07469705
-0.31672916 0.5876007 0.12906869 -0.19922468 -0.34592983 0.06424824 -0.39028355 -0.16872989
-0.16847163 -0.10892786 0.05610561 -0.22519563 -0.2447876 0.5818484 -0.055006176 -0.36499646
-0.6877279 -0.3335872 -0.19390431 -0.37156054 0.055490788 -0.34377638 0.016561246 0.14355442
0.305982 -0.019773874 -0.6694492 -0.5079541 0.13119018 -0.60766345 -0.57376075 0.4515138
-0.12406975 -0.5713123 -0.23642531 -0.17344029 -0.14528888 -0.19553891 -0.4518031 0.06922789
-0.1766452 -0.21339639 -0.46035206 -0.13647668 -0.6775846 -0.38054347 -0.056335527 -0.18093145
-0.29179025 0.4498645 0.42071918 0.23619443 0.34844422 -0.3731044 -0.46778038 -0.12593111
0.024933808 0.63767064 -0.07881693 -0.44453877 -0.39996332 -0.10653784 0.16122907 -0.24533363
-0.47569463 0.762057 0.13908283 -0.69426864 -0.39699262 -0.23780553 -0.38755465 0.34549424
-0.0983734 -0.13329223 -0.16280288 -0.3736765 0.05825967 -0.30700085 -0.19300595 0.14331499
0.009269923 -0.06715463 -0.09470355 0.2993474 -0.046729185 -0.080098376 0.34606585 -0.21566485
0.4670261 -0.3964602 0.10294924 -0.037964337 -0.13966891 -0.48192754 -0.22301576 0.83842087
-0.51549584 -0.037761737 -0.32381222 0.5609282 -0.7235201 -0.6101665 0.17914139 0.42228332
0.021212894 -0.14920342 -0.10507144 -0.70755297 0.04387927 -0.32815716 -0.5406919 -0.40227774
0.031198028 -0.17833889 -0.23287487 -0.1672545 -0.43846118 -0.4590048 -0.37596095 -0.41680917
0.40653634 0.27732688 -0.3355179 -0.37834382 -0.61484414 0.15429208 -0.23907764 -0.09505147

bias f4 [64]
00000000: 4e81 873e 48ad 353e 92b6 f2bd caed 7dbe
00000010: 84bf 4f3e 1e61 d0be b63e 553e 9f4f d2be
00000020: 34c0 5a3e 623b 17be 4f00 a8bd ef81 96bd
00000030: 925a 6f3b ba1f 4dbd 5058 b43d df76 7dbd
00000040: 09be de3c 962c 2dbe f52c 3a3e d08c 2abf
00000050: a36d 423e 477b 9bbe 27d8 1e3e 78a9 683e
00000060: 5ba8 4b3d db9d 2bbe bd72 bcbe 3591 f43d
00000070: f0b7 bc3c d7c7 1e3e cf4e ec3d 57bc d83d
00000080: 5386 363e 3381 15bf 2442 223d fd88 3fbe
00000090: 37dd 043d 115f c83e fb04 873e 56d1 59be
000000a0: ab8b dc3d 7171 51bd d90e 2b3d 7e6a 7b3e
000000b0: e373 6c3d ca8b 2abe 1e6d be3d 8061 82bc
000000c0: 4ff8 753d da0e 083d e8d1 bcbc 290f 47bf
000000d0: e889 2f3e 0b99 0fbf 5d5a 4c3d 0a62 b2be
000000e0: 0384 3d3d 40ba a8bd 20f0 68be 089b bb3d
000000f0: 2255 513d fb50 0abe f059 82be 11dd 223e
0.2646584 0.17741883 -0.11851229 -0.2479774 0.20287901 -0.40699095 0.20824704 -0.4107637
0.21362382 -0.14768746 -0.08203184 -0.073490016 0.003652249 -0.050079085 0.08805907 -0.061880942
0.027190225 -0.1691154 0.18181212 -0.6662111 0.18987136 -0.3036749 0.15512143 0.22720897
0.049721103 -0.16759436 -0.36806288 0.119417585 0.023036927 0.1550592 0.11538469 0.10582798
0.17824678 -0.5840027 0.039613858 -0.187046 0.03243753 0.3913503 0.26370987 -0.21271262
0.10768827 -0.051133577 0.041762207 0.24552342 0.057727706 -0.16654888 0.09298156 -0.015915632
0.06005126 0.03321729 -0.02304931 -0.7775751 0.17142451 -0.560929 0.049890865 -0.34840423
0.046268474 -0.08238649 -0.2274785 0.09160429 0.05110658 -0.13507454 -0.25459242 0.15904643

weight f4 [64, 64]
00000000: 664b 383c 70c3 553d d844 b83d cbfe 1b3b
00000010: 793e 02bd 92ac df3d 8938 12be 790c 1f3d
00000020: a23f 16be 64cf 9abd bb32 2e3e fce5 1b3d
00000030: 91cd 303e ab09 b03e 1311 10be c990 76be
00000040: 0909 10bf b5ca 10be 5421 2fbe 4fc3 3dbd
00000050: 9118 10be b5cd 61bd 9439 42be 8732 4ebd
00000060: 392d febe f367 8a3c d806 87bd c2f2 863b
00000070: c3d0 b7be 0dd6 90be 053e 03be 2f45 483d
00000080: bea2 02bf c32e 58bd 31cc 23be f23d c1bd
00000090: 3a45 273e 8145 0d3e ba14 11be 76a1 023e
000000a0: ca2d d7bd d9db 853d 0a96 583e f9e0 523e
000000b0: 6974 9b3e 7c16 cd3d 8447 4dbd fb94 aa3c
000000c0: 74d9 93be c937 4ebd ecad 92be 1142 233d
000000d0: ae2a ffbd a33f 033e 2675 083e 41ae 77be
000000e0: 4444 6b3d c342 57be 6fea 66bd 1505 c8bd
000000f0: 6910 9dbe 14b8 59bd ef5b 2d3e a3bb a8bd
00000100: 4c4f 883d 6664 153e a96c 4c3f 7fa2 bfbd
00000110: c2e6 4abd 841c e8bc db38 93be d8d1 b43d
00000120: dd7a 8b3e a449 8cbe b1c5 283d aa02 29bf
00000130: c510 953e ab03 4e3e f29c 583f ba40 02be
00000140: 5716 59be ca24 47be 5a92 debe 6f54 1e3e
00000150: cb57 dabe 3dc9 843f 4301 7fbd 0f47 95be
00000160: 8b63 863f c461 47be 2a2e 99bd cec3 1b3e
00000170: 22b2 87bd 3580 15bf baa1 d3bc a6d2 83be
00000180: 23b8 b2be 2fef ddbc 15be 08be 0c2d 3ebe
00000190: 0539 d33e 7ca5 9cbd a360 363e 64f6 f1be
000001a0: ff59 d23d 0881 6bbd fbf4 b9be 2de3 01be
000001b0: 905a e13d 9e14 3ebe b8f6 42bb 19e1 29be
000001c0: d03a debe 6cfd 073e c5c5 8ebe 48b2 7e3e
000001d0: e7e4 1fbe 9a9f 88bd c78b ef3c a3c1 b33f
000001e0: a0db 003c 8744 023f 9769 143e ef2b 193e
000001f0: 0992 4f3e 5332 23bf 9ae9 e03d 1bba c5bd
00000200: e19d 5f3e fde7 0bbe 3a62 313f 216c 513f
00000210: bbbc bc3d d578 aebe 1458 a63e 3dde 99bd
00000220: ff73 7fbd 91c9 9a3e 6a28 22bd d579 283e
00000230: 62d6 e83e ade9 173f 15c5 aa3e 01b0 41be
00000240: cd03 b0be a1b0 843e 98e3 c93d 4894 c6bd
00000250: edd4 d8bd c982 d33d fe24 4e3e a615 5c3e
00000260: 2f10 3fbe 1481 b33e d72b ca3e d571 233d
00000270: ded5 b63d 1139 65be 99d2 9a3d 96a9 223e
00000280: e846 423e e060 313e fa5b ff3c a9c8 7b3e
00000290: 6b92 79bc 4aba 0b3d b323 db3d f78d 2f3e
000002a0: f677 0a3e f2f1 72bd 4571 6ebe 603e 1c3e
000002b0: 5e68 22bd b121 343e 83dc 63be 19cb 123e
000002c0: 8f9a b63e 51f3 05be 6cef 213e 197a 0ebe
000002d0: ffb6 4f3e 16e1 1d3e d579 853e 1997 113d
000002e0: aa52 8fbe 2179 93be 8395 a6bd 1b08 a73e
000002f0: 46dd 1ebd 2b1f 39bc 16a0 843e 7ce8 f13d
00000300: ff1e 87bd 5b7e d4bd 4415 72be 8028 5f3e
00000310: cf69 21bf d6af d43d 368c b7bb 8b4d a73e
00000320: 1d50 21bf f9e9 0dbe c680 a0be bff0 26bf
00000330: 744a 1e3f 6c50 863e 9cdd 3abf 5681 713d
00000340: ad40 3d3f 82be 323e 9d13 63be adb1 d1bb
00000350: ff83 0abe f889 2f3d d474 7a3d 57de 973d
00000360: 93b9 b1be e069 1d3f fb0b 0bbd 8a87 a5be
00000370: 3a19 d1be 9e19 823e 1864 04bf 9eaf 893e
00000380: 6c14 ddbc 667d c8bd 2f4f d03e 8a6d 14bd
00000390: 38fa 453e 45b7 a53d c7d0 39be ec67 6dbe
000003a0: f944 70be 195d 3cbe 5f81 823f 3532 a8be
000003b0: 55f2 48be 28db 043f 06c1 ef3d eb15 4b3e
000003c0: a30e 5abf e322 b93c 9aa8 dd3e 5dc4 06be
000003d0: 31a7 a8be 6aad 823d 2835 43be fa0c b03e
000003e0: b050 883e e43c 3fbd c522 393f e7f5 14bf
000003f0: 40fc 13bd 4fd9 ae3e ac53 053f 0da1 20be
0.011248445 0.052188337 0.08997506 0.0023802991 -0.03179786 0.10921587 -0.14279379 0.038830254
-0.14672711 -0.07559088 0.1701154 0.038061127 0.17265917 0.34382376 -0.14069013 -0.24078669
-0.56263787 -0.14139827 -0.17102557 -0.04632884 -0.14071871 -0.05512782 -0.18967277 -0.050341155
-0.49643877 0.01689527 -0.06593102 0.0041182945 -0.3590146 -0.28288308 -0.12816627 0.048894104
-0.51029575 -0.05277897 -0.15995862 -0.09435643 0.16335002 0.13796045 -0.14168063 0.12756905
-0.105067804 0.06536073 0.21150985 0.20593633 0.3036225 0.10014054 -0.05011703 0.020822993
-0.2887684 -0.05034617 -0.28648317 0.039857928 -0.124593124 0.12817244 0.13325939 -0.24187566
0.05743815 -0.21021561 -0.056375917 -0.09766594 -0.30676582 -0.053154066 0.16929601 -0.08238914
0.0665575 0.1458908 0.798533 -0.093571655 -0.049536474 -0.02833391 -0.28754315 0.08829087
0.27242175 -0.27399933 0.04120416 -0.6601969 0.29114357 0.20118587 0.8461448 -0.12720004
-0.21199928 -0.19447628 -0.43471032 0.15461896 -0.42645106 1.0373913 -0.062257063 -0.29155776
1.0499128 -0.19470888 -0.07479508 0.15211412 -0.06625773 -0.58398753 -0.025833953 -0.2574665
-0.3490611 -0.02709159 -0.1335376 -0.18571872 0.4125444 -0.07648751 0.17810301 -0.47258294
0.10271072 -0.0574961 -0.36319718 -0.12684317 0.110036016 -0.18562552 -0.0029749107 -0.16589774
-0.43404245 0.13280267 -0.2788526 0.24872696 -0.15614663 -0.066710666 0.029241456 1.4043468
0.007864863 0.50885814 0.14493404 0.14958166 0.20270552 -0.63748664 0.10982056 -0.096546374
0.2183757 -0.13662715 0.69290507 0.81805617 0.09215685 -0.34076563 0.32489073 -0.07513092
-0.062366482 0.30231908 -0.039589323 0.16452725 0.4547606 0.59340936 0.33353487 -0.18914796
-0.343779 0.25916007 0.09857863 -0.09696251 -0.10587487 0.1032768 0.20131299 0.21492633
-0.18658517 0.35059416 0.39486572 0.03990348 0.08927511 -0.2238505 0.075596996 0.15885004
0.18972361 0.17322111 0.031171788 0.24588265 -0.015232663 0.034113206 0.107001685 0.17143999
0.13522324 -0.05931277 -0.23285396 0.15258169 -0.039650314 0.17590977 -0.22252087 0.14335288
0.35664794 -0.13081099 0.15813988 -0.13913764 0.20284651 0.15417895 0.26069513 0.03554449
-0.27992755 -0.28803352 -0.08133986 0.3262337 -0.03878524 -0.011298935 0.25903386 0.11811921
-0.06597709 -0.10375663 -0.23640925 0.21792793 -0.63052076 0.103851005 -0.0056014312 0.32676348
-0.6301287 -0.13858785 -0.31348246 -0.652111 0.61832356 0.26233232 -0.729944 0.058961235
0.7392681 0.17455485 -0.2217545 -0.0063993544 -0.13526915 0.042856187 0.061146572 0.07415455
-0.34711894 0.6148968 -0.033946972 -0.3232997 -0.4083956 0.2541017 -0.5171523 0.26891798
-0.026987277 -0.09789543 0.40685412 -0.036237277 0.19333732 0.080915965 -0.18146048 -0.23184174
-0.23463811 -0.18394889 1.0195731 -0.32850805 -0.19623692 0.51896906 0.11706738 0.1983258
-0.85178584 0.022599643 0.43292695 -0.13160844 -0.32940057 0.06380732 -0.19063246 0.343849
0.2662406 -0.04668893 0.7231868 -0.5818772 -0.036129236 0.34150168 0.520808 -0.15686436

bias f4 [64]
00000000: 2815 fabd 9873 e13d eee3 a83e 8f08 ecbe
00000010: 912a 8cbd 1871 793e 9cad 60bd 14c1 aa3e
00000020: 02a7 8d3d c461 543d 7cee 9f3e 32d8 4dbe
00000030: 86af c7be a3bf 323e 8067 a33e 83e9 26be
00000040: 84af b7bd b883 9abc 7c18 19be 3919 51be
00000050: 7415 b13e 8fc8 27be c2b6 29be 0887 28be
00000060: 2537 07be e542 dc3c e2f8 2ebe b94e bdbe
00000070: 1c54 39be a3f6 2bbe 5621 1fbe f879 00be
00000080: 4aa6 9d3d e1ce 633e 8a2c 3d3e aa4b 35bd
00000090: 7233 babd 8ba4 013c ee68 74bd a756 5dbe
000000a0: 3920 b33e b852 b3bd e29c ed3d c5ba c6bd
000000b0: 74c6 f3bd 7f2e 23bd f62c 3f3e ece5 c7be
000000c0: a7b8 7c3d 9e69 04bf a39d 86be ba8c afbe
000000d0: fd46 cf3d b5a3 5fbe 80eb b23d 8d78 393e
000000e0: f6cb 4b3e 6d78 b9bd 4e82 0cbf d4b8 80be
000000f0: 2b61 0bbf a0b5 8ebe a679 27be 6f7d 40be
-0.122110665 0.11008376 0.32986397 -0.4610028 -0.068440564 0.24359548 -0.054853067 0.33350432
0.0691662 0.05185105 0.31236637 -0.20102003 -0.390011 0.17455916 0.31914902 -0.16300015
-0.08969024 -0.018861637 -0.14950746 -0.20419778 0.3458668 -0.16385101 -0.16573623 -0.1645776
-0.1320463 0.026887367 -0.17087129 -0.36974123 -0.18098491 -0.16793303 -0.1554006 -0.12546527
0.07697733 0.22246887 0.18474022 -0.044261612 -0.09091844 0.007912765 -0.05967038 -0.21615086
0.3498552 -0.08756012 0.11602189 -0.09703592 -0.11903086 -0.039839264 0.18669495 -0.39042604
0.061699536 -0.5172366 -0.26292142 -0.34287053 0.10120962 -0.21839793 0.08736324 0.18112393
0.19902024 -0.090561725 -0.5488633 -0.25141013 -0.5444514 -0.27872944 -0.16354999 -0.18797849
