landmark/results/AIDS700nef_60/AIDS700nef_60_minvaild.pt (torch, 260901 bytes, 6 tensors)

weight f8 [128, 120]
-0.05062098604657283 -0.05267221934712626 0.1074082120670976 -0.0661519068237357 0.10632212548091105 0.015878464623649516 0.0744829876437512 0.045877784082556626
0.017330717018215595 -0.0375226223179272 0.056180706703280875 -0.03340852421335206 -0.02793002658676278 -0.10603294937357502 -0.05586250325217975 -0.027312801510007974
0.10107637953636774 0.005703201365397103 -0.010664379745545688 0.12363861857112393 -0.1228291549989156 0.0009734961961085191 -0.11914434288496852 -0.011261916280003096
-0.006207529216895942 0.19035343586148337 0.10715941147616398 -0.07289556738846137 0.12854681721835381 0.06408050692055607 0.0018172957305068655 0.031035302315710316
0.026621641179527273 -0.04574699910967753 -0.004845409722650735 -5.247958073349066e-05 -0.013082833715314265 0.1025339647183743 0.14024471836385055 -0.07189798409670589
-0.04330034786309772 0.03933458240341069 -0.05682327096933174 -0.028651196359190955 0.0021676491590982773 -0.11235496715569226 -0.0604913213627085 0.08562808250113449
0.059128367544823215 -0.0963729355824176 0.09204190524087316 -0.08847914058844647 0.0913233340638137 -0.015995201743148692 0.03182199326514009 -0.039928486590031134
0.04330751364244438 -0.0030287391645525026 0.11117937832120804 0.09552304058245019 -0.1790319722604386 0.0032515433690742572 0.07978981564695284 0.01957051662192871
-0.03416857048949909 0.02718598954417532 0.06542615719167921 -0.07769130709369558 0.0916269575870162 0.06611868388020362 -0.06630490673341563 -0.02399376183372128
-0.1150511862434081 0.05298386650344867 0.015184795941251503 -0.09347649242829764 0.09596477970467618 -0.07102668507240355 -0.1614808477393462 0.04737297608815166
-0.027354676062233314 0.11977095441419287 0.016079883621817836 0.02685293146453056 0.05534507098777089 0.07925169063743674 -0.026962047895947718 0.06694164226618231
-0.0491882775899797 -0.19116762873704823 -0.0017764785649374009 0.06092917437062758 0.05127249150437675 0.008647812099599196 0.005835783729796922 0.009953086481556937
0.07279904916109067 -0.10451861219836475 0.06847752962918342 -0.19610722539373493 -0.06756322186846705 -0.009170885922556242 0.05470040298737183 0.06603840523391365
-0.12045887279112692 -0.015654459332718956 0.04273289225147415 0.09886172052176329 0.015160615064775866 0.010791161250236334 0.061812639532468086 -0.016083815474136825
-0.053224659807573585 -0.004371907415645867 0.029578475197187627 -6.250549746975986e-05 -0.0021462711323357404 -0.1357695134836609 -0.05225700738872494 0.1347207341986923
0.020168694394281116 0.08467268770993247 -0.07546274545902668 -0.013505468918810408 -0.09190506249076452 0.0869887420424998 -0.051770737283327484 0.04292417456428445
0.052082357096535 -0.029136290706515924 -0.058423730703304935 0.07284580599129285 0.08730097351453989 -0.014269613393632884 -0.013859303548354055 0.07631945227826695
0.005282760747603536 -0.055561649686352 0.047972403384503225 -0.09126743901044734 0.013676112584947907 -0.06857448618764697 -0.006510127736246861 -0.03707028139190261
-0.044773976353638875 -0.03971393037554802 0.018822955059848906 0.022211045994399894 -0.0787390959200035 0.08565396893098629 0.0545683500364538 -0.07508793763924505
0.08319354188725729 -0.019550107876181437 -0.06238213903325681 0.03702259494209547 0.01616678045820021 -0.04319159850550159 0.027629126894336924 0.02867724899394759
0.03457109074952094 -0.06273100435518585 -0.08369765757522098 -0.015790828317924104 -0.08864527056892506 0.016859208260105195 -0.09227924319114332 -0.019569720800559857
0.06706027036475194 -0.06407790235870384 -0.024682849923331186 0.03424989044363615 -0.07299001024635034 -0.08896349363011265 -0.037017857233786866 0.01698967686140794
0.020014554779316806 -0.057282004838836394 -0.02562547279361599 -0.024035570185968795 -0.09221355087649462 -0.0022937543520897326 -0.012724593578894142 -0.07716416475897686
-0.0518300854579195 0.06338550037526294 0.029547485120821518 -0.08167293854736436 0.029758775803802876 -0.09469774142436968 -0.05766776103280888 0.009130529312204271
-0.014050591826076608 -0.06369064349246073 0.011098865204491253 0.01438285394988894 0.06358273436951146 -0.023378421096221593 0.07925351119741326 0.05401280820094744
-0.04061858878068916 0.0645431416360399 -0.051825022846315426 0.014250569591355108 0.02982056341400574 -0.0010231775470157891 0.026464272343385133 0.03629445851587486
-0.08618969897329572 0.04636452086370365 0.027451715689255026 -0.049125128437268135 0.068335675398511 0.016804984058878186 -0.06746910644496774 0.07938837018342254
0.0344870284266788 0.057734749511581356 0.010830810490606649 0.021335361883997334 0.012135056668717841 0.07962918109527066 0.07588370097267136 0.02732244589620141
-0.004423624726279632 -0.06764206936203832 0.045679420713088774 -0.05157793622258632 0.002524772957184858 0.05037228277571826 -0.03832776013222944 -0.011478670021042036
-0.0654063836327788 -0.03245213436781363 -0.07814901455505124 -0.02274246569244631 0.07815396202200543 -0.07908808994930383 -0.05243172749343554 -0.0768168737264814
-0.03856504335999489 0.057085782289505005 0.05570652335882187 0.08996981382369995 0.034331101924180984 0.07866641134023666 -0.042402129620313644 -0.041170455515384674
-0.08323859423398972 -0.09102612733840942 0.02047749236226082 -0.016930395737290382 -0.06751392781734467 -0.014274719171226025 -0.0820579007267952 0.050120532512664795
00000000: 0f63 1f6f feea a9bf dbdd 0167 daf7 aabf
00000010: 7f67 26c6 1a7f bb3f 7e40 60d4 54ef b0bf
00000020: e21e c843 ed37 bb3f e4ba 13b9 7142 903f
00000030: f3cc 092c 5111 b33f 43bc 7efc 4a7d a73f
00000040: d1e4 3cbb 24bf 913f 996a 6e47 2a36 a3bf
00000050: 5cdc e9b3 b7c3 ac3f 51d5 ce0d ec1a a1bf
00000060: 3af4 105b b099 9cbf 32a1 dbb1 f924 bbbf
00000070: 7be4 1491 029a acbf 0f91 fd14 e3f7 9bbf
00000080: 89bc 8140 24e0 b93f 4cd5 8c75 3d5c 773f
00000090: 83f8 e9d1 34d7 85bf ca1c 49cf c7a6 bf3f
000000a0: 5335 b743 bb71 bfbf 60c7 9b29 47e6 4f3f
000000b0: edc0 3160 3e80 bebf d539 e7d0 7c10 87bf
000000c0: 08c8 9bef 106d 79bf 3168 da5a 805d c83f
000000d0: dcac bf97 cc6e bb3f 38f1 f4ad 48a9 b2bf
000000e0: 8c96 fadb 3874 c03f 8dee 8881 9467 b03f
000000f0: da32 b36e 4ac6 5d3f ebaa dee1 b7c7 9f3f
00000100: 857b ed18 b442 9b3f c4e5 2192 266c a7bf
00000110: 3b4b b6c4 c7d8 73bf 46f4 e5a9 b083 0bbf
00000120: befb 9137 2ccb 8abf a1d3 3179 aa3f ba3f
00000130: ac9c 67f7 89f3 c13f 68fb 5702 e867 b2bf
00000140: 7871 f493 762b a6bf ce86 0c92 a923 a43f
00000150: e517 ee94 f017 adbf d37e 6a3d bd56 9dbf
00000160: f1c1 ebc7 e3c1 613f 0013 7a8d 4bc3 bcbf
00000170: 5eaa e3ed b7f8 aebf f628 f6d5 b8eb b53f
00000180: 72e4 bdc9 1246 ae3f 8bc6 8b8e e5ab b8bf
00000190: 2eff deec 0e90 b73f d49f 34a7 91a6 b6bf
000001a0: 6b6f 2a4d f760 b73f 17dc 84d1 0b61 90bf
000001b0: eb0f bce8 f84a a03f 8279 2ab0 8171 a4bf
000001c0: e6de 8705 672c a63f 28a2 1df5 b9cf 68bf
000001d0: 3f13 e171 4076 bc3f 37ec 50af 3274 b83f
000001e0: e202 e608 85ea c6bf aa7b d00d fba2 6a3f
000001f0: 96ed c1f8 1a6d b43f 8f93 6d23 4b0a 943f
00000200: 5460 9bf9 8a7e a1bf 8bab 01e0 a4d6 9b3f
00000210: a0f3 70c5 c4bf b03f 63a2 26d7 93e3 b3bf
00000220: a6a9 4442 dd74 b73f 8a87 eb70 27ed b03f
00000230: 62fe fbbd 5bf9 b0bf e50e 8919 d291 98bf
00000240: a40c 489a fe73 bdbf 7125 b28b b320 ab3f
00000250: a57e b6cf 3419 8f3f e4a0 ec4d 13ee b7bf
00000260: f640 66d6 2591 b83f e37d 8709 ce2e b2bf
00000270: bb44 fc87 67ab c4bf e78d 064e 4541 a83f
00000280: a5e2 513c dd02 9cbf fb3b 382c 4fa9 be3f
00000290: f0e4 1db9 3e77 903f 537e c4b9 557f 9b3f
000002a0: d448 c66b 3056 ac3f 9fc4 70bb d649 b43f
000002b0: e7fd c867 f09b 9bbf bb16 4664 1623 b13f
000002c0: a3e9 30b7 342f a9bf fe5f bd4c 2e78 c8bf
000002d0: 022f a955 171b 5dbf cb97 96d6 1b32 af3f
000002e0: 8237 6454 6340 aa3f 81a6 32b1 f1b5 813f
000002f0: 3990 4144 43e7 773f 12db 75a7 4862 843f
00000300: e6a7 535f f5a2 b23f ce1c 3755 bbc1 babf
00000310: a9a9 444e be87 b13f 74a6 c9a3 0a1a c9bf
00000320: a663 56c4 d24b b1bf cfdc e678 2fc8 82bf
00000330: f84b d1f3 b001 ac3f b578 c296 e4e7 b03f
00000340: 53a2 2687 64d6 bebf eb7b 7bfb b807 90bf
00000350: 51fd 5ded 15e1 a53f b49e 7770 004f b93f
00000360: 0fa8 1f4f 870c 8f3f a5b9 3e25 ad19 863f
00000370: 42f3 8a02 e8a5 af3f 9b44 d395 4678 90bf
00000380: bab2 6d3a 4340 abbf 0901 f1f5 46e8 71bf
00000390: 6ac4 8cde d149 9e3f c05a 1245 ac62 10bf
000003a0: 969e 4b8a 0e95 61bf 4663 1a3a e560 c1bf
000003b0: dd5b 7133 6ec1 aabf b2fd bc6d 873e c13f
000003c0: 764a 4e2b 1aa7 943f e41d 94f8 1bad b53f
000003d0: b219 d0c7 8651 b3bf 2f65 965a c1a8 8bbf
000003e0: 5413 bc15 1787 b7bf e555 31ea e444 b63f
000003f0: 301c 0baf b181 aabf 323c ec4b 28fa a53f
00000400: 843e dbe8 89aa aa3f e44d d85e e7d5 9dbf
00000410: caac 5c19 b7e9 adbf 1f24 62d2 05a6 b23f
00000420: b666 274a 5b59 b63f 0c57 d116 6339 8dbf
00000430: f556 e23b 4462 8cbf 3673 95ef ab89 b33f
00000440: c5fa 4b4a 60a3 753f 1d1f a198 9372 acbf
00000450: 7b3e 4bbf d68f a83f e252 bd89 4d5d b7bf
00000460: 2c64 4fc2 3802 8c3f 2215 84f7 188e b1bf
00000470: b2f7 841b 5daa 7abf 81a6 763c e0fa a2bf
00000480: ee2f 4d58 9dec a6bf fc33 5160 6255 a4bf
00000490: c8a2 9521 5346 933f 14a4 9f10 7ebe 963f
000004a0: 189d e4d1 3e28 b4bf 9ec8 5423 6bed b53f
000004b0: 8443 9bfd 61f0 ab3f b111 7c8c f638 b3bf
000004c0: bbe8 a405 2c4c b53f ee8b d887 f104 94bf
000004d0: bb35 013e 8df0 afbf bf8c fa24 a0f4 a23f
000004e0: c5f8 6545 068e 903f 2110 168e 351d a6bf
000004f0: fb7c b651 cf4a 9c3f 53e4 459a 915d 9d3f
00000500: c3fe 4f50 4db3 a13f ff97 269c 230f b0bf
00000510: c991 09ae 356d b5bf 9e16 cf8c 782b 90bf
00000520: fbe1 09da 74b1 b6bf d654 7450 8a43 913f
00000530: 0708 9bcb 9c9f b7bf 812e 52bb 150a 94bf
00000540: d9d8 13a4 dc2a b13f dae3 06cf 6867 b0bf
00000550: 0d69 c504 7646 99bf 02aa b19e 3389 a13f
00000560: 015a f12a 79af b2bf 8de2 adbf 4fc6 b6bf
00000570: 18cd 5f2c 01f4 a2bf 7c19 f5e9 bd65 913f
00000580: 6379 e208 b27e 943f 513e dd22 1154 adbf
00000590: 705a 5f5e 903d 9abf 9ecb 8ecf c79c 98bf
000005a0: 3738 43a9 4e9b b7bf 8c4d acfd 59ca 62bf
000005b0: 55be 350a 5a0f 8abf 3c1e 10dc 07c1 b3bf
000005c0: 6736 fb13 7989 aabf 6a00 273b 083a b03f
000005d0: c486 1729 b241 9e3f 3976 0788 84e8 b4bf
000005e0: 31a4 62a3 1579 9e3f 2e38 6c76 1c3e b8bf
000005f0: 1cc3 56f7 a086 adbf 4625 54e6 06b3 823f
00000600: c63e 0f83 8ec6 8cbf 147f dcae 074e b0bf
00000610: 16a7 9b78 00bb 863f 0c0e b4fa c174 8d3f
00000620: 1112 b544 f546 b03f 875b 2948 83f0 97bf
00000630: 9da1 af46 f549 b43f 9f8d 9319 91a7 ab3f
00000640: 6470 d8ac f5cb a4bf e704 823a e685 b03f
00000650: b38f 7a34 cf88 aabf 1802 c112 672f 8d3f
00000660: a01f 7222 4889 9e3f aa48 8e86 84c3 50bf
00000670: 27bb e840 7319 9b3f 7e13 b4f0 2f95 a23f
00000680: dda6 5732 8710 b6bf 6bcf 9b29 17bd a73f
00000690: 6ff2 6a74 4d1c 9c3f 1188 19c8 ed26 a9bf
000006a0: d596 fc62 727e b13f bb4e c563 5335 913f
000006b0: 11e6 abc5 a745 b1bf ccdb 9ed5 cb52 b43f
000006c0: 4b26 75a6 48a8 a13f d76f fdb9 688f ad3f
000006d0: 4848 c5c6 762e 863f 450e 29e6 efd8 953f
000006e0: c3ce 37bc 43da 883f eb87 9cf8 9362 b43f
000006f0: 0e21 fa3d 1d6d b33f cd9d 484e 6afa 9b3f
00000700: dd63 77b8 811e 72bf 5064 be9b fd50 b1bf
00000710: d739 2004 4b63 a73f 5fd8 8a5a 6c68 aabf
00000720: aa69 fd28 d5ae 643f c00b 4b56 65ca a93f
00000730: c8fd 9738 b29f a3bf e650 bc02 2182 87bf
00000740: a504 a706 79be b0bf d71e 97ef 909d a0bf
00000750: c483 bae5 9201 b4bf df90 8409 cd49 97bf
00000760: 79f5 efe6 e501 b43f 90da d5f7 1d3f b4bf
00000770: 76d4 b6d5 54d8 aabf c1aa 6f48 45aa b3bf
00000780: 0000 0020 ccbe a3bf 0000 0000 593a ad3f
00000790: 0000 00c0 9085 ac3f 0000 0000 4308 b73f
000007a0: 0000 00a0 d893 a13f 0000 0060 7b23 b43f
000007b0: 0000 0060 bbb5 a5bf 0000 0040 4b14 a5bf
000007c0: 0000 00e0 1f4f b5bf 0000 0000 7d4d b7bf
000007d0: 0000 0040 0df8 943f 0000 00a0 3356 91bf
000007e0: 0000 00c0 9748 b1bf 0000 0060 103c 8dbf
000007f0: 0000 0020 bf01 b5bf 0000 0000 66a9 a93f

bias f8 [128]
0.03184353555251652 -0.04651427409354069 -0.09015554934740067 -0.03401944413781166 -0.0773057678797912 0.015735500953849405 -0.05564217042813586 -0.012698494551108868
-0.17399320964554466 0.08463050425052643 -0.10127076722180772 0.01736714504659176 -0.045401491259429626 -0.04441873279492849 -0.03367646916095209 0.05406626498310107
-0.0795179083943367 -0.047025877982378006 -0.10188168929365683 0.047807370747296025 0.014058683045531848 -0.04846524310805979 0.02549244772048105 -0.0387803363956864
-0.02123930554742154 -0.03396144136786461 -0.0068798846880923385 -0.15747395820303384 -0.01906968653202057 -0.04044537056253783 -0.06969216465950012 0.0011665407753438598
0.07155083453159125 0.03743016581002508 0.017406852266370825 -0.02954459950092443 -0.1852273093231794 0.02607673592865467 -0.08725745975971222 -0.08810567855834961
-0.056905845252145155 0.027572088860155896 -0.08975458533612601 0.051803653087538926 0.08736592075405979 -0.03354432433843613 -0.06828221612330991 -0.2235160941254007
0.10370940757349201 -0.06696593761444092 -0.048144008765393015 0.0681939523634105 -0.17492504907358475 -0.0009373340721164946 -0.15987711056768353 -0.05595848106942329
-0.006294620713795479 -0.029565950855612755 -0.1665316862892679 -0.01366469170898199 -0.005676581722324458 -0.07342323867159235 -0.05271134238046016 0.014081770755571236
0.12330304698244125 0.004425658645157846 -0.14589083154475432 -0.025294793351728708 0.030559825734401413 0.06036900513812082 0.0588037446141243 -0.04994221776723862
-0.0005861163671392447 0.03894598473405778 0.03288460895419121 -0.15971108090612876 0.047462787479162216 -0.1923275223531863 -0.158335956844519 0.042512599210216155
0.008905521815152114 -0.0682420225095854 0.1295361768624032 -0.022376474242031465 -0.036015125004930655 -0.19036176516316947 -0.06073335681026947 -0.10281475330737264
0.05508270487189293 0.023974349146598767 -0.06787427162716443 -0.0283135613631649 -0.009955517378956636 -0.0016736653109966472 0.16837150626755235 0.08434800058603287
0.053264618327948675 -0.06028762968939271 -0.09937933541199559 0.07753192541302792 0.05914034189528117 -0.056915923953056335 -0.008933841792634288 0.015362967737019062
0.021817440855179684 -0.007521247956901789 -0.04640273616635996 0.07222025841474533 -0.046631623059511185 -0.03291537333606813 -0.01984324118925961 -0.049343440009944346
-0.0005435313413972194 -0.0736378386119421 0.007281674537807703 0.018496115910811198 0.0654613637503989 0.08207474975531989 -0.05219737067818642 0.0670254397100109
-0.05811771606161959 -0.10511174573056821 0.01675253122097092 -0.02773936704747709 -0.1563190541918334 -0.08229556538332425 -0.15749910207266066 -0.05091763145981333
00000000: 11fb 92bf cb4d a03f dfd0 0e0c b8d0 a7bf
00000010: 0000 0020 6f14 b7bf 0000 0020 ff6a a1bf
00000020: 9bfb d590 4fca b3bf 118d ee97 f71c 903f
00000030: c9db 886c 217d acbf 168e 7116 ab01 8abf
00000040: fcab 93d4 6845 c6bf 0000 0040 58aa b53f
00000050: 982c 4289 e1ec b9bf 0000 0060 b1c8 913f
00000060: 033a 4c40 dd3e a7bf b232 5e59 0dbe a6bf
00000070: 3bd0 61cb 0a3e a1bf 0fad d6cf 92ae ab3f
00000080: 0000 0020 495b b4bf 0000 00a0 c613 a8bf
00000090: 59d6 931b eb14 babf b119 bc2b 357a a83f
000000a0: 923c 3e7f ccca 8c3f d29a 48b4 6fd0 a8bf
000000b0: 1490 0435 b11a 9a3f 783e 1829 04db a3bf
000000c0: f01b ddaa c1bf 95bf 0000 00e0 6463 a1bf
000000d0: a30c c5fb 142e 7cbf e212 3a4e 1b28 c4bf
000000e0: 0000 0000 0187 93bf 6070 ae6f 41b5 a4bf
000000f0: 0000 0080 58d7 b1bf 63fc b09e d31c 533f
00000100: a68f 50ce 2751 b23f 9b69 13f4 0b2a a33f
00000110: 3b6a d714 1ad3 913f 7401 8582 f040 9ebf
00000120: b33f ef49 87b5 c7bf 0000 0020 dcb3 9a3f
00000130: 0000 0040 8156 b6bf 0000 0000 188e b6bf
00000140: 814f 9e50 c322 adbf 1342 bf8f db3b 9c3f
00000150: a848 af10 28fa b6bf d80b a627 0286 aa3f
00000160: ff71 6cec 9c5d b63f 0000 00c0 b82c a1bf
00000170: a3e4 257d f17a b1bf faf9 32e5 2c9c ccbf
00000180: 98d0 d021 b38c ba3f 0000 0000 ae24 b1bf
00000190: 3c99 4ade 54a6 a8bf 8e92 2fab 2875 b13f
000001a0: d0d8 82aa f163 c6bf 1e8c b397 edb6 4ebf
000001b0: d932 a268 da76 c4bf 3607 410c 97a6 acbf
000001c0: ed1f b461 63c8 79bf 0000 0060 8946 9ebf
000001d0: fa18 2e09 e950 c5bf 0000 00e0 3bfc 8bbf
000001e0: 9976 9bcd 5340 77bf 6563 dc88 ddcb b2bf
000001f0: e0fe 4d27 fbfc aabf af69 eb46 e7d6 8c3f
00000200: 9367 49da c990 bf3f e4b1 4eb2 a320 723f
00000210: fbae 22ff 8cac c2bf c7aa d1d8 e0e6 99bf
00000220: 6021 6730 134b 9f3f 0f44 85ad afe8 ae3f
00000230: 0000 0040 861b ae3f 0000 00c0 0692 a9bf
00000240: 6920 7350 b334 43bf f590 7c65 baf0 a33f
00000250: 0000 0060 40d6 a03f 257b a6a6 6971 c4bf
00000260: 0000 00e0 0a4d a83f a456 5031 309e c8bf
00000270: 36cb 3646 5a44 c4bf 173a 8d1e 36c4 a53f
00000280: 7161 99e7 0e3d 823f 9d3d e426 4f78 b1bf
00000290: 2eee a235 a494 c03f 9af9 46c4 dbe9 96bf
000002a0: 7174 1d10 9370 a2bf 3f6f e439 c65d c8bf
000002b0: 1f85 8d4a 7118 afbf 8e60 0053 1152 babf
000002c0: 0000 00e0 cc33 ac3f 1830 1c56 bb8c 983f
000002d0: d9e4 e050 3560 b1bf 4732 5af0 3afe 9cbf
000002e0: cd82 75ec 8e63 84bf b48d 9c71 dc6b 5bbf
000002f0: afaa 7f90 328d c53f 0000 00a0 d497 b53f
00000300: ab42 8103 8045 ab3f ef14 bd2b 05de aebf
00000310: ee23 7e93 ec70 b9bf 5a7c 0bdc 21d9 b33f
00000320: 0005 a194 a447 ae3f 0000 0080 1524 adbf
00000330: 5fb3 9df2 e74b 82bf 0000 00a0 9e76 8f3f
00000340: 4457 d2ab 4f57 963f 0000 00a0 99ce 7ebf
00000350: c511 8f74 19c2 a7bf 0000 00e0 067d b23f
00000360: 0000 00a0 19e0 a7bf a630 07a8 48da a0bf
00000370: 1d6b d15f c951 94bf 79cd 3a1a 8b43 a9bf
00000380: a0a5 f6aa 78cf 41bf 731f 96ec edd9 b2bf
00000390: 0000 00a0 63d3 7d3f b484 c253 a5f0 923f
000003a0: 50a3 7570 13c2 b03f 96c7 06ce d902 b53f
000003b0: 0000 0020 9db9 aabf ccf4 8d47 9428 b13f
000003c0: c911 9bf3 9ac1 adbf 1598 5676 9ae8 babf
000003d0: 4f8d e056 9327 913f cf63 1f69 b567 9cbf
000003e0: 0a6f bf44 4302 c4bf 765d ed79 5211 b5bf
000003f0: b295 463a ee28 c4bf 72c1 d133 e011 aabf

weight f8 [1, 128]
-0.024252901592635354 0.05450196248229307 -0.052449527000500325 -0.029519597158362512 -0.01821094546991549 -0.10318975794750176 0.05337823733070954 -0.07033962748036916
0.032875305642736656 -0.18375933423632435 0.10504481441877243 0.06642453343167722 -0.2173291730392653 -0.08470801389208371 0.07349905511593761 -0.048346554445613324
-0.012372650087799083 0.0173983312158186 0.08329351262064709 0.02514372578159245 0.043516003827687576 0.055233022203825304 -0.04422411523213522 0.13319035134116283
-0.07021910957431475 0.11504148280367997 0.08234230990486416 0.042198971106486585 -0.15986521728747263 0.07312314978422259 -0.011101390320446172 0.06981364000070896
0.007439022691216373 -0.06213016089991788 0.03470763258730692 -0.05620553057866993 0.04770651870880313 -0.032619840286347415 0.05294717816146248 0.040281759639691425
0.034858898884951514 -0.02654849359010907 -0.06253903109879383 0.08544641709160619 0.14858937708543574 -0.5658473163138706 0.04944070986872317 0.08654432431130604
0.042467151116883116 0.06761370826713407 -0.019094617540924497 -0.15730114743042062 0.08727201121189476 0.07323405734404649 0.11137413654404943 -0.03507305114955519
0.07349950279582429 0.09845097664380917 0.07200144968264191 -0.2582029981335673 -0.17772102820319227 0.04373996726514063 -0.0554773168316869 0.001780880339785272
0.06501514288724046 0.03534723258801126 0.09571261811987863 -0.12669317523749488 -0.014528216971984502 0.1280066300093808 0.05852249361032101 -0.22971585231323852
0.010261171155787252 0.03882289810481915 -0.046689310584241264 0.03875033763763358 0.0661358920261696 0.08608714122973189 -0.010966239785319642 -0.10526621507737374
-0.05774839584265493 0.05881806913765822 -0.08079779922740708 -0.03379971720248059 0.10035663219973558 0.0027574201382431396 -0.15099027385286076 0.07473563700414274
0.003047399370836261 0.008464958113384002 0.09554843226758898 -0.2016364832227658 -0.017221970600221296 0.04791193501045385 -0.06091384003663215 0.024680863174456738
-0.12613943783642667 0.07222861370436498 -0.016128333879540213 -0.006424674268778832 -0.07317586139216628 0.03153116242975145 -0.011957157439673497 -0.0015620510257606261
-0.10364725905552528 0.0719987512514789 0.20818492001321845 -0.15715461177475923 0.0759110972538307 -0.10424732015334665 0.055260702200789165 0.07479461152689967
0.06351947028726665 0.031400573947970245 0.011051905863590585 0.028444666156748767 -0.05144341320337306 0.047625981600453844 0.021241664640127552 -0.07568176780925374
-0.11446876186377379 0.0655360569903512 0.04619264561817382 0.027686886218408566 -0.05851594235477376 -0.1201022119200651 0.09055148708300138 -0.0554790294595305
00000000: 79a3 b1ac c0d5 98bf fac8 db64 aee7 ab3f
00000010: 81cd 5016 aada aabf 2488 8ba1 623a 9ebf
00000020: f5dd e3dc e3a5 92bf 4aab aadb a46a babf
00000030: ac9a 4e6f 6454 ab3f 2119 a41f c701 b2bf
00000040: ffc1 2935 08d5 a03f 869b 7005 6d85 c7bf
00000050: 2703 8b8a 37e4 ba3f 89b9 bdbe 3201 b13f
00000060: aace 553d 71d1 cbbf 3028 60a5 6caf b5bf
00000070: c385 0286 d5d0 b23f f2b6 6f2c e1c0 a8bf
00000080: be82 effb d456 89bf 47c3 4e3e ded0 913f
00000090: 5fb5 ac40 b952 b53f 6ce3 b9df 46bf 993f
000000a0: 5bc6 95ca ba47 a63f bfa1 0cb0 8047 ac3f
000000b0: 42ad 3b11 8ba4 a6bf f396 93a5 610c c13f
000000c0: 3f09 2d2b e1f9 b1bf 273d 53ce 5b73 bd3f
000000d0: 4255 1eb8 6214 b53f ea87 a781 1a9b a53f
000000e0: a941 02a4 7676 c4bf dd5b e7e0 32b8 b23f
000000f0: e87b ee62 53bc 86bf ad25 9e84 4edf b13f
00000100: b982 c472 6178 7e3f 641b 5242 86cf afbf
00000110: 71a4 c4e5 32c5 a13f 5d22 61a7 f8c6 acbf
00000120: ac15 5223 fd6c a83f ea11 7636 8cb3 a0bf
00000130: 36e9 3c7d e41b ab3f c63c 8e90 cf9f a43f
00000140: aef1 5e8d 06d9 a13f cd0b e93e 872f 9bbf
00000150: fcf7 4ad5 8e02 b0bf da04 f8fe d0df b53f
00000160: f4b6 8e09 fa04 c33f 3e1e c3d4 6b1b e2bf
00000170: 4f52 f4ef 4a50 a93f 544c 92d2 c427 b63f
00000180: 2b11 6722 41be a53f a7c4 c4c9 214f b13f
00000190: 6dba 7817 8a8d 93bf 8e20 eba9 7122 c4bf
000001a0: 30e0 0262 7557 b63f 55fe 3e99 77bf b23f
000001b0: bcb1 13f2 0383 bc3f 6309 514f 18f5 a1bf
000001c0: 70c3 c708 ddd0 b23f 86c5 f14c 1534 b93f
000001d0: 1acb a6df af6e b23f da9e 2dde 6586 d0bf
000001e0: b1db f809 90bf c6bf a120 ddc1 1565 a63f
000001f0: 8281 ecda 8567 acbf 9361 51b4 8d2d 5d3f
00000200: fb09 7218 d5a4 b03f 3871 f04f 0819 a23f
00000210: c0b0 a344 9f80 b83f 77be 2262 7b37 c0bf
00000220: 8f65 1c46 f8c0 8dbf 03de c770 8562 c03f
00000230: 3efd 4508 a9f6 ad3f a770 873c 5467 cdbf
00000240: 2d1a 4314 cf03 853f 486c 644b 98e0 a33f
00000250: ca6f 104c a9e7 a7bf f0a5 b991 15d7 a33f
00000260: 8c1c 5825 48ee b03f bd15 3090 ce09 b63f
00000270: 8682 e7c9 7775 86bf ae8a 2107 baf2 babf
00000280: 15d2 149f 3291 adbf 3460 b8e6 661d ae3f
00000290: ab3e 4521 2aaf b4bf f755 ff4f 324e a1bf
000002a0: 710c 3ce5 f8b0 b93f 692f 15aa ba96 663f
000002b0: c726 1b38 a653 c3bf 1e4d c7ec df21 b33f
000002c0: 8ac6 5614 dcf6 683f 866b 1272 1356 813f
000002d0: 4dfb c5af dc75 b83f 4ba5 8f6a 39cf c9bf
000002e0: 91a3 00e2 a2a2 91bf ec7b eac3 e987 a83f
000002f0: 5287 a94d 1930 afbf 6474 afb0 f045 993f
00000300: b823 1f4c 5625 c0bf 1a17 b20d 937d b23f
00000310: 10d5 342a f283 90bf 2921 f35d c250 7abf
00000320: 3236 893b a7bb b2bf 679c e13e da24 a03f
00000330: f58d 4081 fe7c 88bf 0735 8084 b797 59bf
00000340: 4fa9 f673 a088 babf 575a fa99 826e b23f
00000350: 3913 7daf cda5 ca3f 457c fe6e a41d c4bf
00000360: 57d2 1be0 e86e b33f 8c17 c1ce f3af babf
00000370: 41ab 6979 214b ac3f a6d0 6c5a bd25 b33f
00000380: 9605 8bdf cf42 b03f 5044 5d6c bc13 a03f
00000390: 2ed4 f0b1 61a2 863f fa34 8e3b 9920 9d3f
000003a0: 2c30 9b82 ca56 aabf c1e3 d3c2 6e62 a83f
000003b0: df8d c4fb 5fc0 953f f9ea a45d e15f b3bf
000003c0: 5b57 9e24 d34d bdbf 547b 7b95 f8c6 b03f
000003d0: 20d6 7dfc 8fa6 a73f 8934 587b f359 9c3f
000003e0: 11b0 6a35 cdf5 adbf 98ba 5fc0 04bf bebf
000003f0: 152b a0db 612e b73f 4bf6 4852 bf67 acbf

bias f8 [1]
-0.08833090097006858
00000000: 5185 e49a da9c b6bf

weight f8 [128, 128]
0.06916543348482743 0.05211852311782588 -0.0632749524649461 -0.022519182864702957 -0.06389297359712151 -0.08246234274091588 0.21709277002139987 -0.025450664821319458
0.021246682610996676 -0.4979278246329443 0.04567770726816065 -0.15796767336307319 -0.0586759203922843 -0.01684259647087761 0.18898288465892765 0.08492057282480586
-0.1447683385912987 0.055009480601123206 0.002696388168102163 0.16718058318690424 0.03369823214686864 -0.1950900962872045 0.225612746557896 -0.23398706080455328
-0.03034302211503297 0.14221616771051399 -0.11082383016572254 0.14408534155749914 0.43996933180450004 -0.1210969621821872 -0.007141905960771268 -0.057293883935376044
-0.07189603274046646 -0.208512876828351 0.09558724846284802 -0.2033103134971066 -0.1687136391345674 -0.04345202754920242 0.019107447230611842 -0.03429961949586868
-0.12881111245944638 0.011730095706474515 0.14049837446187585 0.007277052608854912 -0.06500419888479005 0.35563948028878 -0.12882724999175582 0.07809727265852441
0.043897079886900794 0.07753536875650785 0.0020278780325088046 0.3842190826124165 0.05155412051157903 -0.04957313975764002 -0.7220979829721247 0.025979987431244748
0.2916240681519425 -0.5192714603385624 -0.04914081646345841 0.1866357667618985 0.20903785236222874 0.008230840670964561 -0.09184322069491722 -0.09185997777700056
0.13176674984533732 -0.03042820689905687 0.2071676413069897 0.06225900030056155 -0.0332861293826492 0.065608573482908 -0.01300536382904501 -0.13901214933777023
-0.028951357069854716 0.007300437820223251 -0.006369042470420808 0.013884838928789013 0.07144436329980185 -0.06731128923024049 0.013498813360046503 0.3324289305987792
0.056127736240887946 0.2992780160206102 -0.13284358549587222 0.068839089017438 0.13112482296509548 0.03406542784805147 -0.14988020494628065 -0.12997282456058282
-0.08705182035641862 -0.2961307581790994 0.0026334025969648686 0.06957311775203161 -0.12024922166412595 0.025040886185640352 -0.19172900501843926 0.03628906517671927
-0.001941293029321194 -0.09833164729106365 -0.14550865974439053 -0.025701930706034878 -0.05986349029043856 0.0393341780169059 0.003751275505417476 -0.03790805828925124
-0.045462357687579585 -0.053354657094074734 -0.06861429926811366 -0.3153425729972096 -0.17041369480899443 -0.0047351368439562825 0.08158273153034883 -0.0068030764826095495
-0.058767026690090346 0.2535983791009162 -0.1524049450341996 0.06484593863551553 0.1405121022457799 0.06995588023721405 -0.18997963516667446 0.18189106465013619
0.1699093664819276 0.11808205426275058 0.04717280885220516 -0.015596371749461742 0.18771061279200124 0.1779919354590934 -0.03400204591193459 -0.0060907465628573
-0.033162653049574525 -0.01243313226324297 -0.06630808457205108 0.07146274891176445 0.11844937179238448 -0.06383956297755608 -0.014422965702288309 0.06642329891144994
0.10719105721765712 -0.02762603675181241 -0.10160828549759318 0.10331468049151632 -0.05236562649076973 0.0852645989168889 -0.07749921697020808 -0.05681729219031298
-0.004833648308304223 -0.09419653377676125 0.05671053086682382 -0.011770808418221443 -0.038667263927120395 0.04579863984167825 0.21782724948861926 0.013738834493508267
0.005841109076885716 -0.02767888520095721 0.08539948119747558 0.06991263555939442 -0.047214176045441 -0.06889139544188437 0.0052304589346332765 -0.10247844932165286
-0.03556183064993651 0.16432483706400458 -0.02234993704538046 -0.05278016436843532 -0.07259677210686433 -0.0559555804931211 -0.05486182439887741 0.00871194340288639
-0.02417202034098607 0.07015010912146555 -0.020585801630473785 0.026191939401735934 -0.17184964852582435 -0.11867193872947768 -0.015596044431817764 0.07752635630963386
-0.08892460140930192 0.06589651608656423 0.040996144420836836 -0.3866074665170227 0.03231662093712333 0.14545859068805223 0.06513307240201704 -0.027890476003184905
-0.02251677465067644 0.04681968401963623 -0.06306655330055877 -0.13101439168426432 0.04409353745122456 0.0034193872267799254 0.08866670280105506 -0.03165136535403928
0.06822419559553142 -0.055226173267128156 -0.00862901028834977 -0.016089843316282892 -0.009291461765933514 -0.04482089123035387 -0.05496350170619849 0.07246278599308299
0.005866925898906909 0.03106645235819567 0.012957819271103154 -0.020947544522323516 0.033298258436705426 -0.034502384354487804 0.06070110784973486 -0.06181712610466699
0.05179691952602755 0.15998510226313983 0.031910083461647545 -0.030752339794619554 0.11137763022207886 -0.23767190389883586 0.0909776086784 0.08552430411070362
0.02031375093990539 -0.056891487315823115 0.011401337570039671 -0.009557571917123584 0.0021662059809267596 -0.0320447015676372 0.023026321754660534 0.06426584422751663
-0.010555358394548317 -0.0334657198725562 -0.10183441060629855 0.10337370559826389 -0.01816378818355158 0.050696535211448256 -0.003705768081339007 0.03126081693155765
-0.014058241649068359 0.05392053804596907 0.04671164833477036 -0.02163081601058101 -0.08826676919807169 -0.054570018780544384 0.06785738186399522 -0.049314457098025725
0.03866121509256572 -0.03815664805347716 0.06934870514049725 0.08779319739232758 -0.04700611244112319 0.022381677357283847 0.0062156576966205706 0.18082203409069936
0.09366902649508071 -0.0060880428562311815 -0.08727375710729711 -0.04321596214252686 0.1050535379570226 0.01741312742490336 -0.023785335583317076 -0.10149774094217695
00000000: 3abc d46a d3b4 b13f a71f 9d70 47af aa3f
00000010: 922e 7e8b c932 b0bf 1305 bfc7 440f 97bf
00000020: 5638 0b38 4a5b b0bf 6e49 3989 401c b5bf
00000030: aa50 b825 b2c9 cb3f 6dae 4634 bd0f 9abf
00000040: f5d3 d9bb b0c1 953f 6748 a4aa 0cde dfbf
00000050: 5dfb be85 1163 a73f c5b5 75e3 4838 c4bf
00000060: 0f8d 4b2e c50a aebf 02ad 1684 2f3f 91bf
00000070: 2092 8e56 9730 c83f cc45 0acb 5abd b53f
00000080: 1579 dfd7 c487 c2bf e0b4 4de0 332a ac3f
00000090: 3b6e fa5f bc16 663f e12f a860 2c66 c53f
000000a0: 42f4 010a e540 a13f 43dc a957 b6f8 c8bf
000000b0: 7571 03e4 e0e0 cc3f 3ede ebba 49f3 cdbf
000000c0: 4d5f 95be 3d12 9fbf d6b9 a3ae 2334 c23f
000000d0: 73e2 2d56 f35e bcbf fe45 e972 6371 c23f
000000e0: a2f8 d520 7528 dc3f 55aa 37e4 3500 bfbf
000000f0: 9b9c 85c8 d440 7dbf 00ca 86bb 9f55 adbf
00000100: 5c1b 5545 c767 b2bf fee5 62c9 8cb0 cabf
00000110: d603 10ea 6778 b83f 206d b485 1206 cabf
00000120: 316e 3c95 6898 c5bf 1195 891a 583f a6bf
00000130: 3ab2 dc13 e790 933f 0000 0040 b88f a1bf
00000140: 2ef6 afed e17c c0bf 718d 81cb f205 883f
00000150: c43a bac9 d9fb c13f 7afa 75ef 8ace 7d3f
00000160: 2117 507c 1da4 b0bf 8a6e 4018 ccc2 d63f
00000170: aa2b c64c 697d c0bf e9a3 f9cf 2efe b33f
00000180: 6a1e 0295 ad79 a63f 2cae 17a1 5bd9 b33f
00000190: ef8e 8eba c49c 603f e371 94a2 0b97 d83f
000001a0: 1f7e 243b 4d65 aa3f a4c7 098c a661 a9bf
000001b0: 4fee ab3a 6d1b e7bf 0183 7871 7f9a 9a3f
000001c0: b119 dcfe f7a9 d23f 26cf 7c2e df9d e0bf
000001d0: 27f5 372f fc28 a9bf 67cc 4049 aee3 c73f
000001e0: f1cb c299 c0c1 ca3f f6c6 00bc 54db 803f
000001f0: 7775 3e8d 0983 b7bf 9c0e 5db0 2284 b7bf
00000200: 9499 a49c bbdd c03f 388c 0766 9228 9fbf
00000210: 3bfb 1922 7884 ca3f 935a 5864 69e0 af3f
00000220: 22c2 372a e10a a1bf e440 7235 b9cb b03f
00000230: 6bf0 8b62 8ea2 8abf 8e81 936d 26cb c1bf
00000240: f8cc 28af 6ca5 9dbf e90e f35a 10e7 7d3f
00000250: 046e e0d1 6c16 7abf c700 e088 a76f 8c3f
00000260: 5f2f db83 2d4a b23f 2c3e e509 503b b1bf
00000270: a764 540f 44a5 8b3f ea9f 4afe 8346 d53f
00000280: 8e33 1b4f c6bc ac3f 2619 cefa 5e27 d33f
00000290: 5615 98c3 0401 c1bf 232e 0444 709f b13f
000002a0: 9218 2abd b2c8 c03f a431 1015 0671 a13f
000002b0: 59f1 4749 462f c3bf 1da0 6d13 f3a2 c0bf
000002c0: 24f3 7c31 0749 b6bf ba02 6e6c cef3 d2bf
000002d0: f54e ff40 a592 653f d3fc 6c39 8bcf b13f
000002e0: 5db8 6a2a a7c8 bebf 39b5 eb6c 51a4 993f
000002f0: 38d9 1f77 938a c8bf 12d9 45f8 7a94 a23f
00000300: 7c2f aa84 5fce 5fbf 95e4 4649 432c b9bf
00000310: 8c87 711b 07a0 c2bf 3f50 4e5f 9b51 9abf
00000320: 8d2f 0b6a 6da6 aebf c532 6500 9c23 a43f
00000330: 6e54 a6b3 feba 6e3f 5ee2 365d af68 a3bf
00000340: f435 ef96 d746 a7bf 72df 9d36 4d51 abbf
00000350: 46fe 64eb b490 b1bf face 839d 922e d4bf
00000360: 4661 ffae 1dd0 c5bf d2a5 309e 2665 73bf
00000370: a358 d71b 9be2 b43f 5a75 14f0 8add 7bbf
00000380: 5c27 6f33 b616 aebf a0a6 23b2 f43a d03f
00000390: 12d5 5557 0182 c3bf 5dcc b751 be99 b03f
000003a0: 1b3e ebf1 4cfc c13f 441f c8e9 a0e8 b13f
000003b0: 4f33 f9af 4051 c8bf c1b0 0dd7 3448 c73f
000003c0: 7177 2912 97bf c53f 2392 4d21 a03a be3f
000003d0: 59b5 8fce 0827 a83f d133 cd94 fdf0 8fbf
000003e0: c2e1 86bf e606 c83f 73d0 df92 70c8 c63f
000003f0: e4b0 6056 b768 a1bf 442c bb54 9cf2 78bf
00000400: 1cd1 97fc b1fa a0bf 91e6 a8c3 8a76 89bf
00000410: 4986 b20e 91f9 b0bf 5b52 75f9 614b b23f
00000420: 417d 14b2 b252 be3f 0ef6 2d23 ca57 b0bf
00000430: 8971 05b0 c989 8dbf 5061 8408 1e01 b13f
00000440: a26a 2c85 df70 bb3f 80f0 77f1 ff49 9cbf
00000450: bafc 3627 0003 babf 6c62 e8b5 d472 ba3f
00000460: a4c0 6cda aacf aabf bac6 da97 e6d3 b53f
00000470: 6547 5a1a fdd6 b3bf c4fd 9bf7 2717 adbf
00000480: edf6 7896 72cc 73bf 65be f797 431d b8bf
00000490: 59d8 d2a6 2909 ad3f cb43 a129 4b1b 88bf
000004a0: 014e fc13 32cc a3bf 3780 a458 eb72 a73f
000004b0: ae99 5d68 c3e1 cb3f 609e ad26 1b23 8c3f
000004c0: ef4c 52c7 d8ec 773f 6851 e98a da57 9cbf
000004d0: 8ba9 d68a bddc b53f 2005 4e63 cbe5 b13f
000004e0: a3a6 0bdc 742c a8bf ff10 66d2 dda2 b1bf
000004f0: 1bbf 13a1 886c 753f 619c 6114 073c babf
00000500: 5836 4107 2935 a2bf 8422 8ea4 9808 c53f
00000510: 5fd4 b5e2 e6e2 96bf db0b ae6f 0006 abbf
00000520: 7080 feb9 b395 b2bf ff48 7eb8 35a6 acbf
00000530: 3c24 2f5b d916 acbf 0000 0040 91d7 813f
00000540: 3b02 5fd3 8cc0 98bf 7ece 7c88 5bf5 b13f
00000550: 2c2f 0fc3 7114 95bf 24da 984c 0fd2 9a3f
00000560: 6aae 1f56 2bff c5bf 20c8 cbbf 4861 bebf
00000570: 17c2 40a6 d1f0 8fbf 368c ed6c c4d8 b33f
00000580: a0df dc3e c3c3 b6bf 091b 8315 98de b03f
00000590: 7a63 1957 72fd a43f 2c1f 453e 2dbe d8bf
000005a0: c697 15dc cd8b a03f 2cb6 f618 639e c23f
000005b0: 38cb da9f 8fac b03f 53d6 3629 528f 9cbf
000005c0: f6b8 f12a a30e 97bf c3c6 58e7 bff8 a73f
000005d0: 20b8 e52f 2125 b0bf 886c cb5f 14c5 c0bf
000005e0: becb a29a 6d93 a63f 03d3 f689 f902 6c3f
000005f0: a151 c66c dcb2 b63f 5781 2396 9b34 a0bf
00000600: 72f3 e010 2477 b13f 1a8f 21e0 9a46 acbf
00000610: 1aea e127 16ac 81bf 5363 5d1b db79 90bf
00000620: b170 55e3 6607 83bf 671d 068c c3f2 a6bf
00000630: a580 9a14 2d24 acbf 4970 04d0 eb8c b23f
00000640: 785f d2ed ea07 783f 5257 8653 e2cf 9f3f
00000650: 3395 f90f a189 8a3f c499 9eea 4573 95bf
00000660: 21b2 ff25 780c a13f 1d83 dfe8 4baa a1bf
00000670: 4756 1732 3714 af3f a78d e78d 7ea6 afbf
00000680: a8b0 cb36 2085 aa3f 9aa0 084f 647a c43f
00000690: aac4 c2b9 8456 a03f e002 c696 8a7d 9fbf
000006a0: b44f 4f8f 3e83 bc3f 0c37 366f 086c cebf
000006b0: d127 f1fd 4e4a b73f 5d2b 2bb9 ebe4 b53f
000006c0: bfaf c8bf 20cd 943f c96f e28a e120 adbf
000006d0: f3a9 f39f 9559 873f 3f76 8196 eb92 83bf
000006e0: fdfa 05fb dcbe 613f 3575 7cc2 2968 a0bf
000006f0: 95a4 884b 3694 973f e4fe 34f3 b973 b03f
00000700: eb30 d138 0c9e 85bf 308a c738 6b22 a1bf
00000710: 4457 29e7 d111 babf 8a95 cffc b276 ba3f
00000720: e119 e130 8799 92bf b3e2 8171 e5f4 a93f
00000730: a9bf e816 8f5b 6ebf 8a0c bcf4 6a01 a03f
00000740: 53e2 f940 91ca 8cbf 5ff6 fa06 799b ab3f
00000750: ae53 e1d3 96ea a73f 19ab 677d 6326 96bf
00000760: 1480 07a7 a698 b6bf 9553 02fc 99f0 abbf
00000770: 25e6 e5f3 195f b13f df7a e998 be3f a9bf
00000780: 3273 e41c 67cb a33f 5d82 07a7 4489 a3bf
00000790: 9d2f 9934 d6c0 b13f 6e7f 9c6f 9d79 b63f
000007a0: 411f 4b67 2f11 a8bf 8ddb 1df1 38eb 963f
000007b0: f55a 7be8 9675 793f 866a 6829 2d25 c73f
000007c0: aacc 717d b1fa b73f 5c32 6d8f c6ef 78bf
000007d0: e72b 93ac 9257 b6bf ae78 2210 6720 a6bf
000007e0: f4c0 dae5 c9e4 ba3f 6f81 3e33 bfd4 913f
000007f0: 3fa5 d1d9 2e5b 98bf 74eb f685 c1fb b9bf

bias f8 [128]
-0.24815205107430635 -0.08475379626413758 0.0957964305878636 0.002176053382730499 -0.09423624750670799 0.025670029269993726 -0.11935482245201026 -0.050028871028472616
-0.08876829113821422 0.07850958033143453 0.01889876008409494 -0.14612765162826813 -0.050216750113671944 0.07169515607401634 0.07583980163537966 0.039802425449833694
0.1687381123565509 -0.09561509930258667 0.0038986097573331983 -0.04932236799060534 0.06763360039756251 -0.08001027064505678 0.01252090332806128 -0.07469472999577746
0.056611601110825194 -0.02223227147447515 -0.05382966503867132 0.04880756120458651 0.028033016789535518 0.03739481518880547 -0.08397630612450062 -0.029305119118047406
0.0007537551366127698 0.027968893762637597 -0.09858188334385277 -0.07743776935173644 0.007290206021195346 -0.050546226108977715 0.05610927632502253 0.07772107945667074
-0.00795585472949976 -0.10808048920553456 0.17841336180198894 -0.15032998476273934 -0.1216627040464827 -0.037412107608636225 0.091083205663008 -0.01386332758878045
0.06746389002076157 -0.060232435444655834 -0.019406267725837808 0.037046762545036464 0.08149521797895432 -0.13267061539119987 -0.1407479601958209 0.020496398906385962
-0.010093282246113762 -0.22852967361731866 -0.07701938353182682 0.1867701500986135 -0.04237272116708797 -0.14094791606883714 -0.0853298663747729 0.16815139716373884
-0.0584786560464893 0.007127765062938656 -0.06228914620821247 -0.012135633436400159 0.07758851836449716 -0.051558622070302165 -0.1078342897569245 0.009004674205574936
-0.009488457213436868 -0.04580848291516304 0.07542202176822996 -0.048668574284011466 0.0053846992452483075 -0.10949673502485109 -0.10176426369138568 0.026722141710016113
-0.0875308143089846 0.01992223239369513 0.06608902087534126 -0.07975807854564657 -0.06326407893949856 -0.029581281330523464 -0.04976516693060541 -0.03619365589138772
0.05411536046537738 -0.08165158596547449 -0.17061536641141514 0.05924175418688915 0.04155729932744175 -0.035633435515265266 0.11967240467513711 0.0015392945746196703
-0.030680589092996813 -0.10052074911070916 -0.07770887403542846 -0.009047135671271508 -0.00042664784966408935 -0.1505627383666138 -0.008255182092872597 0.00950797998753602
-0.009017685636084712 -0.10327138425364028 0.031045001952377006 0.015926392109683666 -0.008245916720193027 -0.04037888821305554 0.010850632876254748 -0.07331701418400492
-0.020232530521171344 0.03307421840736755 -0.01676155463401125 -0.03433185426817873 0.047130149447826265 0.010977505022436251 -0.045325952119857876 -0.07212508296902227
0.08681418953212391 -0.061344143037189956 -0.05397174325767758 0.04634547634411427 0.021668988450352564 0.07366605960613497 -0.08522695749907995 0.06119118750684462
00000000: f354 e647 72c3 cfbf cf93 2abf 6cb2 b5bf
00000010: e2ca 7268 1d86 b83f c426 9fc3 83d3 613f
00000020: 3f9a 23e1 dd1f b8bf 5ed5 ce80 3e49 9a3f
00000030: 1220 0da3 098e bebf 7c9f d859 629d a9bf
00000040: 9445 5ccb 84b9 b6bf e939 f22f 3419 b43f
00000050: 980b fc51 325a 933f d070 6496 4fb4 c2bf
00000060: 4935 e686 02b6 a9bf 9998 9e1e 9d5a b23f
00000070: 4353 c2bb 3c6a b33f 1f8f 37c7 fb60 a43f
00000080: 1c80 14e1 3599 c53f a526 822c 3b7a b8bf
00000090: 8b29 0b2d faef 6f3f 163c f60a c840 a9bf
000000a0: b979 d185 6f50 b13f a4be c397 8d7b b4bf
000000b0: 64b3 7b32 8fa4 893f 33f2 839e 311f b3bf
000000c0: f0bc b01e 32fc ac3f 803b 987b 0ec4 96bf
000000d0: d99c cad5 8f8f abbf cfa9 57fe 4dfd a83f
000000e0: c1ef 46e9 afb4 9c3f 9c40 8dc8 6925 a33f
000000f0: bb90 71a0 787f b5bf 939d de40 2902 9ebf
00000100: f0ce 99d4 f4b2 483f eb34 10b0 e0a3 9c3f
00000110: 919f f08c a93c b9bf 2a45 d72e f6d2 b3bf
00000120: 82fd 12c7 55dc 7d3f 1c08 26e8 31e1 a9bf
00000130: f5ea a2e5 5aba ac3f 71e9 7956 87e5 b33f
00000140: 75da ffbe 284b 80bf 2634 79b6 29ab bbbf
00000150: 57f2 0dc1 3fd6 c63f aa02 1550 033e c3bf
00000160: 27c7 0577 4925 bfbf e09a 4e05 ae27 a3bf
00000170: 1197 899d 3a51 b73f 6041 dc54 6064 8cbf
00000180: 1fd4 4c41 5045 b13f 2f55 c928 c9d6 aebf
00000190: cf2b e194 3cdf 93bf af72 1b13 cbf7 a23f
000001a0: 0000 00e0 dedc b43f 3169 1fc9 59fb c0bf
000001b0: 8387 0277 0704 c2bf 376d f40b 02fd 943f
000001c0: 9737 4069 c9ab 84bf 4b0c 2dd9 7540 cdbf
000001d0: 0962 6dd5 8ab7 b3bf 7b72 4593 15e8 c73f
000001e0: 6a72 4f97 e0b1 a5bf b73d fad0 940a c2bf
000001f0: 97a2 7399 2dd8 b5bf d427 cc27 fc85 c53f
00000200: 14a8 7716 eaf0 adbf f91a 6cdd 0032 7d3f
00000210: 8156 b8eb 5ce4 afbf 58fe cd25 91da 88bf
00000220: 25ad eb54 d7dc b33f a2cf 3c47 e465 aabf
00000230: 74b4 e42b 079b bbbf 00ea cae9 0a71 823f
00000240: 96a1 5e2b af6e 83bf 0000 00a0 3574 a7bf
00000250: 1e8b e48c db4e b33f eb19 c95d 16eb a8bf
00000260: 78a2 8332 440e 763f d554 f35f fa07 bcbf
00000270: d7bd 7408 390d babf 8af6 e492 0c5d 9b3f
00000280: 326e d960 6b68 b6bf 747e 6062 7e66 943f
00000290: bdc4 48c7 35eb b03f 8a02 f282 066b b4bf
000002a0: 7684 0e1e 1332 b0bf d2b1 8d2f 8e4a 9ebf
000002b0: 22d4 e4e8 d17a a9bf b69b c090 f987 a2bf
000002c0: b4f1 d12e 02b5 ab3f 0f64 634b 1ee7 b4bf
000002d0: 8f4e 776d b9d6 c5bf 10aa 9469 ef54 ae3f
000002e0: dbfa 0a93 ff46 a53f e847 5db0 8b3e a2bf
000002f0: 6b3a 50c8 d9a2 be3f 4b7a d7f6 4438 593f
00000300: f011 1b7b bb6a 9fbf 8efa ff51 babb b9bf
00000310: 8755 9790 bae4 b3bf 580a a5fe 4d87 82bf
00000320: dcd9 ab8f f6f5 3bbf 9bf1 a3ca a345 c3bf
00000330: 4f2c e4c8 17e8 80bf ada8 c778 eb78 833f
00000340: b107 2447 dd77 82bf 9b66 fb51 fe6f babf
00000350: 5ade 5bd0 42ca 9f3f f177 0415 024f 903f
00000360: bb32 1c35 3ce3 80bf fbd7 a5a8 8aac a4bf
00000370: 785d c14a db38 863f 9f21 2962 e7c4 b2bf
00000380: 5d71 9d23 d6b7 94bf dd01 cd9c 1aef a03f
00000390: d2ca eee3 f029 91bf 7df2 95de f193 a1bf
000003a0: 4569 1165 7121 a83f d31a 81c8 5f7b 863f
000003b0: 9c9a 0794 f634 a7bf adbf 9218 ca76 b2bf
000003c0: 0e85 de68 7439 b63f 63b0 4ae0 7f68 afbf
000003d0: 9b50 6630 2fa2 abbf a557 6e22 98ba a73f
000003e0: d939 ed32 6530 963f a362 d564 c7db b23f
000003f0: 9935 3213 6fd1 b5bf f364 4a8a 7354 af3f
