result/LINUX/N2Gim/sum_none_pGinFalse_woNodeattFalse_woGraphattFalse/2022-09-10_13-49-27/final_0.pt (torch, 261086 bytes, 36 tensors)

weight f4 [64, 64]
000000 00 00 00 00 00 00 00 00 00 00 00 00 00 00 00 00
       0.0 0.0 0.0 0.0
000010 00 00 00 00 00 00 00 00 00 00 00 00 00 00 00 00
       0.0 0.0 0.0 0.0
000020 00 00 00 00 00 00 00 00 00 00 00 00 00 00 00 00
       0.0 0.0 0.0 0.0
000030 00 00 00 00 00 00 00 00 00 00 00 00 00 00 00 00
       0.0 0.0 0.0 0.0
000040 00 00 00 00 00 00 00 00 00 00 00 00 00 00 00 00
       0.0 0.0 0.0 0.0
000050 00 00 00 00 00 00 00 00 00 00 00 00 00 00 00 00
       0.0 0.0 0.0 0.0
000060 00 00 00 00 00 00 00 00 00 00 00 00 00 00 00 00
       0.0 0.0 0.0 0.0
000070 00 00 00 00 00 00 00 00 00 00 00 00 00 00 00 00
       0.0 0.0 0.0 0.0
000080 00 00 00 00 00 00 00 00 00 00 00 00 00 00 00 00
       0.0 0.0 0.0 0.0
000090 00 00 00 00 00 00 00 00 00 00 00 00 00 00 00 00
       0.0 0.0 0.0 0.0
0000a0 00 00 00 00 00 00 00 00 00 00 00 00 00 00 00 00
       0.0 0.0 0.0 0.0
0000b0 00 00 00 00 00 00 00 00 00 00 00 00 00 00 00 00
       0.0 0.0 0.0 0.0
0000c0 00 00 00 00 00 00 00 00 00 00 00 00 00 00 00 00
       0.0 0.0 0.0 0.0
0000d0 00 00 00 00 00 00 00 00 00 00 00 00 00 00 00 00
       0.0 0.0 0.0 0.0
0000e0 00 00 00 00 00 00 00 00 00 00 00 00 00 00 00 00
       0.0 0.0 0.0 0.0
0000f0 00 00 00 00 00 00 00 00 00 00 00 00 00 00 00 00
       0.0 0.0 0.0 0.0
000100 00 00 00 00 00 00 00 00 00 00 00 00 00 00 00 00
       0.0 0.0 0.0 0.0
000110 00 00 00 00 00 00 00 00 00 00 00 00 00 00 00 00
       0.0 0.0 0.0 0.0
000120 00 00 00 00 00 00 00 00 00 00 00 00 00 00 00 00
       0.0 0.0 0.0 0.0
000130 00 00 00 00 00 00 00 00 00 00 00 00 00 00 00 00
       0.0 0.0 0.0 0.0
000140 00 00 00 00 00 00 00 00 00 00 00 00 00 00 00 00
       0.0 0.0 0.0 0.0
000150 00 00 00 00 00 00 00 00 00 00 00 00 00 00 00 00
       0.0 0.0 0.0 0.0
000160 00 00 00 00 00 00 00 00 00 00 00 00 00 00 00 00
       0.0 0.0 0.0 0.0
000170 00 00 00 00 00 00 00 00 00 00 00 00 00 00 00 00
       0.0 0.0 0.0 0.0
000180 00 00 00 00 00 00 00 00 00 00 00 00 00 00 00 00
       0.0 0.0 0.0 0.0
000190 00 00 00 00 00 00 00 00 00 00 00 00 00 00 00 00
       0.0 0.0 0.0 0.0
0001a0 00 00 00 00 00 00 00 00 00 00 00 00 00 00 00 00
       0.0 0.0 0.0 0.0
0001b0 00 00 00 00 00 00 00 00 00 00 00 00 00 00 00 00
       0.0 0.0 0.0 0.0
0001c0 00 00 00 00 00 00 00 00 00 00 00 00 00 00 00 00
       0.0 0.0 0.0 0.0
0001d0 00 00 00 00 00 00 00 00 00 00 00 00 00 00 00 00
       0.0 0.0 0.0 0.0
0001e0 00 00 00 00 00 00 00 00 00 00 00 00 00 00 00 00
       0.0 0.0 0.0 0.0
0001f0 00 00 00 00 00 00 00 00 00 00 00 00 00 00 00 00
       0.0 0.0 0.0 0.0
000200 00 00 00 00 00 00 00 00 00 00 00 00 00 00 00 00
       0.0 0.0 0.0 0.0
000210 00 00 00 00 00 00 00 00 00 00 00 00 00 00 00 00
       0.0 0.0 0.0 0.0
000220 00 00 00 00 00 00 00 00 00 00 00 00 00 00 00 00
       0.0 0.0 0.0 0.0
000230 00 00 00 00 00 00 00 00 00 00 00 00 00 00 00 00
       0.0 0.0 0.0 0.0
000240 00 00 00 00 00 00 00 00 00 00 00 00 00 00 00 00
       0.0 0.0 0.0 0.0
000250 00 00 00 00 00 00 00 00 00 00 00 00 00 00 00 00
       0.0 0.0 0.0 0.0
000260 00 00 00 00 00 00 00 00 00 00 00 00 00 00 00 00
       0.0 0.0 0.0 0.0
000270 00 00 00 00 00 00 00 00 00 00 00 00 00 00 00 00
       0.0 0.0 0.0 0.0
000280 00 00 00 00 00 00 00 00 00 00 00 00 00 00 00 00
       0.0 0.0 0.0 0.0
000290 00 00 00 00 00 00 00 00 00 00 00 00 00 00 00 00
       0.0 0.0 0.0 0.0
0002a0 00 00 00 00 00 00 00 00 00 00 00 00 00 00 00 00
       0.0 0.0 0.0 0.0
0002b0 00 00 00 00 00 00 00 00 00 00 00 00 00 00 00 00
       0.0 0.0 0.0 0.0
0002c0 00 00 00 00 00 00 00 00 00 00 00 00 00 00 00 00
       0.0 0.0 0.0 0.0
0002d0 00 00 00 00 00 00 00 00 00 00 00 00 00 00 00 00
       0.0 0.0 0.0 0.0
0002e0 00 00 00 00 00 00 00 00 00 00 00 00 00 00 00 00
       0.0 0.0 0.0 0.0
0002f0 00 00 00 00 00 00 00 00 00 00 00 00 00 00 00 00
       0.0 0.0 0.0 0.0
000300 00 00 00 00 00 00 00 00 00 00 00 00 00 00 00 00
       0.0 0.0 0.0 0.0
000310 00 00 00 00 00 00 00 00 00 00 00 00 00 00 00 00
       0.0 0.0 0.0 0.0
000320 00 00 00 00 00 00 00 00 00 00 00 00 00 00 00 00
       0.0 0.0 0.0 0.0
000330 00 00 00 00 00 00 00 00 00 00 00 00 00 00 00 00
       0.0 0.0 0.0 0.0
000340 00 00 00 00 00 00 00 00 00 00 00 00 00 00 00 00
       0.0 0.0 0.0 0.0
000350 00 00 00 00 00 00 00 00 00 00 00 00 00 00 00 00
       0.0 0.0 0.0 0.0
000360 00 00 00 00 00 00 00 00 00 00 00 00 00 00 00 00
       0.0 0.0 0.0 0.0
000370 00 00 00 00 00 00 00 00 00 00 00 00 00 00 00 00
       0.0 0.0 0.0 0.0
000380 00 00 00 00 00 00 00 00 00 00 00 00 00 00 00 00
       0.0 0.0 0.0 0.0
000390 00 00 00 00 00 00 00 00 00 00 00 00 00 00 00 00
       0.0 0.0 0.0 0.0
0003a0 00 00 00 00 00 00 00 00 00 00 00 00 00 00 00 00
       0.0 0.0 0.0 0.0
0003b0 00 00 00 00 00 00 00 00 00 00 00 00 00 00 00 00
       0.0 0.0 0.0 0.0
0003c0 00 00 00 00 00 00 00 00 00 00 00 00 00 00 00 00
       0.0 0.0 0.0 0.0
0003d0 00 00 00 00 00 00 00 00 00 00 00 00 00 00 00 00
       0.0 0.0 0.0 0.0
0003e0 00 00 00 00 00 00 00 00 00 00 00 00 00 00 00 00
       0.0 0.0 0.0 0.0
0003f0 00 00 00 00 00 00 00 00 00 00 00 00 00 00 00 00
       0.0 0.0 0.0 0.0

bias f4 [64, 64]
000000 00 00 00 00 00 00 00 00 00 00 00 00 00 00 00 00
       0.0 0.0 0.0 0.0
000010 00 00 00 00 00 00 00 00 00 00 00 00 00 00 00 00
       0.0 0.0 0.0 0.0
000020 00 00 00 00 00 00 00 00 00 00 00 00 00 00 00 00
       0.0 0.0 0.0 0.0
000030 00 00 00 00 00 00 00 00 00 00 00 00 00 00 00 00
       0.0 0.0 0.0 0.0
000040 00 00 00 00 00 00 00 00 00 00 00 00 00 00 00 00
       0.0 0.0 0.0 0.0
000050 00 00 00 00 00 00 00 00 00 00 00 00 00 00 00 00
       0.0 0.0 0.0 0.0
000060 00 00 00 00 00 00 00 00 00 00 00 00 00 00 00 00
       0.0 0.0 0.0 0.0
000070 00 00 00 00 00 00 00 00 00 00 00 00 00 00 00 00
       0.0 0.0 0.0 0.0
000080 00 00 00 00 00 00 00 00 00 00 00 00 00 00 00 00
       0.0 0.0 0.0 0.0
000090 00 00 00 00 00 00 00 00 00 00 00 00 00 00 00 00
       0.0 0.0 0.0 0.0
0000a0 00 00 00 00 00 00 00 00 00 00 00 00 00 00 00 00
       0.0 0.0 0.0 0.0
0000b0 00 00 00 00 00 00 00 00 00 00 00 00 00 00 00 00
       0.0 0.0 0.0 0.0
0000c0 00 00 00 00 00 00 00 00 00 00 00 00 00 00 00 00
       0.0 0.0 0.0 0.0
0000d0 00 00 00 00 00 00 00 00 00 00 00 00 00 00 00 00
       0.0 0.0 0.0 0.0
0000e0 00 00 00 00 00 00 00 00 00 00 00 00 00 00 00 00
       0.0 0.0 0.0 0.0
0000f0 00 00 00 00 00 00 00 00 00 00 00 00 00 00 00 00
       0.0 0.0 0.0 0.0
000100 00 00 00 00 00 00 00 00 00 00 00 00 00 00 00 00
       0.0 0.0 0.0 0.0
000110 00 00 00 00 00 00 00 00 00 00 00 00 00 00 00 00
       0.0 0.0 0.0 0.0
000120 00 00 00 00 00 00 00 00 00 00 00 00 00 00 00 00
       0.0 0.0 0.0 0.0
000130 00 00 00 00 00 00 00 00 00 00 00 00 00 00 00 00
       0.0 0.0 0.0 0.0
000140 00 00 00 00 00 00 00 00 00 00 00 00 00 00 00 00
       0.0 0.0 0.0 0.0
000150 00 00 00 00 00 00 00 00 00 00 00 00 00 00 00 00
       0.0 0.0 0.0 0.0
000160 00 00 00 00 00 00 00 00 00 00 00 00 00 00 00 00
       0.0 0.0 0.0 0.0
000170 00 00 00 00 00 00 00 00 00 00 00 00 00 00 00 00
       0.0 0.0 0.0 0.0
000180 00 00 00 00 00 00 00 00 00 00 00 00 00 00 00 00
       0.0 0.0 0.0 0.0
000190 00 00 00 00 00 00 00 00 00 00 00 00 00 00 00 00
       0.0 0.0 0.0 0.0
0001a0 00 00 00 00 00 00 00 00 00 00 00 00 00 00 00 00
       0.0 0.0 0.0 0.0
0001b0 00 00 00 00 00 00 00 00 00 00 00 00 00 00 00 00
       0.0 0.0 0.0 0.0
0001c0 00 00 00 00 00 00 00 00 00 00 00 00 00 00 00 00
       0.0 0.0 0.0 0.0
0001d0 00 00 00 00 00 00 00 00 00 00 00 00 00 00 00 00
       0.0 0.0 0.0 0.0
0001e0 00 00 00 00 00 00 00 00 00 00 00 00 00 00 00 00
       0.0 0.0 0.0 0.0
0001f0 00 00 00 00 00 00 00 00 00 00 00 00 00 00 00 00
       0.0 0.0 0.0 0.0
000200 00 00 00 00 00 00 00 00 00 00 00 00 00 00 00 00
       0.0 0.0 0.0 0.0
000210 00 00 00 00 00 00 00 00 00 00 00 00 00 00 00 00
       0.0 0.0 0.0 0.0
000220 00 00 00 00 00 00 00 00 00 00 00 00 00 00 00 00
       0.0 0.0 0.0 0.0
000230 00 00 00 00 00 00 00 00 00 00 00 00 00 00 00 00
       0.0 0.0 0.0 0.0
000240 00 00 00 00 00 00 00 00 00 00 00 00 00 00 00 00
       0.0 0.0 0.0 0.0
000250 00 00 00 00 00 00 00 00 00 00 00 00 00 00 00 00
       0.0 0.0 0.0 0.0
000260 00 00 00 00 00 00 00 00 00 00 00 00 00 00 00 00
       0.0 0.0 0.0 0.0
000270 00 00 00 00 00 00 00 00 00 00 00 00 00 00 00 00
       0.0 0.0 0.0 0.0
000280 00 00 00 00 00 00 00 00 00 00 00 00 00 00 00 00
       0.0 0.0 0.0 0.0
000290 00 00 00 00 00 00 00 00 00 00 00 00 00 00 00 00
       0.0 0.0 0.0 0.0
0002a0 00 00 00 00 00 00 00 00 00 00 00 00 00 00 00 00
       0.0 0.0 0.0 0.0
0002b0 00 00 00 00 00 00 00 00 00 00 00 00 00 00 00 00
       0.0 0.0 0.0 0.0
0002c0 00 00 00 00 00 00 00 00 00 00 00 00 00 00 00 00
       0.0 0.0 0.0 0.0
0002d0 00 00 00 00 00 00 00 00 00 00 00 00 00 00 00 00
       0.0 0.0 0.0 0.0
0002e0 00 00 00 00 00 00 00 00 00 00 00 00 00 00 00 00
       0.0 0.0 0.0 0.0
0002f0 00 00 00 00 00 00 00 00 00 00 00 00 00 00 00 00
       0.0 0.0 0.0 0.0
000300 00 00 00 00 00 00 00 00 00 00 00 00 00 00 00 00
       0.0 0.0 0.0 0.0
000310 00 00 00 00 00 00 00 00 00 00 00 00 00 00 00 00
       0.0 0.0 0.0 0.0
000320 00 00 00 00 00 00 00 00 00 00 00 00 00 00 00 00
       0.0 0.0 0.0 0.0
000330 00 00 00 00 00 00 00 00 00 00 00 00 00 00 00 00
       0.0 0.0 0.0 0.0
000340 00 00 00 00 00 00 00 00 00 00 00 00 00 00 00 00
       0.0 0.0 0.0 0.0
000350 00 00 00 00 00 00 00 00 00 00 00 00 00 00 00 00
       0.0 0.0 0.0 0.0
000360 00 00 00 00 00 00 00 00 00 00 00 00 00 00 00 00
       0.0 0.0 0.0 0.0
000370 00 00 00 00 00 00 00 00 00 00 00 00 00 00 00 00
       0.0 0.0 0.0 0.0
000380 00 00 00 00 00 00 00 00 00 00 00 00 00 00 00 00
       0.0 0.0 0.0 0.0
000390 00 00 00 00 00 00 00 00 00 00 00 00 00 00 00 00
       0.0 0.0 0.0 0.0
0003a0 00 00 00 00 00 00 00 00 00 00 00 00 00 00 00 00
       0.0 0.0 0.0 0.0
0003b0 00 00 00 00 00 00 00 00 00 00 00 00 00 00 00 00
       0.0 0.0 0.0 0.0
0003c0 00 00 00 00 00 00 00 00 00 00 00 00 00 00 00 00
       0.0 0.0 0.0 0.0
0003d0 00 00 00 00 00 00 00 00 00 00 00 00 00 00 00 00
       0.0 0.0 0.0 0.0
0003e0 00 00 00 00 00 00 00 00 00 00 00 00 00 00 00 00
       0.0 0.0 0.0 0.0
0003f0 00 00 00 00 00 00 00 00 00 00 00 00 00 00 00 00
       0.0 0.0 0.0 0.0

weight f4 [64, 64]
000000 50 1b da bd fd 95 91 bd 5e 1c a1 ba 74 b5 20 be
       -0.10649741 -0.07108686 -0.0012291779 -0.15694219
000010 bb 68 32 bd b5 ed 28 be 67 e5 f2 bd 83 f7 27 3d
       -0.04355691 -0.16496928 -0.11860161 0.04100753
000020 f8 45 36 3e 5d ff 8c 3e 89 b4 3f 3d 27 a7 20 3e
       0.17800128 0.27538577 0.04680303 0.15688764
000030 41 38 18 be 33 11 41 bd 9e 4f 25 be 80 04 c0 bc
       -0.14865209 -0.047135543 -0.16143653 -0.023439646
000040 f9 5f 96 3d 52 af b1 bb 56 69 98 bd d1 05 44 3d
       0.07342524 -0.005422511 -0.07441966 0.04785711
000050 bb 75 01 be 3e fc 4d 3e e3 50 f8 3c bf 71 aa 3c
       -0.12642567 0.20115754 0.030312007 0.020806191
000060 b9 69 ca bc 33 08 1a 3e 2b 60 b8 3d 7c e3 35 3d
       -0.024708616 0.1504219 0.090027176 0.0444064
000070 44 12 35 be f1 a2 17 3d 20 70 89 3e e0 bb 16 bc
       -0.17682749 0.037020627 0.26843357 -0.009200066
000080 79 a4 2d 3e bd f3 08 bd 3e 38 20 3e 14 2c e3 3c
       0.16957273 -0.033435572 0.15646455 0.027730979
000090 16 65 0f be 73 aa 6e be f5 7a 28 3d 6e 8d 95 bd
       -0.14003405 -0.23307209 0.041132886 -0.07302366
0000a0 71 dc 29 3e 80 43 19 be 7f 95 f2 3d a4 c6 53 bd
       0.16587998 -0.14967155 0.1184492 -0.05170311
0000b0 b5 11 9e 3d 6e c7 8c 3e 9e 03 81 3d 6c 89 18 3e
       0.07718221 0.27495903 0.06299518 0.14896172
0000c0 09 39 49 bd f9 4c 9d 3d ce 67 d6 bd af 00 a7 bd
       -0.04912666 0.07680697 -0.10469018 -0.08154427
0000d0 a3 83 b4 bd 21 9a 2b bd ab 95 b3 3a 02 f4 58 bd
       -0.0881417 -0.041895036 0.0013701221 -0.05296708
0000e0 a5 b7 08 3e 2e 54 6d bd 32 31 93 be c6 72 3c bb
       0.13351305 -0.057941608 -0.2874847 -0.0028754934
0000f0 e3 d4 25 3e cb 36 44 bc 96 1c 0e be 0a eb b8 3d
       0.16194491 -0.011975954 -0.13878092 0.09029205
000100 e3 c9 35 bd 29 9f 07 be 33 ee 28 be cf 6a 11 3e
       -0.044381987 -0.13244309 -0.16497116 0.142009
000110 50 63 9a 3c ca 3d 1f 3c 90 03 2a bd 27 17 4c be
       0.018846184 0.0097193215 -0.041507304 -0.19930707
000120 72 72 3f 3e eb f7 31 3e 79 ae b7 3c 00 4f 86 3d
       0.18696001 0.1737973 0.022422062 0.06558037
000130 6a 48 97 3c a2 d0 18 be 44 b9 a7 bc 2c 23 22 3d
       0.018467147 -0.14923337 -0.020474084 0.039584324
000140 7a fa ac 3d 27 b2 24 bc 34 19 39 be f3 d9 df 3c
       0.08446212 -0.01005224 -0.1807602 0.027325606
000150 87 66 29 3d da fc 14 be e8 2f 35 3e f0 1a f9 3d
       0.041357543 -0.1454958 0.17694056 0.12163341
000160 7d a8 1d bd 4d f7 1b 3e de 89 fd 3c 3a 9d 43 be
       -0.03849076 0.15231057 0.03094953 -0.19102946
000170 4b b3 ca bd e7 ff 01 3e 14 fd 6b bd b4 71 be 3d
       -0.09897479 0.12695275 -0.0576144 0.09299031
000180 3f 07 18 bd 9a eb c4 bd 0e e6 cb 3d b3 fb 8b 3d
       -0.037116285 -0.0961525 0.09955989 0.06835117
000190 21 94 08 bd 65 be 7b 3d 20 af 08 bc 3f 41 8e bd
       -0.03334439 0.06146087 -0.008342534 -0.069460385
0001a0 b5 d5 13 be c6 42 90 bd 54 7a 1b be 3a ae 90 bd
       -0.14436992 -0.07043986 -0.15183383 -0.07064481
0001b0 26 76 00 be 62 e3 32 3c d7 56 ad 3b 27 17 7c bd
       -0.1254507 0.01091847 0.005289893 -0.061545517
0001c0 4c f9 aa 3d a4 61 08 3c d9 1c 5f be d9 97 21 bd
       0.08348331 0.008324061 -0.21788348 -0.039451454
0001d0 7d 06 8f 3d 71 c6 16 be c5 23 00 be 66 7c 7d 3d
       0.069836594 -0.14724137 -0.12513645 0.061886214
0001e0 cf cf 01 be 06 76 9c 3e 10 11 e1 3d 86 07 eb ba
       -0.12676929 0.30558795 0.109895825 -0.0017931319
0001f0 94 59 f2 bc 88 1f 61 be 64 5d 57 3e 6d b1 64 bd
       -0.02958373 -0.21984684 0.2103172 -0.05583327
000200 94 81 a4 bc 9b ef 1c 3d 89 a3 91 bd ea c4 36 3d
       -0.020081319 0.038314443 -0.0711127 0.044621386
000210 f5 10 f5 3c 94 e2 cc bc 1b 63 91 bd 61 5a af 3d
       0.029915312 -0.025010385 -0.07098981 0.0856216
000220 13 86 05 3d d7 08 3e 3d 93 00 04 3d ae 44 ba bd
       0.032598566 0.04639515 0.03222711 -0.09095131
000230 ad 05 29 3e e5 79 34 bc 7b 99 8d bd 5c 9b e4 bd
       0.16506071 -0.01101539 -0.0691404 -0.11162445
000240 c3 c7 b4 3d 38 44 cb bc ff 21 bd bd 3a a7 60 bd
       0.08827164 -0.024812803 -0.09235 -0.05484698
000250 d2 6a 33 3e 1d 99 56 3e b8 22 b8 bd 52 e2 8a bd
       0.17521217 0.20956846 -0.08990997 -0.067814484
000260 fd 8a ca bd 88 99 1f 3e 14 7d d6 3c 68 6f 0a 3c
       -0.09889791 0.15585911 0.026182689 0.008449413
000270 f1 12 53 3e e5 dc c7 bc 04 b9 41 3d 9e e4 e1 bc
       0.20612694 -0.024397323 0.047295585 -0.027574833
000280 ad 06 95 bc 06 2d 18 bd 14 7d a1 3d dc a9 47 be
       -0.01819166 -0.037152313 0.07885185 -0.1949839
000290 88 94 90 bd d8 ef 45 3e bb 68 b8 3e de 7a e7 3c
       -0.0705958 0.19329774 0.36017403 0.02825683
0002a0 7c e4 02 be de 94 16 be 6d d5 8a bd 2c ad cd 3b
       -0.12782472 -0.14705226 -0.06778989 0.006276747
0002b0 99 7d 0a bd 01 2d 1b 3e 86 ae 47 bd 23 3f 4c 3c
       -0.033811186 0.15153886 -0.048750423 0.012466225
0002c0 10 88 cc bc 99 e2 37 be 2e e7 13 3e b8 54 22 3d
       -0.024967223 -0.17957534 0.14443657 0.039631575
0002d0 fc 03 dc bd df bb 4a bd 83 b9 17 3d 1a bd 51 3e
       -0.107429475 -0.049495574 0.037042152 0.20482293
0002e0 ad 61 c5 3d 46 e2 bd 3d 2a 02 f0 3d 95 95 5c bd
       0.09637771 0.09271674 0.11719163 -0.05385359
0002f0 8e 4b d1 3d 41 93 9d bd a9 36 ae 3d 09 a2 e5 bd
       0.10219489 -0.07694102 0.08506519 -0.112125464
000300 55 2f a1 3c 9e 7e 49 be 2a 38 29 be 2c 13 50 3d
       0.01967589 -0.19677207 -0.16525331 0.050799534
000310 32 5e 3c be 8b 34 19 3d 67 ee c6 3d 30 52 52 bd
       -0.18395308 0.037403625 0.097134404 -0.05134791
000320 6e 1b 8d be b5 10 49 be 1f 2f 07 be ba ce 02 be
       -0.2755999 -0.1963528 -0.13201569 -0.12774172
000330 35 27 8b 3b ca 0b d7 3d 20 6c 46 3d ce 91 f4 3d
       0.004246617 0.105002955 0.04844296 0.119418725
000340 10 c3 31 3d e6 6e 68 3d 26 f2 5c 3e de 59 84 3c
       0.043398917 0.056746386 0.21576747 0.016156133
000350 9b 6f 6c be 98 3a 82 bd af 5c ee bd 93 56 f3 3d
       -0.23089449 -0.06358832 -0.11638772 0.11881747
000360 73 2c 8c bd 12 ed cc bd 96 9d fe bc 10 3c 13 bd
       -0.068444155 -0.10006155 -0.031081002 -0.035945952
000370 4f 9e 25 3e 16 a6 98 3d 54 4b ba 3b d6 78 09 be
       0.16173671 0.074535534 0.0056852493 -0.13425002
000380 19 ef ea bd 23 4a 1c bd 9e b4 1d bd db 4e 91 3c
       -0.114713855 -0.03815664 -0.038502328 0.017737797
000390 3b bc 30 3b 60 cf 2b 3d c4 a6 a5 3c 26 a3 e1 3c
       0.0026967663 0.041945815 0.020221122 0.027543616
0003a0 32 92 13 3e 2b 6c c4 3b b1 2f 95 3d 0b 1f 38 be
       0.14411238 0.00599434 0.07284487 -0.17980592
0003b0 f6 91 6d 3b e3 47 f7 bd 85 d1 06 be 06 20 fb 3c
       0.003625033 -0.12074258 -0.13165863 0.030654918
0003c0 de 56 43 3d 19 57 8c bd d9 bc 02 be a8 89 15 3d
       0.047690265 -0.0685255 -0.12767352 0.036508232
0003d0 38 93 1b bd 98 23 af bc 96 15 27 3b 15 71 3d bd
       -0.037982196 -0.021379277 0.0025495044 -0.04625042
0003e0 93 ef 46 bc cd a4 13 3d 20 bc 0a be 25 69 ae bd
       -0.01214208 0.03604584 -0.13548326 -0.085161485
0003f0 7e 19 d0 3d 84 3b 20 be 75 f2 76 3d cc 7f d5 3d
       0.10161112 -0.15647703 0.06028982 0.10424766

bias f4 [64]
000000 0c 98 0c 3e b8 5a fe bc 2c 21 d4 3d c5 31 14 3c
       0.13729876 -0.031049117 0.103578895 0.009045069
000010 0f 04 3b 3c b6 33 e3 bc d5 49 28 bc a4 93 54 3e
       0.011414542 -0.027734619 -0.010271509 0.20759445
000020 ea 2a 0b 3e 23 62 ce 3b 01 55 8b bd 91 9c a5 bd
       0.13590589 0.00629832 -0.068033226 -0.08086503
000030 ef 79 60 bd f7 db ff bd cd 7f e6 3d b4 4d ef 3d
       -0.054803785 -0.12493127 0.11254845 0.116847426
000040 13 74 c4 bb 33 85 58 bc ed 7a 72 3d 7a 6f f9 bd
       -0.0059952824 -0.013215351 0.059199262 -0.121794656
000050 0a f6 04 be dc 3f d2 3d b1 d5 84 3d c8 9d c1 3d
       -0.12984481 0.102660865 0.06486071 0.094539225
000060 1b 29 9b 3d eb ab f5 bd 21 97 87 bd a6 e1 32 3d
       0.075761996 -0.119956814 -0.066206224 0.043672226
000070 58 18 44 3e 9c 01 a2 3d e6 ce 8f 3d 8e 3e 44 bd
       0.19149911 0.07910463 0.070218846 -0.04791122
000080 ce 16 c1 3d 85 ab c6 bc 3a ba 4b bd 81 02 9e bb
       0.09428178 -0.024251709 -0.049738146 -0.004822076
000090 72 58 63 3d 89 f3 09 3e 0e 2e 8f bd 42 19 95 3c
       0.05550427 0.13471808 -0.06991206 0.01820052
0000a0 5f f2 f1 3d a6 b0 88 3d 92 55 08 be 74 ee 90 bd
       0.11813807 0.06674318 -0.13313892 -0.07076731
0000b0 6f 84 f8 3d a4 57 73 3d 5e a4 af 3b 58 84 56 bd
       0.12134635 0.059409752 0.0053601703 -0.052372307
0000c0 91 97 b6 3c cc 1b d5 3c 19 24 07 3e e3 41 21 3d
       0.02228907 0.026014231 0.13197364 0.039369475
0000d0 9f 30 e1 3d d4 71 24 3d ea e9 f1 3d 75 c5 e0 3d
       0.10995602 0.040147617 0.11812194 0.10975162
0000e0 54 0f b9 bd 27 f8 e3 3d a8 0f d6 bd 97 8a 64 bd
       -0.09036127 0.11131316 -0.10452205 -0.055796232
0000f0 80 ef 40 3e c7 4f dc 3d 21 ff d5 bd 17 31 ff bb
       0.18841362 0.10757404 -0.104490526 -0.0077878344

weight f4 [64, 8]
000000 db 8b 78 3e 15 e5 32 3e a1 cb b8 bb 0b ce 8d 3e
       0.242721 0.174702 -0.005639509 0.2769626
000010 1d a4 3a 3e 70 70 db bd de 3b 38 bf 4f 71 c7 bd
       0.18226667 -0.10714805 -0.7196635 -0.09738409
000020 f6 f9 5f 3d fd ee d4 be b4 3a 96 3e ce d3 a8 be
       0.05468174 -0.41588584 0.29341662 -0.32974094
000030 14 9d a0 3e 0f c7 6a 3d e1 d4 9c bc 47 d8 aa be
       0.3136984 0.057318743 -0.019144477 -0.33368132
000040 21 ef 27 3e bc 6a 64 3e ac 50 07 3e 0e 1c f0 3d
       0.16399814 0.22306341 0.13214368 0.11724101
000050 6f 41 39 bd 57 81 89 3e e9 a3 c6 3e 22 e9 e6 3d
       -0.045228418 0.2685649 0.3879693 0.11274935
000060 cf 83 ec bd f8 41 55 be 2e 86 b0 be 36 89 8c 3d
       -0.11548578 -0.20825946 -0.3447737 0.068621084
000070 ab dc e0 3e b2 d8 ac 3e f1 72 bf 3e f1 60 7c 3e
       0.43918356 0.33759075 0.3739238 0.24646355
000080 79 3e 87 be 0b 62 8b be 23 22 74 3e 73 4c a6 bd
       -0.2641485 -0.27223238 0.23841147 -0.0812005
000090 84 20 d0 be db 4f 81 3c d9 e9 f8 be cc af 88 3e
       -0.40649807 0.015785148 -0.48615912 0.26696622
0000a0 35 14 33 bc 58 2c be be 88 9c 4a 3e 31 ff 98 3d
       -0.010930111 -0.37143207 0.19786274 0.07470549
0000b0 5f 0c 9a 3e 46 7d 9e be df b6 09 3f 5a 7c 76 be
       0.30087563 -0.3095495 0.53794664 -0.24070874
0000c0 b6 79 df 3c 94 8d 74 3e 8f f6 8b 3d f5 ff c2 be
       0.027279716 0.23882133 0.06834137 -0.38085905
0000d0 6d 57 e5 be 95 fb d9 3d 69 91 f3 3e 30 3e 92 bd
       -0.44793263 0.106436886 0.47571877 -0.071407676
0000e0 85 70 bd 3d 24 be 7c 3e e8 ed 9d be 20 ac ab 3d
       0.09249977 0.24681908 -0.3084557 0.083824396
0000f0 84 f9 56 be c9 6c c6 be 68 84 35 3e 5c 55 ad 3e
       -0.2099362 -0.3875487 0.1772629 0.33854187
000100 6b 57 2e 3e b8 45 5a be 8b 91 9e 3e 7f 1a a5 bd
       0.17025535 -0.21315658 0.30970415 -0.08061694
000110 6f 5d 24 3b 53 90 9d bd 6c 7d d8 bd de 28 b1 be
       0.0025080105 -0.07693543 -0.10570797 -0.34601492
000120 74 52 9b 3e 6c e6 1d be 5f 43 83 be 64 e3 8e 3d
       0.30336344 -0.1541993 -0.25637338 0.06976965
000130 19 64 76 bc 7a df d5 3c 5c 84 70 3d 42 65 8a 3e
       -0.015038514 0.026107538 0.058719978 0.2703038
000140 b7 03 99 be 81 74 5c 3e 24 73 26 be 7e 5c 81 bd
       -0.29885647 0.21528818 -0.1625486 -0.063164696
000150 41 ea 4d 3e 76 d8 91 be 0d ec d1 be ce f0 b7 bd
       0.20108892 -0.2848546 -0.41000405 -0.08981477
000160 b8 f5 20 3e 44 ef b8 be 77 fe 23 3d 51 c7 7c bd
       0.15718734 -0.36120045 0.0400376 -0.06171352
000170 5b 68 23 be 25 e7 63 3e 39 57 72 3e 49 19 9e be
       -0.15957777 0.22256143 0.23666085 -0.30878666
000180 d5 d4 e9 bd 8e b0 4d 3e 84 cb 89 3b 8e e6 cb be
       -0.114175476 0.20086882 0.004205169 -0.39824337
000190 18 21 2c be 60 9e 03 bf b4 e7 ca 3e 34 45 dc 3d
       -0.168095 -0.51413536 0.396299 0.10755387
0001a0 e4 34 85 3e 43 2f c4 bc b7 97 9e 3d 07 51 b6 be
       0.26016915 -0.023948317 0.07743781 -0.35608694
0001b0 b5 87 a7 be c9 c1 a8 3e 2c 6e bf 3e 73 5a 3c be
       -0.32720724 0.32960346 0.37388742 -0.18393879
0001c0 53 81 aa bd 62 92 02 3c bb 7c e9 3d dd b4 5e be
       -0.08325448 0.007969471 0.114007436 -0.21748681
0001d0 57 8e 05 be 28 33 bc be 87 7d 73 be 56 a1 a0 be
       -0.1304258 -0.3675778 -0.23778354 -0.3137309
0001e0 e3 e1 7f 3e 24 8a 34 be 6a 13 5c 3e ca a0 1d 3e
       0.24988513 -0.17630821 0.21491781 0.15393367
0001f0 73 f8 b4 3e 0c 56 0e 3f 04 9d 4a bd b1 fd 14 be
       0.35345802 0.5560005 -0.049466148 -0.145499
000200 6c 5b c9 3d 4d d9 8d be 5c 9c 12 be 67 fa 3a bd
       0.098318905 -0.2770485 -0.14317459 -0.04564896
000210 b2 0b 4a be f5 ad 9f bd 23 53 13 be bc 06 21 bd
       -0.19731024 -0.077968515 -0.14387183 -0.039313063
000220 6c 20 0e 3e a9 c1 91 be ac 9c 79 3e 9b c1 93 be
       0.13879555 -0.28468063 0.24376172 -0.28858647
000230 9c b7 c9 3d 3f 3b 1a 3e 78 c0 a3 3e e8 18 7c 3e
       0.09849474 0.15061663 0.3198278 0.24618876
000240 ec 7a 8e 3e 80 48 56 3e 60 c3 5c 3d 93 6d c3 be
       0.27828157 0.20926094 0.05389726 -0.38169536
000250 42 8d 44 3d 57 0e 19 bf 62 89 60 be e0 6c 41 bd
       0.047986276 -0.59787506 -0.21927407 -0.047222972
000260 de 48 56 be 64 f8 d6 3d 75 1e 3b be bd 55 33 3e
       -0.20926234 0.104965955 -0.18273337 0.17513175
000270 35 53 c2 be f6 74 9f be e2 12 35 3e 42 0a f7 bd
       -0.37954107 -0.31143922 0.17682984 -0.120625034
000280 03 97 31 3e bc 40 d3 3d a7 3d 01 3e 09 18 c9 bd
       0.17342763 0.103150815 0.12621175 -0.098190375
000290 10 3a c4 be 9c ca f0 be 91 17 15 bf ae 67 90 3e
       -0.38325548 -0.4702958 -0.58239084 0.282041
0002a0 1b 44 da bd 1c 0e f9 39 fc 3b 9c be 96 fc 3f be
       -0.10657521 0.00047503493 -0.30514514 -0.18748698
0002b0 0d ea 9b 3e 6f c6 3e 3d 7b 25 88 3d 7c 52 90 3e
       0.30452004 0.04657596 0.06647774 0.2818793
0002c0 4b 68 5c 3d 6b 50 00 be 44 5e 8a 3e b9 18 eb 3d
       0.0538104 -0.12530677 0.27025044 0.11479325
0002d0 ab 0d c1 3e aa c8 22 be 3d af 70 be 18 f2 03 3e
       0.3770574 -0.1589686 -0.23504348 0.1288532
0002e0 1b 4c 87 be 08 79 18 3e 84 d5 70 be 9a b4 30 be
       -0.2642525 0.1488992 -0.2351895 -0.17256394
0002f0 e8 b4 74 bd 5f 94 aa bd 49 95 a8 3e 2e a4 8b be
       -0.05974284 -0.08329081 0.32926396 -0.27273697
000300 74 fd 26 3e f9 d2 f6 bd 54 b1 62 3d 53 fb bf bd
       0.16307622 -0.120519586 0.055344895 -0.09374108
000310 e9 21 a9 3e ac 78 54 be fe da 0c be 00 05 16 3e
       0.33033684 -0.20749158 -0.13755414 0.14650345
000320 74 79 75 3e 7c a0 9e be 3f 85 14 3d 53 db af 3d
       0.23972112 -0.30981815 0.036259886 0.08586755
000330 cc 1e 62 bd 3c d0 91 be 81 ae e2 bd cb 21 fb 3c
       -0.05520515 -0.28479183 -0.1106844 0.030655762
000340 2c 4e 9d bd a9 7f 4d 3e 0f e1 9f be e0 7e ab 3e
       -0.07680926 0.2006823 -0.31226394 0.33495235
000350 83 08 ad be 23 fc e6 3e d9 c9 cc 3d e2 51 81 be
       -0.33795556 0.4511424 0.09999437 -0.25257784
000360 39 6a 54 3e f9 6f 0f 3d 08 89 10 3d eb 32 1b 3d
       0.20743646 0.035018895 0.035286933 0.037890356
000370 ef 0b b6 be ed b9 38 3e 6d bc 44 be 79 30 5a be
       -0.3555598 0.18039675 -0.19212504 -0.21307553
000380 b2 7f fd 3d 52 a1 8c 3d ee c8 5b be 2b 3e 31 be
       0.123778716 0.06866707 -0.21463367 -0.17308871
000390 94 02 66 3d ad e0 b6 be c2 47 03 be 93 ce b3 3d
       0.056154802 -0.3571829 -0.12820342 0.08779635
0003a0 ea 83 71 3d 20 80 13 be 34 f3 7c be fb b1 15 be
       0.058963694 -0.14404345 -0.2470215 -0.14618675
0003b0 6f ac 1d 3e a9 26 ff 3e ad 5e 71 be 4c dc 0f be
       0.1539781 0.49834183 -0.23571272 -0.1404888
0003c0 94 e2 a8 be 44 7c c2 3e 1c b8 a4 bd f6 c9 c7 3e
       -0.32985365 0.37985432 -0.080429286 0.3902127
0003d0 df c9 9f bd ee a9 c0 be 74 7f 13 bf 83 f5 41 be
       -0.07802176 -0.37629646 -0.57616353 -0.18941312
0003e0 e8 2b ae be 13 7e 7e be bc 41 78 be a1 15 fa 3d
       -0.34017873 -0.24852781 -0.24243826 0.12211157
0003f0 33 98 d6 3d ed 84 73 3e 88 66 b1 bc 5a b0 3c 3e
       0.104782484 0.23781176 -0.021655336 0.18426648

bias f4 [64]
000000 22 75 b3 bc 8a 1f 14 be f5 fd 22 be 14 2c 98 bd
       -0.02190644 -0.14465156 -0.1591719 -0.07430282
000010 69 cd 41 3e 71 5a 92 bd 74 06 22 bd 54 f1 a4 bc
       0.18926014 -0.071461566 -0.039556935 -0.020134605
000020 28 73 68 bd 55 d3 2b 3e 50 0d ce bc 22 4a 42 be
       -0.056750447 0.16779836 -0.025152832 -0.18973592
000030 d5 18 f6 3d a8 b3 ab be 77 2c 0e be 81 98 be bd
       0.12016455 -0.33535504 -0.1388415 -0.093064316
000040 fe ee 61 be 39 41 7a be 1c 70 94 bc dc 30 80 be
       -0.22063825 -0.24438943 -0.018119864 -0.25037277
000050 83 1c b8 3d 1e bf f4 bd e9 f9 0d be a6 e9 5b be
       0.08989813 -0.11950515 -0.13864864 -0.21475849
000060 e7 e6 40 3e b2 3f 79 3e 15 02 2f 3d 37 c1 d1 bd
       0.18838082 0.24340704 0.042726595 -0.10241931
000070 48 fc 99 3e 6c 78 2a be d2 ad 83 be d6 e9 0a be
       0.30075288 -0.166475 -0.25718552 -0.13565764
000080 de 34 b6 3d cf df 95 be 02 1e 93 3d c1 62 8c bd
       0.08896802 -0.29272315 0.07183458 -0.06854773
000090 df 99 ad 3d 22 47 3f 3e 85 0c a5 3d bd 70 ba bd
       0.08476614 0.18679479 0.080590285 -0.09103534
0000a0 be a6 26 be b3 45 97 3e de a6 8b bd df 85 1e 3e
       -0.16274545 0.29545364 -0.06818937 0.15480755
0000b0 88 5d 07 3e e0 bf 26 3e 13 00 9b bd 2b e8 1c 3e
       0.13219273 0.16284132 -0.075683735 0.1532294
0000c0 b8 a5 94 be 30 e8 64 3e 32 96 9d bc 90 fb 54 be
       -0.29032683 0.22354198 -0.019236658 -0.20799088
0000d0 ba a2 8e bd eb 20 1c be f0 33 92 3d 6c ba dc 3c
       -0.069646314 -0.15246932 0.071388125 0.026944362
0000e0 94 c8 1f 3e 2b 4a 44 bd c6 be 3c be fe ae 75 3e
       0.15603858 -0.047922295 -0.1843215 0.23992535
0000f0 f3 e6 fd 3c a8 ea bd 3c 67 d8 6c bd 83 43 95 3e
       0.030993914 0.023183182 -0.057823565 0.2915307

weight f4 [64, 64]
000000 af ac 90 bc 05 2b f3 3d 9e 05 63 3d 5b 65 b8 3d
       -0.017660467 0.1187344 0.05542528 0.09003707
000010 94 71 ed bd ad de fe 3d 44 65 3e bd 76 b7 ce bc
       -0.11593929 0.12444816 -0.046483293 -0.025233965
000020 7f 7e 5b bd c9 c8 91 3d a8 e9 3e bb e1 61 7a 3d
       -0.053587433 0.07118375 -0.002913097 0.0611285
000030 01 f7 b9 3d fc 1a ac bd af 74 d5 3d 1d 12 de 3d
       0.090803154 -0.08403584 0.10422646 0.108432986
000040 af 29 c6 bd 24 00 15 bd 7c 06 d1 3b 3c a8 87 bd
       -0.09675919 -0.036377087 0.006378947 -0.06623885
000050 e0 22 1f be 4b 4e b1 3b cf 88 b8 3d 6b 43 90 bd
       -0.15540648 0.0054109446 0.09010469 -0.07044109
000060 79 2f 9b bd 77 05 44 3d c4 ae 66 bd 52 67 e8 bd
       -0.07577414 0.047856774 -0.056319013 -0.11347832
000070 87 8d 05 be 3b 77 20 bd 59 66 01 be e1 8c bf 3d
       -0.1304227 -0.039176207 -0.12636699 0.093530424
000080 89 b0 4f bc 53 77 f1 bc f7 2d a1 bd 04 7e 92 3d
       -0.012676367 -0.029475844 -0.07870095 0.07152942
000090 24 c5 68 ba 81 82 bb bd 58 fd 34 3d ff a3 8c 3d
       -0.0008879474 -0.09155751 0.04418692 0.06867217
0000a0 ec aa af 3c 28 ba 0e 3d 97 79 c8 3c 29 68 ae bc
       0.021443807 0.0348455 0.024472041 -0.021289902
0000b0 7c eb b4 bd fd 20 1b 3c 38 65 85 bd 5f f3 70 bd
       -0.088339776 0.009468314 -0.065134466 -0.058825847
0000c0 4f d7 5f bd 5d 1f ea bd 24 26 d2 3d 61 4e ae bd
       -0.054648694 -0.11431763 0.10261181 -0.08511043
0000d0 1f 09 02 3d 72 ee 98 3d 83 0b ef ba 5b a5 9f 3d
       0.03174698 0.07467355 -0.0018237684 0.07795211
0000e0 89 8b f6 b9 ba 5e 53 bd b7 8f d3 bd d5 69 ac bd
       -0.00047024738 -0.05160401 -0.10330146 -0.08418623
0000f0 38 30 01 bd b7 7e b7 3d 22 5f 97 bb 76 fe 84 3d
       -0.031540126 0.08959716 -0.004619495 0.06493847
000100 0b 67 c1 bc 31 fd 8f bd f4 69 5a 3d 23 01 c3 bd
       -0.023608705 -0.07030714 0.0533237 -0.09521701
000110 7a 67 b6 ba c2 ef a6 bd a1 2e 58 3d 50 12 1d bc
       -0.0013916336 -0.08151199 0.052778844 -0.009586886
000120 56 eb 1e be eb 9c 97 3d 91 2f 6f 3d 24 40 f2 bd
       -0.15519461 0.074029766 0.058394972 -0.1182864
000130 11 ba 8e 3d 97 8c 88 3d 88 13 1c bd 47 6f 2a be
       0.06969083 0.066674404 -0.038104564 -0.16644011
000140 a6 06 ae bd 5f f9 e9 bc 1b 13 11 3d 80 5f db bd
       -0.08497362 -0.028561292 0.03541861 -0.107115746
000150 b1 a4 d5 bd 09 30 89 3c de 30 d2 bd 0d 33 b6 bd
       -0.10431803 0.016746538 -0.10263227 -0.08896456
000160 e9 33 98 bd 69 e5 55 3d 9f b6 f1 3d b9 15 7d bd
       -0.07431776 0.052220736 0.1180241 -0.061788294
000170 5f 41 5f bd 6a 29 bb bd cf 69 f1 bc 66 3d 5d 3d
       -0.054505702 -0.091387585 -0.029469399 0.054013632
000180 59 82 4a bc c3 fa aa 3d 0d da cb 3c c1 f4 93 bd
       -0.012360179 0.0834861 0.024884248 -0.072244175
000190 e5 1b 90 3d 7e 2b be bd cc 0c fb bd 73 28 7a bd
       0.070365705 -0.09285639 -0.122583 -0.06107373
0001a0 14 2f 52 bc 72 dd 29 3c a6 05 a2 bd 92 e2 b0 3d
       -0.012828607 0.010367738 -0.079112336 0.08636965
0001b0 12 97 17 3e a5 76 73 3d fc ca 07 be 9d a2 c7 3d
       0.14803723 0.05943932 -0.13261026 0.09747813
0001c0 2f 8d b1 bd 54 b6 39 3e 37 db 05 3e eb 8f 74 3d
       -0.08669507 0.18135959 0.13071905 0.059707563
0001d0 07 2e a6 bd dd 55 96 3c 01 15 1d 3d 37 10 bb bd
       -0.08114248 0.01835149 0.03835011 -0.09133952
0001e0 6a 27 92 3d 05 38 34 3d d5 1d 04 bd 10 1d a7 bd
       0.07136424 0.043998737 -0.032255013 -0.0815984
0001f0 ca 36 af 3d 35 53 f7 bd 90 e6 97 3d 9d 75 d1 3b
       0.08555372 -0.12076417 0.07417023 0.0063921944
000200 3e 64 45 bb a1 ac 57 3e cb 6a 1a be e9 39 2d 3d
       -0.0030119563 0.21061946 -0.15079801 0.042291556
000210 7b fe 80 3c e5 a0 72 3e 0b b6 95 be 36 77 34 be
       0.015746346 0.23694189 -0.2924045 -0.176236
000220 3e d5 60 bd c1 9d 11 3d a9 80 8e 3d 23 6e be 3d
       -0.054890864 0.035550836 0.06958134 0.09298351
000230 73 34 4c 3c f0 1f 67 3b e6 98 1a be cf dd a0 3e
       0.012463677 0.003526684 -0.15097389 0.31419227
000240 26 69 52 3d bc 5c 19 3e 77 29 28 bd e3 6f 6c bc
       0.05136981 0.14976782 -0.04105517 -0.014430973
000250 c4 03 eb bc a5 b3 ad 3d e9 ef 83 3e 0b ca 79 3d
       -0.028688319 0.0848153 0.25768974 0.0609837
000260 07 01 25 3e 20 bf c0 3c 63 17 24 be c1 ec 2f be
       0.16113673 0.023528636 -0.16024546 -0.17180158
000270 8f 77 b8 bd d3 4f cb bd a1 44 20 3d 9c 52 95 3d
       -0.09007179 -0.09927335 0.03912795 0.07291147
000280 26 3d 9b bd a0 97 fe bd fd 6a 54 bd 20 4e 4d be
       -0.075800225 -0.12431264 -0.051859844 -0.20049334
000290 1f 19 d1 3c 22 70 39 3e 0c 6b 8a 3c 07 9f f8 3d
       0.025524674 0.18109182 0.016896747 0.12139707
0002a0 14 4c 17 3e 91 cc c8 3d 47 92 82 bd 80 fd 8e bd
       0.14775115 0.09804643 -0.063755564 -0.06981945
0002b0 6a aa df bd 7e fa dd 3d 38 18 8b bc 15 eb 96 3c
       -0.10921176 0.10838793 -0.016979322 0.018422643
0002c0 23 53 6a 3d e6 6e 42 be 6f 02 3b 3d ea f5 43 3d
       0.05720819 -0.18987617 0.045656618 0.047841944
0002d0 6c 9f e4 bd 97 37 c6 3c 24 3b e6 3d 0a 21 76 3d
       -0.1116322 0.02419643 0.11241749 0.060090102
0002e0 5f 3e fd bd 22 3c 0a 3d 77 72 c3 bd 40 ac 38 3e
       -0.12365412 0.033748753 -0.09543317 0.18034458
0002f0 7c 2a 3a bd f6 66 05 bd 31 e8 0d be 58 76 2d 3e
       -0.045450673 -0.032568894 -0.13858105 0.16939676
000300 ed 45 b7 3d fd 3f 74 3d 12 17 83 3c a9 a6 56 bc
       0.08948884 0.059631336 0.016002212 -0.013101258
000310 31 9f 64 be 5a bb 75 3d 47 fc 99 bc 1f b3 fe 3d
       -0.22326352 0.059993125 -0.018797053 0.124365084
000320 1a fe 78 bc 7b f8 03 bd d3 70 28 3e 70 6d 21 be
       -0.015197301 -0.03221939 0.16449289 -0.15764403
000330 a7 1c e7 3d fe 55 84 bd f3 c9 86 bd cf e2 74 3d
       0.11284762 -0.06461714 -0.065814875 0.059786614
000340 cb fa bf 3c f5 f4 bf 3d 22 d5 c2 3d 5b 2b f7 3c
       0.023435017 0.09372894 0.09513308 0.03017204
000350 5f be 83 bd 04 25 9c 3d ff 5a a2 3d 9e fb 83 3c
       -0.06432795 0.07624248 0.079275124 0.016111191
000360 c5 53 64 bd 52 1a 3c 3d b0 03 97 bd a8 10 35 be
       -0.05574395 0.04592354 -0.0737375 -0.17682135
000370 43 68 10 3e 4c 5d a4 3d 06 39 e3 bc 9b ee e2 bd
       0.14102273 0.080256075 -0.027737152 -0.11080667
000380 70 89 d4 3d 31 62 da 3c 3c 09 21 3c 94 8a e0 3b
       0.103777766 0.02665815 0.009828862 0.0068524573
000390 c5 bc aa 3c 50 37 b2 bd 4d 1a e8 bb f3 13 10 3e
       0.020841965 -0.08701956 -0.0070832134 0.1407011
0003a0 82 e0 d7 3d 64 63 2a 3c 7b 52 33 be 03 39 62 bc
       0.10540868 0.010399673 -0.17511933 -0.013807538
0003b0 62 70 80 3d e7 97 46 3d cb 6e 05 3e 6c 5d 35 bd
       0.06271435 0.04848471 0.13030545 -0.044278547
0003c0 9a 77 2f 3d 6b 8a 48 3d e0 8b 0c 3d fe e5 27 bd
       0.04283867 0.04896013 0.034313083 -0.040990822
0003d0 09 74 03 be 3b ba 2f 3d 64 ed 82 3d 4d e6 66 3d
       -0.12837233 0.042902213 0.06392935 0.056371976
0003e0 bf 3e be 3d a6 78 09 bd 87 0e 2d 3d 1f a7 87 3d
       0.092893116 -0.033562325 0.042250182 0.06623673
0003f0 45 2c 07 be 42 1d 83 bd d0 cb 58 bc df 5e 1d 3e
       -0.13200481 -0.06402065 -0.013232186 0.15368222

bias f4 [64]
000000 92 ee 0b be 58 01 dd 3d 64 0c 90 bd c0 ed 4e bd
       -0.13665226 0.10791272 -0.07033613 -0.050519705
000010 6f 12 75 bd 48 4a 91 3d 33 dc 9c bd 60 15 ef 3d
       -0.059832033 0.07094246 -0.07659187 0.11673999
000020 f8 70 e5 3d 98 07 09 bd 04 e3 96 bd 71 8d 50 be
       0.11203188 -0.033454508 -0.073675185 -0.20366456
000030 6f 35 d3 3d 9c 68 c6 3c 4d 83 83 3c 4f de b7 3d
       0.10312926 0.024219804 0.01605382 0.08977949
000040 10 58 bb bd 24 cc d2 bd 32 76 3e bc e1 5f 28 3d
       -0.09147656 -0.10292843 -0.01162486 0.041107062
000050 f9 d3 1d bc 8d 81 31 3d 06 fc 5c bd f4 a8 5d 3c
       -0.009633058 0.04333644 -0.053951286 0.013529051
000060 a6 d0 87 39 b4 48 4c bd 25 a9 15 bd 40 62 61 bb
       0.00025904662 -0.049874023 -0.036538262 -0.0034390837
000070 2a 00 2e 3d 2e f0 23 3d 86 fb 0e be 9a a9 b6 3d
       0.042480625 0.040023975 -0.13963136 0.08919068
000080 77 f6 5b bd ef 21 d9 bc 1b a8 20 bd 05 33 6d 3d
       -0.053701844 -0.026505439 -0.039222818 0.057909984
000090 97 c9 90 3d 59 73 10 bd 7e d1 1a 3d d7 26 d7 bd
       0.070697 -0.035266254 0.037797444 -0.10505455
0000a0 6d a4 93 bd 38 c1 c8 3d 67 35 ba 3d 00 73 22 bd
       -0.07209096 0.098024786 0.09092217 -0.039660454
0000b0 cd c7 d2 bc 99 14 dd 3a cb e7 d6 bd 36 db ce bd
       -0.025730038 0.00168671 -0.1049343 -0.10100405
0000c0 0f 5f 06 bc bc 2b 43 bd 67 bf 72 bc e8 73 a8 bc
       -0.008201375 -0.04764913 -0.014816142 -0.02056308
0000d0 f2 05 a6 3c fc d9 da bd 5f 6e 83 3d 8e 76 ae 3d
       0.020266507 -0.106861085 0.06417536 0.08518706
0000e0 82 e9 d4 bd 4e 16 d9 3d b6 85 d7 3d 11 65 92 3d
       -0.103961006 0.105999574 0.1052355 0.07148183
0000f0 df 26 ed 3c 91 3c 6c 3d 60 da 9b 3b 37 20 0f 3b
       0.0289492 0.057674948 0.004756257 0.002183927

weight f4 [64, 64]
000000 4b 39 a2 3d 79 c2 09 be fe 31 5a be 49 a9 77 3c
       0.07921084 -0.13453092 -0.21308133 0.015116044
000010 bc f9 28 3d 25 88 06 3d 05 61 44 be 03 6d 97 bd
       0.04125379 0.03284468 -0.19177635 -0.07393839
000020 cf 43 01 be 67 48 c1 3c 3f 1f df bd 26 98 f4 3d
       -0.12623523 0.023594094 -0.108946316 0.119430825
000030 87 1d a7 3d 51 bc 71 3d cf b6 a7 bd fb 86 66 bd
       0.08159929 0.059017483 -0.08189165 -0.05628107
000040 89 c7 2e be a9 3b f3 3d d1 14 96 3d c2 68 41 3c
       -0.17068304 0.11876614 0.07328189 0.011804761
000050 af bf b5 bd 3c 2b 40 be fe ea 9a bd 0d c8 cd 3d
       -0.08874451 -0.18766493 -0.075643525 0.10047922
000060 67 4f d5 3d 3d f7 cd 3d 1e c7 77 be 3a 70 7c bc
       0.104155354 0.100569226 -0.24197051 -0.015407616
000070 2a 79 eb bc d1 78 50 bd c9 0e e3 3d d8 7b c6 3d
       -0.028744299 -0.05089647 0.110868044 0.0969159
000080 83 d6 c4 bd 19 bb c7 bd f3 e5 c5 bc 68 88 0a bd
       -0.09611227 -0.09752483 -0.0241575 -0.033821493
000090 55 1e b5 bc c9 a0 83 3e 70 c5 08 3c 91 3b 7b 3c
       -0.02210919 0.25708607 0.008347854 0.015334026
0000a0 77 96 ce bd d3 ec a8 3b 65 0f 2b 3d a1 6e 16 ba
       -0.10087293 0.005155185 0.04176273 -0.0005738531
0000b0 25 ae a2 3d 2f db 41 bd 84 d6 03 3e e6 a8 9a bd
       0.07943372 -0.04732817 0.128748 -0.07551746
0000c0 74 e6 b9 bd 07 c3 9d bd 3d 0f 0c bd ec 62 51 3d
       -0.090771586 -0.07703214 -0.03419422 0.05111973
0000d0 b9 f4 94 bd 5e 5c c6 bc 46 8a b0 bc 50 9e c8 3d
       -0.0727324 -0.024213966 -0.021550309 0.09795821
0000e0 d0 84 46 3d 5e d3 ca bd fc 94 b6 3d 73 69 3e bd
       0.048466504 -0.09903596 0.08915135 -0.046487283
0000f0 bf f8 80 bd 99 e8 e2 bc 8e 0f 0e be f7 7e 02 3d
       -0.062974446 -0.027698802 -0.13873121 0.031859364
000100 62 38 0f bd 0c 29 66 3c fa c8 3b be 46 d1 2e be
       -0.03496588 0.014047872 -0.18338385 -0.17072019
000110 a6 39 3d 3e bb f4 e0 3d be 35 53 be b0 bd 9d 3d
       0.18479022 0.10984179 -0.2062597 0.07702196
000120 b1 a3 f2 3d 20 d6 13 be e6 20 18 be a8 fb cc bd
       0.11847628 -0.14437151 -0.148563 -0.10008937
000130 db 3f 18 bd a9 4a b5 bd 92 27 63 3d 19 4c 2c 3e
       -0.037170272 -0.08852131 0.05545766 0.16825904
000140 b2 37 37 bd 11 42 cd bc 1e 18 b2 bc 43 21 44 be
       -0.04473085 -0.025055917 -0.021740016 -0.19153313
000150 d2 79 44 3d 33 68 26 bb fb ca f9 bd 0b 3c bb be
       0.04796774 -0.0025391697 -0.121969186 -0.36569247
000160 00 4e 32 3b aa 00 3a bd 1c 15 a1 3d 6b 5b cf 3d
       0.0027207136 -0.04541079 0.078653544 0.101248585
000170 05 95 bb 3d 1b e6 db bb 4d 8a 2b be ec ac 95 bd
       0.091592826 -0.0067107803 -0.16751976 -0.07308373
000180 09 10 af 3d 9d 8d 1b be bd ea bc 3d 0e a3 e2 3d
       0.0854798 -0.1519074 0.0922446 0.110662565
000190 dd 0c a7 bc 81 b4 17 3e b0 a2 10 be 98 7e be 3c
       -0.020391876 0.1481495 -0.1412456 0.023253724
0001a0 de a9 a2 bd 38 9a 23 3c 4d c6 90 bc a4 67 bf 3d
       -0.07942556 0.009985499 -0.017672682 0.0934594
0001b0 9d fd 27 be 81 65 99 3d 70 9b 60 bd cc f0 99 3d
       -0.1640534 0.074900635 -0.054835737 0.075166315
0001c0 01 d7 7e 3c 12 75 31 bc 97 b0 67 3d a2 b1 40 be
       0.015554191 -0.010831134 0.056564894 -0.18817762
0001d0 13 11 90 bc 14 ef 04 bd 5e 9d 61 3c f4 79 fc ba
       -0.017586267 -0.032454565 0.013770429 -0.0019262419
0001e0 17 5b f6 bd 5c 14 a0 bc dc 6c e9 bd 4f 49 cf 3d
       -0.12029093 -0.019540958 -0.113977164 0.101214044
0001f0 14 15 0c 3e 25 4d 3c 3e 71 38 3b be 74 fe 7e bc
       0.13679916 0.18388803 -0.1828325 -0.015563596
000200 bc 48 8d bd da 36 28 3b b5 1e 9f 3d d6 8b f3 bd
       -0.068986386 0.002566746 0.07769529 -0.11891906
000210 e2 de 23 be de 67 9a 3d 2f df ab bd 8d 6d 29 be
       -0.16002992 0.07539342 -0.08392178 -0.16545697
000220 16 33 ae bd 6f 38 df bd 7e 4e a7 3d dd 1e 13 3e
       -0.085058376 -0.10899436 0.08169268 0.14367242
000230 ff e5 69 3d 68 ac 07 bd e4 e7 04 3e 17 cb eb bd
       0.057104107 -0.033123404 0.12979084 -0.11513346
000240 a2 2b b7 3c 32 82 7b 3d 6f f8 25 39 56 33 35 3d
       0.022359673 0.06140346 0.00015828175 0.04423841
000250 e0 c0 a9 3d c5 1e f0 3d 9c 9c b9 3c d0 a0 ba 3d
       0.08288741 0.11724619 0.022657685 0.09112704
000260 29 f7 ca bd 4d 31 cb bc d5 61 f8 bd 61 ce d2 3d
       -0.09910423 -0.024803782 -0.12128035 0.1029327
000270 8c 0a d5 3d 0c e2 14 3e a8 77 38 3e d2 b9 44 3b
       0.10402402 0.14539355 0.18014395 0.0030017984
000280 ed c9 67 3d 77 b0 b1 3d c9 05 3b 3d c3 03 c6 3d
       0.056589056 0.08676236 0.045659814 0.09668686
000290 39 34 d1 3d c8 63 5c bd 80 0b 21 3d c6 7d be bc
       0.10215039 -0.053806096 0.039317608 -0.023253333
0002a0 c0 24 5a bd d7 6f d5 3d e7 78 bb 3d 67 f3 aa bc
       -0.053257704 0.104217224 0.0915392 -0.020868016
0002b0 b5 f7 30 be a2 08 01 be 3d 0a 15 3e f5 fe 85 3d
       -0.17281993 -0.1260095 0.14554687 0.0654277
0002c0 0b 9e f6 3d a4 3f e1 3d 18 9d 46 be 6d 7e 07 3e
       0.12041863 0.109984666 -0.19395864 0.13231821
0002d0 30 61 44 bd 95 18 ce bc 55 59 d6 bd c2 68 db 3c
       -0.047944248 -0.025158206 -0.104662575 0.02678335
0002e0 36 c8 91 bd 38 16 b6 3d af 61 3a ba f4 e8 a9 bd
       -0.07118265 0.08890957 -0.0007109893 -0.082963854
0002f0 6f bc 22 be dd a1 ae 3d 44 ed 78 be e8 41 15 be
       -0.15892194 0.08526967 -0.2430926 -0.14575922
000300 eb d5 1f bd 12 fb 4e bd 15 e2 36 bd c3 d4 17 3e
       -0.039022367 -0.050532408 -0.044649202 0.14827256
000310 5c 6c 2d 3d f8 ca d6 3d d1 ec 0c 3c cd d3 17 be
       0.042339668 0.10487932 0.008601383 -0.1482689
000320 fa a8 96 3d e6 15 04 3e ef 03 a9 3d 06 6e 91 bd
       0.073564485 0.12898979 0.082527034 -0.071010634
000330 1b fb 18 be cd c9 91 3d 0d 11 0f be 06 6a f7 bc
       -0.14939539 0.071185686 -0.13971348 -0.030201923
000340 0a cb b0 3d 3e 6c d9 3d 69 5f 02 bd fe 85 22 3e
       0.08632477 0.10616349 -0.03182927 0.15871426
000350 0d 3b f1 bc 45 51 4b be 50 6b 89 3d f9 02 af 3d
       -0.029447103 -0.1985522 0.06709921 0.08545489
000360 3d 22 ba bb e9 87 f6 bb 72 6d 01 bd 73 0c 2f be
       -0.005680351 -0.007523526 -0.031598516 -0.17094593
000370 a5 da a6 bd 0d 35 64 3d f1 fa 16 3e 97 ed fd 3d
       -0.08147172 0.055714656 0.14744164 0.12398832
000380 4c 7c 46 be ce 37 dd bc 1b 35 b9 3d 32 2b 21 bc
       -0.19383353 -0.027004149 0.09043332 -0.009836959
000390 43 db 06 be b7 fb 53 3e 3a d6 96 3d ba eb f5 3c
       -0.13169579 0.2070149 0.07365079 0.03001963
0003a0 73 ef 1d be 11 a7 c8 bd d9 09 ef bd dc 2f 95 3d
       -0.15423374 -0.097974904 -0.116718 0.07284519
0003b0 67 74 47 3e 47 b6 0e be 91 2b 59 bd 15 5f d4 bc
       0.19477998 -0.13936721 -0.053020064 -0.025924245
0003c0 f8 fa 47 be 39 d9 76 3d 6b 47 c7 bd 7c 62 4c 3d
       -0.1952933 0.060265753 -0.09730419 0.04989861
0003d0 1e a9 05 3d a8 86 8d bd 84 fe 1b 3d 70 03 ad 3d
       0.032631986 -0.06910449 0.038084522 0.08447921
0003e0 48 ef 1f 3b 0f e0 b2 bd ab 45 da 3d 8a 0c 89 bd
       0.0024404097 -0.08734142 0.10657819 -0.06691845
0003f0 58 09 85 bd e8 d2 81 bc 23 86 6f bd 0b 6d 7c 3d
       -0.06495923 -0.015847638 -0.058477532 0.06162743

bias f4 [64]
000000 51 56 88 3c b7 08 79 bb 90 e4 06 be a0 a0 12 be
       0.016642721 -0.003799958 -0.13173127 -0.14319086
000010 2f 3d 6f 3d eb c0 ab bd de 32 77 3d 37 34 5e 3d
       0.05840796 -0.083864056 0.060351245 0.054249015
000020 0e 00 8f 3d 6f 3e bd 3d 2c a0 e1 bd a3 ba e5 3d
       0.06982432 0.09240424 -0.110168785 0.11217239
000030 3a 7e 18 3e d0 1b 27 bd fe 4e c6 3c 1c 29 25 be
       0.14891902 -0.04079801 0.024207588 -0.16128963
000040 c6 6d 4f bd 9b 24 83 3d d6 6b 0c be 79 0b 5b bd
       -0.050641797 0.06403466 -0.13713011 -0.053477738
000050 7a a8 9d bc 17 bd f0 3d d2 36 da b9 d1 d8 f0 3d
       -0.019245375 0.11754816 -0.00041621045 0.117601044
000060 38 ee bc bd 3b 30 02 ba 7d 33 05 be f2 fe f1 3d
       -0.09225124 -0.00049662933 -0.13007922 0.11816205
000070 78 2d 97 3c 97 27 d7 ba 9a 41 d7 bd e2 3e 6a bd
       0.018454298 -0.0016414997 -0.105105594 -0.057188876
000080 a1 01 fb bd ee 2b 5b 3d 2c 56 39 3d a4 69 b2 3d
       -0.1225617 0.05350869 0.045248196 0.087115556
000090 3c 36 65 3d a8 40 ce 3c 1a 6e 9a 3c c3 8a cd 3d
       0.055959925 0.025177315 0.018851329 0.10036232
0000a0 fd 31 24 3c 0b e7 e5 bd 98 74 70 bd 32 59 19 3d
       0.010021684 -0.112257086 -0.058704942 0.03743858
0000b0 91 6a 9b 3c 12 99 bc bd 46 07 01 bd b8 79 f0 3c
       0.018971713 -0.09208883 -0.031501077 0.029354915
0000c0 99 07 3d bd 29 b4 d9 3d c8 ae f5 bd 29 15 d8 bd
       -0.046149824 0.10630066 -0.119962275 -0.10550911
0000d0 8b 5e 0d bd 59 3b bb 3c 21 67 b8 3c 2a ac a6 3c
       -0.03451399 0.022855448 0.022510113 0.020345766
0000e0 be 5c 05 bd 1f 09 22 bd f6 48 8f 3d 94 42 c1 3c
       -0.03255915 -0.03955948 0.06996338 0.023591317
0000f0 e1 5d c2 3d 6e 3f 8c be f0 89 88 3d 2a 68 bb bc
       0.09490562 -0.27392143 0.066669345 -0.022876818
