result/LINUX/N2Gim/sum_none_pGinFalse_woNodeattFalse_woGraphattFalse/2022-09-10_13-49-27/minvaild_0.pt (torch, 261086 bytes, 36 tensors)

weight f4 [64, 64]
0.0 0.0 0.0 0.0 0.0 0.0 0.0 0.0
0.0 0.0 0.0 0.0 0.0 0.0 0.0 0.0
0.0 0.0 0.0 0.0 0.0 0.0 0.0 0.0
0.0 0.0 0.0 0.0 0.0 0.0 0.0 0.0
0.0 0.0 0.0 0.0 0.0 0.0 0.0 0.0
0.0 0.0 0.0 0.0 0.0 0.0 0.0 0.0
0.0 0.0 0.0 0.0 0.0 0.0 0.0 0.0
0.0 0.0 0.0 0.0 0.0 0.0 0.0 0.0
0.0 0.0 0.0 0.0 0.0 0.0 0.0 0.0
0.0 0.0 0.0 0.0 0.0 0.0 0.0 0.0
0.0 0.0 0.0 0.0 0.0 0.0 0.0 0.0
0.0 0.0 0.0 0.0 0.0 0.0 0.0 0.0
0.0 0.0 0.0 0.0 0.0 0.0 0.0 0.0
0.0 0.0 0.0 0.0 0.0 0.0 0.0 0.0
0.0 0.0 0.0 0.0 0.0 0.0 0.0 0.0
0.0 0.0 0.0 0.0 0.0 0.0 0.0 0.0
0.0 0.0 0.0 0.0 0.0 0.0 0.0 0.0
0.0 0.0 0.0 0.0 0.0 0.0 0.0 0.0
0.0 0.0 0.0 0.0 0.0 0.0 0.0 0.0
0.0 0.0 0.0 0.0 0.0 0.0 0.0 0.0
0.0 0.0 0.0 0.0 0.0 0.0 0.0 0.0
0.0 0.0 0.0 0.0 0.0 0.0 0.0 0.0
0.0 0.0 0.0 0.0 0.0 0.0 0.0 0.0
0.0 0.0 0.0 0.0 0.0 0.0 0.0 0.0
0.0 0.0 0.0 0.0 0.0 0.0 0.0 0.0
0.0 0.0 0.0 0.0 0.0 0.0 0.0 0.0
0.0 0.0 0.0 0.0 0.0 0.0 0.0 0.0
0.0 0.0 0.0 0.0 0.0 0.0 0.0 0.0
0.0 0.0 0.0 0.0 0.0 0.0 0.0 0.0
0.0 0.0 0.0 0.0 0.0 0.0 0.0 0.0
0.0 0.0 0.0 0.0 0.0 0.0 0.0 0.0
0.0 0.0 0.0 0.0 0.0 0.0 0.0 0.0
00000000: 0000 0000 0000 0000 0000 0000 0000 0000
00000010: 0000 0000 0000 0000 0000 0000 0000 0000
00000020: 0000 0000 0000 0000 0000 0000 0000 0000
00000030: 0000 0000 0000 0000 0000 0000 0000 0000
00000040: 0000 0000 0000 0000 0000 0000 0000 0000
00000050: 0000 0000 0000 0000 0000 0000 0000 0000
00000060: 0000 0000 0000 0000 0000 0000 0000 0000
00000070: 0000 0000 0000 0000 0000 0000 0000 0000
00000080: 0000 0000 0000 0000 0000 0000 0000 0000
00000090: 0000 0000 0000 0000 0000 0000 0000 0000
000000a0: 0000 0000 0000 0000 0000 0000 0000 0000
000000b0: 0000 0000 0000 0000 0000 0000 0000 0000
000000c0: 0000 0000 0000 0000 0000 0000 0000 0000
000000d0: 0000 0000 0000 0000 0000 0000 0000 0000
000000e0: 0000 0000 0000 0000 0000 0000 0000 0000
000000f0: 0000 0000 0000 0000 0000 0000 0000 0000
00000100: 0000 0000 0000 0000 0000 0000 0000 0000
00000110: 0000 0000 0000 0000 0000 0000 0000 0000
00000120: 0000 0000 0000 0000 0000 0000 0000 0000
00000130: 0000 0000 0000 0000 0000 0000 0000 0000
00000140: 0000 0000 0000 0000 0000 0000 0000 0000
00000150: 0000 0000 0000 0000 0000 0000 0000 0000
00000160: 0000 0000 0000 0000 0000 0000 0000 0000
00000170: 0000 0000 0000 0000 0000 0000 0000 0000
00000180: 0000 0000 0000 0000 0000 0000 0000 0000
00000190: 0000 0000 0000 0000 0000 0000 0000 0000
000001a0: 0000 0000 0000 0000 0000 0000 0000 0000
000001b0: 0000 0000 0000 0000 0000 0000 0000 0000
000001c0: 0000 0000 0000 0000 0000 0000 0000 0000
000001d0: 0000 0000 0000 0000 0000 0000 0000 0000
000001e0: 0000 0000 0000 0000 0000 0000 0000 0000
000001f0: 0000 0000 0000 0000 0000 0000 0000 0000
00000200: 0000 0000 0000 0000 0000 0000 0000 0000
00000210: 0000 0000 0000 0000 0000 0000 0000 0000
00000220: 0000 0000 0000 0000 0000 0000 0000 0000
00000230: 0000 0000 0000 0000 0000 0000 0000 0000
00000240: 0000 0000 0000 0000 0000 0000 0000 0000
00000250: 0000 0000 0000 0000 0000 0000 0000 0000
00000260: 0000 0000 0000 0000 0000 0000 0000 0000
00000270: 0000 0000 0000 0000 0000 0000 0000 0000
00000280: 0000 0000 0000 0000 0000 0000 0000 0000
00000290: 0000 0000 0000 0000 0000 0000 0000 0000
000002a0: 0000 0000 0000 0000 0000 0000 0000 0000
000002b0: 0000 0000 0000 0000 0000 0000 0000 0000
000002c0: 0000 0000 0000 0000 0000 0000 0000 0000
000002d0: 0000 0000 0000 0000 0000 0000 0000 0000
000002e0: 0000 0000 0000 0000 0000 0000 0000 0000
000002f0: 0000 0000 0000 0000 0000 0000 0000 0000
00000300: 0000 0000 0000 0000 0000 0000 0000 0000
00000310: 0000 0000 0000 0000 0000 0000 0000 0000
00000320: 0000 0000 0000 0000 0000 0000 0000 0000
00000330: 0000 0000 0000 0000 0000 0000 0000 0000
00000340: 0000 0000 0000 0000 0000 0000 0000 0000
00000350: 0000 0000 0000 0000 0000 0000 0000 0000
00000360: 0000 0000 0000 0000 0000 0000 0000 0000
00000370: 0000 0000 0000 0000 0000 0000 0000 0000
00000380: 0000 0000 0000 0000 0000 0000 0000 0000
00000390: 0000 0000 0000 0000 0000 0000 0000 0000
000003a0: 0000 0000 0000 0000 0000 0000 0000 0000
000003b0: 0000 0000 0000 0000 0000 0000 0000 0000
000003c0: 0000 0000 0000 0000 0000 0000 0000 0000
000003d0: 0000 0000 0000 0000 0000 0000 0000 0000
000003e0: 0000 0000 0000 0000 0000 0000 0000 0000
000003f0: 0000 0000 0000 0000 0000 0000 0000 0000

bias f4 [64, 64]
0.0 0.0 0.0 0.0 0.0 0.0 0.0 0.0
0.0 0.0 0.0 0.0 0.0 0.0 0.0 0.0
0.0 0.0 0.0 0.0 0.0 0.0 0.0 0.0
0.0 0.0 0.0 0.0 0.0 0.0 0.0 0.0
0.0 0.0 0.0 0.0 0.0 0.0 0.0 0.0
0.0 0.0 0.0 0.0 0.0 0.0 0.0 0.0
0.0 0.0 0.0 0.0 0.0 0.0 0.0 0.0
0.0 0.0 0.0 0.0 0.0 0.0 0.0 0.0
0.0 0.0 0.0 0.0 0.0 0.0 0.0 0.0
0.0 0.0 0.0 0.0 0.0 0.0 0.0 0.0
0.0 0.0 0.0 0.0 0.0 0.0 0.0 0.0
0.0 0.0 0.0 0.0 0.0 0.0 0.0 0.0
0.0 0.0 0.0 0.0 0.0 0.0 0.0 0.0
0.0 0.0 0.0 0.0 0.0 0.0 0.0 0.0
0.0 0.0 0.0 0.0 0.0 0.0 0.0 0.0
0.0 0.0 0.0 0.0 0.0 0.0 0.0 0.0
0.0 0.0 0.0 0.0 0.0 0.0 0.0 0.0
0.0 0.0 0.0 0.0 0.0 0.0 0.0 0.0
0.0 0.0 0.0 0.0 0.0 0.0 0.0 0.0
0.0 0.0 0.0 0.0 0.0 0.0 0.0 0.0
0.0 0.0 0.0 0.0 0.0 0.0 0.0 0.0
0.0 0.0 0.0 0.0 0.0 0.0 0.0 0.0
0.0 0.0 0.0 0.0 0.0 0.0 0.0 0.0
0.0 0.0 0.0 0.0 0.0 0.0 0.0 0.0
0.0 0.0 0.0 0.0 0.0 0.0 0.0 0.0
0.0 0.0 0.0 0.0 0.0 0.0 0.0 0.0
0.0 0.0 0.0 0.0 0.0 0.0 0.0 0.0
0.0 0.0 0.0 0.0 0.0 0.0 0.0 0.0
0.0 0.0 0.0 0.0 0.0 0.0 0.0 0.0
0.0 0.0 0.0 0.0 0.0 0.0 0.0 0.0
0.0 0.0 0.0 0.0 0.0 0.0 0.0 0.0
0.0 0.0 0.0 0.0 0.0 0.0 0.0 0.0
00000000: 0000 0000 0000 0000 0000 0000 0000 0000
00000010: 0000 0000 0000 0000 0000 0000 0000 0000
00000020: 0000 0000 0000 0000 0000 0000 0000 0000
00000030: 0000 0000 0000 0000 0000 0000 0000 0000
00000040: 0000 0000 0000 0000 0000 0000 0000 0000
00000050: 0000 0000 0000 0000 0000 0000 0000 0000
00000060: 0000 0000 0000 0000 0000 0000 0000 0000
00000070: 0000 0000 0000 0000 0000 0000 0000 0000
00000080: 0000 0000 0000 0000 0000 0000 0000 0000
00000090: 0000 0000 0000 0000 0000 0000 0000 0000
000000a0: 0000 0000 0000 0000 0000 0000 0000 0000
000000b0: 0000 0000 0000 0000 0000 0000 0000 0000
000000c0: 0000 0000 0000 0000 0000 0000 0000 0000
000000d0: 0000 0000 0000 0000 0000 0000 0000 0000
000000e0: 0000 0000 0000 0000 0000 0000 0000 0000
000000f0: 0000 0000 0000 0000 0000 0000 0000 0000
00000100: 0000 0000 0000 0000 0000 0000 0000 0000
00000110: 0000 0000 0000 0000 0000 0000 0000 0000
00000120: 0000 0000 0000 0000 0000 0000 0000 0000
00000130: 0000 0000 0000 0000 0000 0000 0000 0000
00000140: 0000 0000 0000 0000 0000 0000 0000 0000
00000150: 0000 0000 0000 0000 0000 0000 0000 0000
00000160: 0000 0000 0000 0000 0000 0000 0000 0000
00000170: 0000 0000 0000 0000 0000 0000 0000 0000
00000180: 0000 0000 0000 0000 0000 0000 0000 0000
00000190: 0000 0000 0000 0000 0000 0000 0000 0000
000001a0: 0000 0000 0000 0000 0000 0000 0000 0000
000001b0: 0000 0000 0000 0000 0000 0000 0000 0000
000001c0: 0000 0000 0000 0000 0000 0000 0000 0000
000001d0: 0000 0000 0000 0000 0000 0000 0000 0000
000001e0: 0000 0000 0000 0000 0000 0000 0000 0000
000001f0: 0000 0000 0000 0000 0000 0000 0000 0000
00000200: 0000 0000 0000 0000 0000 0000 0000 0000
00000210: 0000 0000 0000 0000 0000 0000 0000 0000
00000220: 0000 0000 0000 0000 0000 0000 0000 0000
00000230: 0000 0000 0000 0000 0000 0000 0000 0000
00000240: 0000 0000 0000 0000 0000 0000 0000 0000
00000250: 0000 0000 0000 0000 0000 0000 0000 0000
00000260: 0000 0000 0000 0000 0000 0000 0000 0000
00000270: 0000 0000 0000 0000 0000 0000 0000 0000
00000280: 0000 0000 0000 0000 0000 0000 0000 0000
00000290: 0000 0000 0000 0000 0000 0000 0000 0000
000002a0: 0000 0000 0000 0000 0000 0000 0000 0000
000002b0: 0000 0000 0000 0000 0000 0000 0000 0000
000002c0: 0000 0000 0000 0000 0000 0000 0000 0000
000002d0: 0000 0000 0000 0000 0000 0000 0000 0000
000002e0: 0000 0000 0000 0000 0000 0000 0000 0000
000002f0: 0000 0000 0000 0000 0000 0000 0000 0000
00000300: 0000 0000 0000 0000 0000 0000 0000 0000
00000310: 0000 0000 0000 0000 0000 0000 0000 0000
00000320: 0000 0000 0000 0000 0000 0000 0000 0000
00000330: 0000 0000 0000 0000 0000 0000 0000 0000
00000340: 0000 0000 0000 0000 0000 0000 0000 0000
00000350: 0000 0000 0000 0000 0000 0000 0000 0000
00000360: 0000 0000 0000 0000 0000 0000 0000 0000
00000370: 0000 0000 0000 0000 0000 0000 0000 0000
00000380: 0000 0000 0000 0000 0000 0000 0000 0000
00000390: 0000 0000 0000 0000 0000 0000 0000 0000
000003a0: 0000 0000 0000 0000 0000 0000 0000 0000
000003b0: 0000 0000 0000 0000 0000 0000 0000 0000
000003c0: 0000 0000 0000 0000 0000 0000 0000 0000
000003d0: 0000 0000 0000 0000 0000 0000 0000 0000
000003e0: 0000 0000 0000 0000 0000 0000 0000 0000
000003f0: 0000 0000 0000 0000 0000 0000 0000 0000

weight f4 [64, 64]
-0.105347216 -0.06994181 -0.008553083 -0.15694918 -0.04253602 -0.16529886 -0.114803776 0.040391438
0.1777545 0.27264807 0.046187025 0.15724185 -0.14819108 -0.048514158 -0.15782383 -0.03186561
0.07532352 -0.0045770076 -0.075059064 0.047941424 -0.12404456 0.19936489 0.030252893 0.018209757
-0.02532048 0.14963675 0.08929999 0.043511394 -0.17148931 0.037154753 0.26241076 -0.009105545
0.16782878 -0.035192806 0.15465665 0.027682068 -0.14295147 -0.23189731 0.040840447 -0.074221626
0.16771972 -0.1479776 0.11921001 -0.050798517 0.085036725 0.26005006 0.06260751 0.14648025
-0.047864553 0.0766659 -0.102248386 -0.07840261 -0.08838238 -0.042258054 0.002069016 -0.05285678
0.1298249 -0.059824437 -0.2843137 -0.0043366733 0.16284013 -0.012041689 -0.13632165 0.08986184
-0.042366527 -0.13235657 -0.16085714 0.14275652 0.015745567 0.013853384 -0.04404925 -0.19391465
0.17566991 0.1671434 0.02016062 0.06208976 0.018929997 -0.14437476 -0.019310383 0.037943654
0.08503982 -0.00840136 -0.17666648 0.029391406 0.05179969 -0.14527418 0.18204013 0.118366875
-0.040073626 0.151859 0.028800312 -0.19131131 -0.1024728 0.12654372 -0.056249186 0.09959701
-0.03001343 -0.09478913 0.09478992 0.063949145 -0.031549357 0.062735386 -0.017151568 -0.0701784
-0.14370564 -0.072644055 -0.15136893 -0.07164747 -0.12401364 0.014141043 0.00694882 -0.059945613
0.0785464 0.016374284 -0.21327372 -0.04050206 0.06886337 -0.14890938 -0.12863752 0.06433277
-0.12544633 0.30403048 0.11309429 0.00607175 -0.034515575 -0.22262433 0.20669392 -0.06632749
-0.020775024 0.03960154 -0.06606163 0.043320574 0.029567424 -0.025026519 -0.06897113 0.084470496
0.030593876 0.04914154 0.032783587 -0.09495098 0.17173547 -0.013892687 -0.06579347 -0.108119115
0.08822925 -0.02576525 -0.09619969 -0.053727638 0.1716658 0.21082796 -0.08993423 -0.068795264
-0.097474754 0.15285803 0.027632928 0.005114541 0.20267728 -0.026475195 0.048040964 -0.027673313
-0.01678049 -0.036280397 0.07949029 -0.19463573 -0.06546634 0.19383834 0.35160282 0.026828606
-0.12622865 -0.14518769 -0.05812337 0.002944212 -0.035121597 0.15352228 -0.051684756 0.010331017
-0.029168218 -0.17209339 0.14248672 0.04038541 -0.10623551 -0.046729717 0.040178552 0.20612577
0.097428344 0.09477837 0.110832505 -0.053811528 0.10445555 -0.076359086 0.085202955 -0.11449054
0.017789625 -0.19431719 -0.16061148 0.052303188 -0.1841815 0.03871309 0.09712849 -0.05223247
-0.26963645 -0.19779526 -0.13149744 -0.12317496 0.004074954 0.10490175 0.045439124 0.11787084
0.04185877 0.05619689 0.21529235 0.016917443 -0.22651456 -0.06402711 -0.11489184 0.1193299
-0.06796882 -0.099805094 -0.031209985 -0.034457963 0.1613751 0.07283556 0.008633023 -0.13581611
-0.11131417 -0.034208 -0.037811305 0.016912283 0.005368558 0.03982808 0.017940255 0.02742278
0.14468849 0.0075243614 0.07453349 -0.17946205 0.0055176914 -0.11719385 -0.12822556 0.031988595
0.047738105 -0.068700306 -0.12794535 0.0368024 -0.03868556 -0.02315443 0.0007343658 -0.04438101
-0.009647947 0.03711325 -0.13219364 -0.08319182 0.09688696 -0.15734339 0.06165443 0.10688958
00000000: 48c0 d7bd a73d 8fbd 3b22 0cbc 49b7 20be
00000010: 403a 2ebd 1b44 29be 3e1e ebbd 7e71 253d
00000020: 4705 363e 8798 8b3e 9b2e 3d3d 0204 213e
00000030: 67bf 17be c8b6 46bd 929c 21be 8485 02bd
00000040: 3843 9a3d b9fa 95bb 91b8 99bd 3a5e 443d
00000050: 130b febd 4f26 4c3e ead4 f73c a12c 953c
00000060: e56c cfbc 603a 193e eae2 b63d 0139 323d
00000070: e59a 2fbe 952f 183d b45a 863e 6c2f 15bc
00000080: 4fdb 2b3e 5526 10bd 505e 1e3e 81c5 e23c
00000090: df61 12be 7d76 6dbe 5048 273d 8201 98bd
000000a0: b8be 2b3e 7187 17be 6124 f43d 1b12 50bd
000000b0: bc27 ae3d 4825 853e 5e38 803d ebfe 153e
000000c0: 9f0d 44bd 0303 9d3d 9a67 d1bd 8c91 a0bd
000000d0: d201 b5bd c816 2dbd 5498 073b 5a80 58bd
000000e0: d2f0 043e 780a 75bd 9191 91be a71a 8ebb
000000f0: 90bf 263e 814a 45bc e797 0bbe 7c09 b83d
00000100: 8688 2dbd 7b88 07be bcb7 24be c42e 123e
00000110: d9fc 803c 4ef9 623c fd6c 34bd 9091 46be
00000120: d0e2 333e a427 2b3e e227 a53c d551 7e3d
00000130: 1513 9b3c fad6 13be cf30 9ebc ce6a 1b3d
00000140: 5b29 ae3d dca5 09bc 0fe8 34be 3fc6 f03c
00000150: e92b 543d c1c2 14be ba68 3a3e 556a f23d
00000160: 3e24 24bd ed80 1b3e a2ee eb3c 1de7 43be
00000170: 42dd d1bd ad94 013e 8c65 66bd 84f9 cb3d
00000180: bade f5bc ce20 c2bd 3821 c23d c5f7 823d
00000190: e639 01bd 697b 803d 7281 8cbc b1b9 8fbd
000001a0: 9227 13be 68c6 94bd 7500 1bbe e9bb 92bd
000001b0: ddfa fdbd d5af 673c edb2 e33b 8889 75bd
000001c0: efdc a03d 5d23 863c 6d64 5abe 7de5 25bd
000001d0: 3d08 8d3d b37b 18be 8eb9 03be e6c0 833d
000001e0: 0175 00be e2a9 9b3e fb9d e73d 88f5 c63b
000001f0: 3460 0dbd a2f7 63be 92a7 533e b5d6 87bd
00000200: 6230 aabc 3935 223d 524b 87bd ea70 313d
00000210: 6237 f23c 6a04 cdbc bc40 8dbd defe ac3d
00000220: 02a0 fa3c a448 493d 1548 063d a975 c2bd
00000230: 6cdb 2f3e 279e 63bc babe 86bd 8e6d ddbd
00000240: 89b1 b43d a511 d3bc 5804 c5bd 8311 5cbd
00000250: 29c9 2f3e 49e3 573e 702f b8bd 88e4 8cbd
00000260: d8a0 c7bd d186 1c3e 735e e23c e197 a73b
00000270: a28a 4f3e 82e2 d8bc 9ac6 443d 25b3 e2bc
00000280: 3d77 89bc c19a 14bd cecb a23d 974e 47be
00000290: 3713 86bd 8f7d 463e 4905 b43e aac7 db3c
000002a0: 1542 01be 15ac 14be c512 6ebd aef3 403b
000002b0: aadb 0fbd f234 1d3e 65b3 53bd 6d43 293c
000002c0: 30f2 eebc 4039 30be 0ae8 113e 2c6b 253d
000002d0: 0192 d9bd a967 3fbd 4492 243d a212 533e
000002e0: 8388 c73d 291b c23d 27fc e23d 7a69 5cbd
000002f0: cbec d53d 2762 9cbd e37e ae3d 047a eabd
00000300: 8cbb 913c 16fb 46be 5677 24be de3b 563d
00000310: 139a 3cbe 9e91 1e3d 4deb c63d b7f1 55bd
00000320: ca0d 8abe d78a 4abe 44a7 06be 2743 fcbd
00000330: 3187 853b bbd6 d63d 601e 3a3d 4466 f13d
00000340: 1a74 2b3d b62e 663d 9975 5c3e 7396 8a3c
00000350: 6ff3 67be a520 83bd 6a4c ebbd 3c63 f43d
00000360: 3d33 8bbd 9d66 ccbd 15ac ffbc cb23 0dbd
00000370: 843f 253e cf2a 953d 8671 0d3c 6113 0bbe
00000380: aff8 e3bd b01d 0cbd 07e0 1abd a18b 8a3c
00000390: bbea af3b c522 233d 71f7 923c bda5 e03c
000003a0: 3829 143e eb8e f63b 04a5 983d e6c4 37be
000003b0: c0cd b43b 5403 f0bd 904d 03be 7906 033d
000003c0: 0889 433d bfb2 8cbd 1b04 03be 1dbe 163d
000003d0: c074 1ebd 5cae bdbc 7482 403a ddc8 35bd
000003e0: 6c12 1ebc 1004 183d c55d 07be 7960 aabd
000003f0: ac6c c63d a01e 21be 5b89 7c3d ede8 da3d

bias f4 [64]
0.13639784 -0.033674255 0.10318966 0.0071582003 0.012054536 -0.026616683 -0.011270938 0.20528567
0.13243037 0.004298824 -0.068920635 -0.08068801 -0.05140178 -0.12263085 0.11157656 0.115086876
-0.004545579 -0.012541451 0.057309736 -0.123886675 -0.13089673 0.104518816 0.06602342 0.09306709
0.0781861 -0.120183796 -0.0660781 0.0461122 0.19053757 0.07697347 0.06723706 -0.044335943
0.092190385 -0.024986975 -0.05200997 -0.014359209 0.05669367 0.13120326 -0.0716498 0.017599704
0.11672373 0.06494558 -0.13197337 -0.06977063 0.12139417 0.05943301 -0.00018118357 -0.05376232
0.021254422 0.019998092 0.1304148 0.035876613 0.110433206 0.038388208 0.11710643 0.10722829
-0.0883216 0.10875458 -0.104290165 -0.053828076 0.18583006 0.104449406 -0.10568463 -0.007197706
00000000: e0ab 0b3e 04ee 09bd 1a55 d33d 568f ea3b
00000010: 6380 453c 3b0b dabc bea9 38bc 6836 523e
00000020: d49b 073e 26dd 8c3b 4326 8dbd c13f a5bd
00000030: ac8a 52bd e225 fbbd 4082 e43d abb2 eb3d
00000040: 15f3 94bb a87a 4dbc 9dbd 6a3d 4cb8 fdbd
00000050: cb09 06be f60d d63d 4937 873d f599 be3d
00000060: 0920 a03d ec22 f6bd f453 87bd 25e0 3c3d
00000070: 481c 433e 44a4 9d3d 95b3 893d 9b99 35bd
00000080: 50ce bc3d 7cb1 ccbc 6808 55bd e342 6bbc
00000090: 9f37 683d 265a 063e 21bd 92bd 412d 903c
000000a0: da0c ef3d 3002 853d 0724 07be e7e3 8ebd
000000b0: 829d f83d 0770 733d 18fc 3db9 e135 5cbd
000000c0: c11d ae3c 0ad3 a33c 758b 053e 5bf3 123d
000000d0: ce2a e23d f43c 1d3d 7fd5 ef3d 819a db3d
000000e0: f4e1 b4bd b9ba de3d 1596 d5bd d47a 5cbd
000000f0: 3c4a 3e3e 92e9 d53d 2f71 d8bd bcda ebbb

weight f4 [64, 8]
0.242721 0.17713434 -0.0019099416 0.2825588 0.18884246 -0.1087846 -0.7250912 -0.09738409
0.05468174 -0.4145824 0.2921384 -0.32912186 0.3120674 0.04922535 -0.003930309 -0.33368132
0.16399814 0.22130181 0.13181448 0.11611454 -0.04050368 0.26663885 0.36619538 0.11274935
-0.11548578 -0.2060676 -0.34528854 0.0669653 0.4384597 0.3349918 0.3738543 0.24646355
-0.2641485 -0.2715633 0.23991808 -0.080314025 -0.40309766 0.015437047 -0.479925 0.26696622
-0.010930111 -0.371908 0.19851172 0.074945696 0.29967853 -0.31791216 0.5356184 -0.24070874
0.027279716 0.24018201 0.067648664 -0.38089705 -0.44512406 0.114812784 0.4638999 -0.071407676
0.09249977 0.24627924 -0.30817792 0.08492076 -0.21422443 -0.38127282 0.18304539 0.33854187
0.17025535 -0.21350224 0.30895886 -0.07817414 0.0040155915 -0.07092628 -0.10565304 -0.34601492
0.30336344 -0.15421663 -0.25499266 0.06609416 -0.014274353 0.024589444 0.05084345 0.2703038
-0.29885647 0.21463151 -0.16255325 -0.060819108 0.19828245 -0.28896254 -0.40794295 -0.08981477
0.15718734 -0.3607196 0.043012947 -0.06268909 -0.16315083 0.21813616 0.23514795 -0.30878666
-0.114175476 0.20556305 0.0078051505 -0.39606786 -0.1641129 -0.51103395 0.3872357 0.10755387
0.26016915 -0.021942547 0.079605885 -0.34897834 -0.3234495 0.33484665 0.3594614 -0.18393879
-0.08325448 0.008575207 0.112378135 -0.21829917 -0.12806419 -0.35905665 -0.24337569 -0.3137309
0.24988513 -0.17486703 0.21401283 0.15123259 0.34701034 0.5449813 -0.038463123 -0.145499
0.098318905 -0.28091475 -0.1425898 -0.04185655 -0.2007701 -0.07383607 -0.13134271 -0.039313063
0.13879555 -0.2824649 0.24043503 -0.28243285 0.09556988 0.14653549 0.32723853 0.24618876
0.27828157 0.20576061 0.05294657 -0.3810254 0.04631635 -0.5874499 -0.21209541 -0.047222972
-0.20926234 0.105037935 -0.18285508 0.17311886 -0.37668177 -0.30709234 0.16711396 -0.120625034
0.17342763 0.10180709 0.12831147 -0.09208078 -0.38205603 -0.464199 -0.5796425 0.282041
-0.10657521 0.002229228 -0.29942682 -0.18750995 0.30468005 0.04120475 0.065534905 0.2818793
0.0538104 -0.12557977 0.2705176 0.11389352 0.3729073 -0.15809335 -0.22724581 0.1288532
-0.2642525 0.14823942 -0.22857903 -0.16754133 -0.06298915 -0.081361614 0.32872853 -0.27273697
0.16307622 -0.1197251 0.059784025 -0.09246046 0.3291375 -0.2080722 -0.14244038 0.14650345
0.23972112 -0.30991647 0.03703042 0.08241554 -0.05747823 -0.2839062 -0.10964956 0.030655762
-0.07680926 0.2012856 -0.3123834 0.33419016 -0.3376087 0.44733682 0.09523032 -0.25257784
0.20743646 0.03665246 0.036195472 0.038685594 -0.35264772 0.16786423 -0.18627387 -0.21307553
0.123778716 0.069714464 -0.21175133 -0.16805843 0.05474439 -0.35697442 -0.13731445 0.08779635
0.058963694 -0.1448447 -0.24614923 -0.14627449 0.15044689 0.49211687 -0.2343239 -0.1404888
-0.32985365 0.37871325 -0.0825155 0.389832 -0.07562334 -0.369551 -0.57581484 -0.18941312
-0.34017873 -0.24938063 -0.24688925 0.1239138 0.10006509 0.23653758 -0.017460883 0.18426648
00000000: db8b 783e b462 353e 0157 faba 8cab 903e
00000010: eb5f 413e 76ca debd 949f 39bf 4f71 c7bd
00000020: f6f9 5f3d 2544 d4be 2a93 953e a982 a8be
00000030: 4cc7 9f3e 85a0 493d d2c9 80bb 47d8 aabe
00000040: 21ef 273e f19c 623e 60fa 063e 76cd ed3d
00000050: 30e7 25bd e384 883e f67d bb3e 22e9 e63d
00000060: cf83 ecbd 6303 53be a9c9 b0be 1a25 893d
00000070: ca7d e03e 0c84 ab3e d569 bf3e f160 7c3e
00000080: 793e 87be 580a 8bbe 16ad 753e ae7b a4bd
00000090: d162 cebe abeb 7c3c bbb8 f5be ccaf 883e
000000a0: 3514 33bc ba6a bebe a846 4b3e 217d 993d
000000b0: 776f 993e 62c5 a2be 4a1e 093f 5a7c 76be
000000c0: b679 df3c 46f2 753e 628b 8a3d f004 c3be
000000d0: 4de7 e3be f722 eb3d 4a84 ed3e 303e 92bd
000000e0: 8570 bd3d a030 7c3e 7fc9 9dbe efea ad3d
000000f0: a65d 5bbe 3136 c3be 4070 3b3e 5c55 ad3e
00000100: 6b57 2e3e 55a0 5abe db2f 9e3e c319 a0bd
00000110: 3995 833b cc41 91bd 9f60 d8bd de28 b1be
00000120: 7452 9b3e f7ea 1dbe 668e 82be 605c 873d
00000130: fade 69bc cd6f c93c 3941 503d 4265 8a3e
00000140: b703 99be 5dc8 5b3e 5c74 26be 751d 79bd
00000150: 8e0a 4b3e e6f2 93be e6dd d0be cef0 b7bd
00000160: b8f5 203e 3db0 b8be 582e 303d 2363 80bd
00000170: 0311 27be 165f 5f3e a0ca 703e 4919 9ebe
00000180: d5d4 e9bd 1f7f 523e 59c2 ff3b 68c9 cabe
00000190: 360d 28be 1fd3 02bf c243 c63e 3445 dc3d
000001a0: e434 853e dbc0 b3bc 6908 a33d 4aad b2be
000001b0: 2c9b a5be 0571 ab3e 530b b83e 735a 3cbe
000001c0: 5381 aabd 067f 0c3c 8226 e63d d189 5fbe
000001d0: 4223 03be 46d6 b7be 7a37 79be 56a1 a0be
000001e0: e3e1 7f3e 5810 33be 2e26 5b3e b7dc 1a3e
000001f0: 57ab b13e e583 0b3f 828b 1dbd b1fd 14be
00000200: 6c5b c93d 0fd4 8fbe 0f03 12be c671 2bbd
00000210: ad96 4dbe 5e37 97bd b47e 06be bc06 21bd
00000220: 6c20 0e3e 3d9f 90be 9a34 763e 0a9b 90be
00000230: 24ba c33d 660d 163e cf8b a73e e818 7c3e
00000240: ec7a 8e3e e9b2 523e 81de 583d c315 c3be
00000250: 37b6 3d3d 1e63 16bf 8a2f 59be e06c 41bd
00000260: de48 56be 211e d73d 5d3e 3bbe 1246 313e
00000270: 6fdc c0be 353b 9dbe ec1f 2b3e 420a f7bd
00000280: 0397 313e 3c80 d03d 1564 033e d994 bcbd
00000290: d99c c3be 7eab edbe 7363 14bf ae67 903e
000002a0: 1b44 dabd 3d18 123b 794e 99be 9c02 40be
000002b0: 06ff 9b3e 50c6 283d 2a37 863d 7c52 903e
000002c0: 4b68 5c3d fc97 00be 4881 8a3e 0141 e93d
000002d0: b5ed be3e 39e3 21be 20b3 68be 18f2 033e
000002e0: 1b4c 87be 13cc 173e 9f10 6abe f48f 2bbe
000002f0: 7500 81bd eba0 a6bd 1b4f a83e 2ea4 8bbe
00000300: 74fd 263e 6f32 f5bd 18e0 743d e95b bdbd
00000310: b684 a83e e110 55be e4db 11be 0005 163e
00000320: 7479 753e 5fad 9ebe 36ad 173d 7bc9 a83d
00000330: 4b6e 6bbd 275c 91be f38f e0bd cb21 fb3c
00000340: 2c4e 9dbd d01d 4e3e b8f0 9fbe f91a ab3e
00000350: 0cdb acbe 5509 e53e 1d08 c33d e251 81be
00000360: 396a 543e e420 163d b441 143d c974 1e3d
00000370: 3e8e b4be 9ae4 2b3e 94be 3ebe 7930 5abe
00000380: b27f fd3d 75c6 8e3d 57d5 58be 8217 2cbe
00000390: a73b 603d 5ac5 b6be 299c 0cbe 93ce b33d
000003a0: ea83 713d 2b52 14be 8b0e 7cbe fbc8 15be
000003b0: c00e 1a3e bef6 fb3e 9bf2 6fbe 4cdc 0fbe
000003c0: 94e2 a8be b4e6 c13e e3fd a8bd 0f98 c73e
000003d0: 69e0 9abd ca35 bdbe 9a68 13bf 83f5 41be
000003e0: e82b aebe a35d 7fbe 89d0 7cbe 85c6 fd3d
000003f0: edee cc3d e836 723e 200a 8fbc 5ab0 3c3e

bias f4 [64]
-0.016034385 -0.1451521 -0.1583879 -0.074994504 0.19103928 -0.07172106 -0.038521435 -0.01972654
-0.056159366 0.16758575 -0.025330346 -0.18886663 0.124024376 -0.3307468 -0.13823457 -0.09424147
-0.22133721 -0.2446678 -0.018911539 -0.24986635 0.095174976 -0.11666157 -0.13897833 -0.21373786
0.19122382 0.24295661 0.04193292 -0.10100203 0.30332723 -0.16741534 -0.25755596 -0.14005232
0.08985006 -0.29254165 0.072423376 -0.06724445 0.084767774 0.18563223 0.07354958 -0.09045785
-0.16229811 0.29219627 -0.06759885 0.15557449 0.13125727 0.16289596 -0.07399175 0.15442033
-0.29273143 0.22519828 -0.01580371 -0.20877083 -0.07203107 -0.15262999 0.071544394 0.029817281
0.15593709 -0.038901985 -0.18538977 0.24042799 0.03162098 0.023623925 -0.05830713 0.29112688
00000000: 8b5a 83bc c1a2 14be 7030 22be b896 99bd
00000010: cd9f 433e 7ee2 92bd a7c8 1dbd 8e99 a1bc
00000020: 5d07 66bd 999b 2b3e 9681 cfbc 4166 41be
00000030: 7e00 fe3d a557 a9be 5d8d 0dbe ac01 c1bd
00000040: 39a6 62be 328a 7abe 5fec 9abc f7dc 7fbe
00000050: 19eb c23d 43ec eebd 5650 0ebe 19de 5abe
00000060: 2dd0 433e 9ec9 783e dbc1 2b3d 27da cebd
00000070: b54d 9b3e ed6e 2bbe 60de 83be e069 0fbe
00000080: 4f03 b83d 05c8 95be b552 943d 75b7 89bd
00000090: ba9a ad3d 6016 3e3e 2aa1 963d f741 b9bd
000000a0: 7a31 26be c09a 953e 4471 8abd eb4e 1f3e
000000b0: 4e68 063e 33ce 263e fd88 97bd 5d20 1e3e
000000c0: e5e0 95be 619a 663e c876 81bc 05c8 55be
000000d0: 0785 93bd 094b 1cbe de85 923d 5f43 f43c
000000e0: f9ad 1f3e b057 1fbd d1d6 3dbe c132 763e
000000f0: 0085 013d f686 c13c 75d3 6ebd 950e 953e

weight f4 [64, 64]
-0.016789386 0.11485502 0.058097832 0.08904762 -0.11631266 0.12376919 -0.044577252 -0.022943942
-0.054653835 0.07211111 -0.0022783352 0.060824733 0.093594655 -0.08382458 0.105658114 0.10412983
-0.096313685 -0.037886847 0.008329181 -0.064510256 -0.15389723 0.005078308 0.08869109 -0.06977973
-0.076724745 0.04772222 -0.055058293 -0.11236805 -0.13062899 -0.040149197 -0.12409124 0.09318939
-0.010024192 -0.029429857 -0.0791984 0.07238964 0.0008980318 -0.09510311 0.045634504 0.07045774
0.021925371 0.03450798 0.024129298 -0.020516764 -0.088762335 0.0093679605 -0.064023264 -0.059504606
-0.053178422 -0.11268456 0.10209431 -0.085256405 0.032091867 0.074416466 -0.0036361157 0.077017665
-0.00068886013 -0.05178244 -0.102345094 -0.0864326 -0.030990262 0.09137996 -0.0015424958 0.061375186
-0.02243925 -0.06990554 0.052605584 -0.0944062 -0.0018867593 -0.07964679 0.050946116 -0.009247925
-0.1549241 0.07476421 0.05860223 -0.11804569 0.068871826 0.066551715 -0.037962426 -0.16635388
-0.08394824 -0.02850093 0.03529488 -0.10612848 -0.10516396 0.017276224 -0.10072285 -0.0889225
-0.07437849 0.05248645 0.11756475 -0.06328973 -0.054592375 -0.09133083 -0.028290013 0.05497069
-0.011987952 0.08367737 0.022845473 -0.073920965 0.07242829 -0.09235889 -0.12094954 -0.05885572
-0.010463777 0.009774006 -0.078465134 0.085631914 0.14659807 0.058723636 -0.13036089 0.097340144
-0.08495965 0.18143038 0.1293628 0.059499726 -0.08263519 0.018447887 0.037669968 -0.091679655
0.0696385 0.04259716 -0.03275027 -0.080097325 0.0843061 -0.11959338 0.073543966 0.007539268
-0.0028883107 0.20384775 -0.14641818 0.03901797 0.01549255 0.2296056 -0.28644383 -0.17330402
-0.057947047 0.03168174 0.07147667 0.09106566 0.018156447 0.0038702528 -0.15015092 0.30671546
0.050150108 0.14748517 -0.037641868 -0.013721907 -0.024467103 0.08430234 0.25122002 0.061857447
0.16053152 0.022056093 -0.15843688 -0.17071113 -0.08886948 -0.100763045 0.041270554 0.07054403
-0.07342048 -0.123598665 -0.047873326 -0.19665909 0.02565393 0.17563112 0.013724668 0.11933475
0.1437066 0.09878079 -0.06606615 -0.06665997 -0.10506415 0.10901819 -0.020939123 0.018404448
0.055911224 -0.18612005 0.048614655 0.048911132 -0.1099586 0.022431117 0.1105029 0.059282158
-0.121535935 0.04322422 -0.094071046 0.17761695 -0.042064283 -0.034709923 -0.13497743 0.16475059
0.088676676 0.05932465 0.018966617 -0.01682355 -0.21830273 0.06062742 -0.015660478 0.124140054
-0.013049877 -0.033647623 0.16117309 -0.15654054 0.11171654 -0.063772276 -0.06541223 0.05923252
0.024027966 0.09423992 0.09280358 0.031376943 -0.06086078 0.07202391 0.07788075 0.014860441
-0.057390157 0.048111767 -0.072361186 -0.17462856 0.13946393 0.07893697 -0.027153816 -0.11075457
0.103599094 0.024220735 0.01008467 0.008995725 0.018818127 -0.086366385 -0.0070603765 0.13945234
0.10328651 0.009719274 -0.17319192 -0.0130219655 0.06087232 0.0501867 0.1291368 -0.045203492
0.044188675 0.04734054 0.032832693 -0.04112422 -0.1266442 0.044867527 0.063614585 0.05781394
0.091767624 -0.034028966 0.04435853 0.063492164 -0.12783997 -0.062385708 -0.010414882 0.15068105
00000000: e589 89bc 1c39 eb3d fef7 6d3d 995e b63d
00000010: 5535 eebd b37a fd3d a396 36bd eff4 bbbc
00000020: b3dc 5fbd fdae 933d 1f50 15bb 5b23 793d
00000030: 8eae bf3d 39ac abbd 4863 d83d 0542 d53d
00000040: 1c40 c5bd 3d2f 1bbd 1e77 083c f41d 84bd
00000050: 3c97 1dbe ef67 a63b ada3 b53d ade8 8ebd
00000060: dd21 9dbd 6078 433d ce84 61bd 3821 e6bd
00000070: 9bc3 05be 7c73 24bd 8c23 febd 14da be3d
00000080: 823c 24bc e216 f1bc c532 a2bd 0541 943d
00000090: e569 6b3a 6bc5 c2bd 3feb 3a3d 264c 903d
000000a0: d69c b33c 3d58 0d3d ceaa c53c c612 a8bc
000000b0: 07c9 b5bd 137c 193c a11e 83bd 1abb 73bd
000000c0: 9ed1 59bd 2ac7 e6bd d216 d13d e99a aebd
000000d0: c372 033d a967 983d e64b 6ebb 70bb 9d3d
000000e0: 9f94 34ba d319 54bd 4e9a d1bd 9303 b1bd
000000f0: 4adf fdbc 6b25 bb3d 922d caba 8c64 7b3d
00000100: 85d2 b7bc a32a 8fbd f478 573d 0a58 c1bd
00000110: 234d f7ba db1d a3bd e0ac 503d 9c84 17bc
00000120: 6ca4 1ebe fa1d 993d e408 703d f0c1 f1bd
00000130: ac0c 8d3d 444c 883d 7d7e 1bbd ac58 2abe
00000140: 0eed abbd c87a e9bc 5d91 103d e359 d9bd
00000150: 3460 d7bd de86 8d3c c847 cebd 001d b6bd
00000160: c053 98bd 08fc 563d cac5 f03d 0c9e 81bd
00000170: 419c 5fbd a80b bbbd 75c0 e7bc f228 613d
00000180: 1d69 44bc 0a5f ab3d 6e26 bb3c e063 97bd
00000190: 4955 943d a826 bdbd 64b4 f7bd b212 71bd
000001a0: 4370 2bbc 2723 203c 54b2 a0bd c95f af3d
000001b0: ce1d 163e 3288 703d 537d 05be 455a c73d
000001c0: 53ff adbd e3c8 393e af77 043e fcb5 733d
000001d0: a33c a9bd 0620 973c d34b 1a3d 8bc2 bbbd
000001e0: a19e 8e3d 5c7a 2e3d 2625 06bd 110a a4bd
000001f0: ada8 ac3d 60ed f4bd 389e 963d f70b f73b
00000200: d049 3dbb 77bd 503e a6ee 15be 4fd1 1f3d
00000210: 77d4 7d3c bb1d 6b3e c4a8 92be 9c76 31be
00000220: e259 6dbd b6c4 013d 5c62 923d a280 ba3d
00000230: d4bc 943c 11a4 7d3b 2ac1 19be cf09 9d3e
00000240: 336a 4d3d 5a06 173e 5c2e 1abd d9d1 60bc
00000250: 3c6f c8bc b5a6 ac3d e99f 803e 3c5e 7d3d
00000260: 6062 243e fbae b43c 473d 22be e6ce 2ebe
00000270: 3401 b6bd db5c cebd 500b 293d 6379 903d
00000280: 7a5d 96bd 4c21 fdbd d216 44bd 0061 49be
00000290: 3128 d23c a5d8 333e 6edd 603c c765 f43d
000002a0: d327 133e 954d ca3d b14d 87bd 0685 88bd
000002b0: e02b d7bd ee44 df3d 8688 abbc edc4 963c
000002c0: 2b03 653d 4196 3ebe 2920 473d 0a57 483d
000002d0: f931 e1bd 76c1 b73c 584f e23d d9d1 723d
000002e0: d5e7 f8bd e10b 313d 52a8 c0bd 38e1 353e
000002f0: 994b 2cbd fe2b 0ebd 8637 0abe 61b4 283e
00000300: 1e9c b53d 67fe 723d e15f 9b3c 8bd1 89bc
00000310: c08a 5fbe 7554 783d 674a 80bc 243d fe3d
00000320: 27cf 55bc 17d2 09bd 8f0a 253e 2a4c 20be
00000330: a4cb e43d 0a9b 82bd d9f6 85bd cd9d 723d
00000340: 4cd6 c43c dc00 c13d ce0f be3d 1c85 003d
00000350: 2749 79bd 4681 933d f17f 9f3d 3579 733c
00000360: f111 6bbd d810 453d 1a32 94bd d4d1 32be
00000370: a2cf 0e3e b5a9 a13d ae71 debc 4bd3 e2bd
00000380: c32b d43d 906a c63c 2c3a 253c ce62 133c
00000390: 7928 9a3c dce0 b0bd bb5a e7bb 98cc 0e3e
000003a0: e187 d33d 973d 1f3c 3959 31be 155a 55bc
000003b0: 4155 793d 9290 4d3d 703c 043e 4c27 39bd
000003c0: 2fff 343d 27e8 413d 937b 063d df71 28bd
000003d0: 04af 01be 03c7 373d 5d48 823d 4fce 6c3d
000003e0: aaf0 bb3d f561 0bbd 4ab1 353d 2e08 823d
000003f0: 7be8 02be 2888 7fbd 2ea3 2abc 224c 1a3e

bias f4 [64]
-0.1361712 0.108765215 -0.07045014 -0.04948816 -0.061071966 0.070766315 -0.0768679 0.117850795
0.11067337 -0.032163788 -0.0723951 -0.19754632 0.103458606 0.023159754 0.01546707 0.08952519
-0.092900254 -0.10285966 -0.011049589 0.040890563 -0.010794929 0.043048274 -0.056228098 0.013873388
0.004187657 -0.051188454 -0.034311417 -0.0031383098 0.04260166 0.041169297 -0.13799743 0.09056576
-0.052199077 -0.025547279 -0.03853141 0.05618655 0.06611866 -0.034502782 0.03886019 -0.10414206
-0.072735146 0.09769766 0.0906431 -0.039945114 -0.024826726 0.0018244769 -0.10478322 -0.10299737
-0.006549822 -0.04689756 -0.014935816 -0.01865004 0.02095311 -0.10586126 0.06340707 0.087151505
-0.10202951 0.10517086 0.1022133 0.07204049 0.030767692 0.05861968 0.005245735 0.0016055892
00000000: 7770 0bbe 4cc0 de3d 2a48 90bd 19b4 4abd
00000010: 9926 7abd eeed 903d eb6c 9dbd c25b f13d
00000020: b8a8 e23d 2dbe 03bd e243 94bd 9549 4abe
00000030: 1be2 d33d 86b9 bd3c 9869 7d3c fc58 b73d
00000040: 7d42 bebd 16a8 d2bd 5609 35bc dd7c 273d
00000050: 37dd 30bc 6353 303d 6f4f 66bd 354d 633c
00000060: 9d38 893b fcaa 51bd 218a 0cbd 1aac 4dbb
00000070: 147f 2e3d 23a1 283d 334f 0dbe 8b7a b93d
00000080: b3ce 55bd 8748 d1bc 1dd3 1dbd de23 663d
00000090: 3869 873d ca52 0dbd dd2b 1f3d 6f48 d5bd
000000a0: 2af6 94bd b615 c83d 17a3 b93d 7d9d 23bd
000000b0: 6b61 cbbc 4923 ef3a 9698 d6bd 49f0 d2bd
000000c0: e49f d6bb a817 40bd 5ab5 74bc f8c7 98bc
000000d0: dba5 ab3c cacd d8bd 91db 813d 7d7c b23d
000000e0: d9f4 d0bd d263 d73d 3555 d13d f789 933d
000000f0: 870c fc3c 311b 703d 6ae4 ab3b a272 d23a

weight f4 [64, 64]
0.08266159 -0.13157734 -0.2069442 0.015837947 0.03972226 0.031380843 -0.19097124 -0.06854869
-0.123196475 0.027242724 -0.106851414 0.11787222 0.082368076 0.05905387 -0.07996632 -0.052987244
-0.16880222 0.11690144 0.07163794 0.015927278 -0.08685131 -0.1857777 -0.07441229 0.10104991
0.10388556 0.10536963 -0.23843 -0.013972035 -0.027382627 -0.051676273 0.107136875 0.09655063
-0.09296612 -0.09903848 -0.025245504 -0.030140232 -0.021505062 0.26525855 0.008044137 0.017097516
-0.10118265 0.0020361864 0.04271524 -0.00034684347 0.077370465 -0.046192165 0.12834127 -0.072402485
-0.08804251 -0.07478111 -0.0342193 0.048380114 -0.07451659 -0.026212139 -0.020144487 0.09890257
0.048767716 -0.09638757 0.08922577 -0.042110596 -0.06319228 -0.026913276 -0.13642107 0.034080137
-0.03294024 0.011942802 -0.17957109 -0.16829452 0.18161407 0.110439286 -0.20482022 0.07659842
0.11783199 -0.14481732 -0.1479113 -0.099118836 -0.034753334 -0.0853607 0.058118973 0.1667389
-0.045741174 -0.022449583 -0.020224025 -0.1857222 0.050442517 -0.005502322 -0.12171661 -0.35820225
0.0006618997 -0.051856406 0.07823219 0.10117563 0.09184122 -0.003974984 -0.1634059 -0.07136855
0.08324274 -0.14750138 0.09109107 0.107607365 -0.01987777 0.14455035 -0.13989012 0.025429204
-0.07547008 0.009364453 -0.018349929 0.09184178 -0.1646913 0.07052865 -0.05211977 0.07436086
0.017243767 -0.007155743 0.055962622 -0.18424919 -0.015036693 -0.03173446 0.0131262755 0.0010298813
-0.12123636 -0.01935921 -0.112722404 0.100001454 0.13529526 0.18390878 -0.18175374 -0.017222451
-0.073437065 -0.00033362917 0.076172136 -0.11994722 -0.15926073 0.071775384 -0.07624761 -0.15939632
-0.08923276 -0.106955044 0.08314013 0.13857032 0.05574867 -0.042973086 0.12633185 -0.11779615
0.020065024 0.057953767 0.0016697085 0.043180395 0.08045206 0.113358445 0.019299043 0.08732487
-0.09708931 -0.021711478 -0.1197982 0.10183033 0.10381026 0.14278272 0.17226957 -0.0006674542
0.05431093 0.085511185 0.0485889 0.09176067 0.1001971 -0.049829848 0.03670622 -0.025310641
-0.054170977 0.10274835 0.08859584 -0.017276589 -0.16988173 -0.12400806 0.14206691 0.06550566
0.116228476 0.10880667 -0.1891844 0.13156702 -0.049264226 -0.030203493 -0.10650039 0.026104275
-0.06591746 0.089484476 0.0016365494 -0.08364168 -0.15658222 0.08532496 -0.2398039 -0.14649545
-0.03791588 -0.04874471 -0.043314483 0.147563 0.04374573 0.103985 0.0105374865 -0.14263469
0.07512397 0.12888822 0.08120455 -0.07242885 -0.14735359 0.07019549 -0.13815 -0.026771622
0.086782776 0.10411813 -0.03566567 0.15886958 -0.026822213 -0.19385847 0.07000525 0.0865636
-0.0048054904 -0.005724135 -0.029436825 -0.16776071 -0.078482814 0.054105815 0.1472436 0.12266377
-0.19076058 -0.02936461 0.09089475 -0.005286325 -0.12987144 0.21070597 0.07219209 0.029701214
-0.15273824 -0.097037815 -0.113688394 0.07399986 0.1920722 -0.13718764 -0.054465275 -0.023087515
-0.19023539 0.061647657 -0.09734291 0.04679371 0.029503454 -0.07043989 0.041680865 0.08527929
0.0031981925 -0.08546755 0.10534024 -0.06507761 -0.06323082 -0.012604122 -0.056227766 0.062354833
00000000: 7b4a a93d 36bc 06be 2ee9 53be 95be 813c
00000010: cfb3 223d 3389 003d f78d 43be 4163 8cbd
00000020: 6f4e fcbd 222c df3c ead4 dabd fe66 f13d
00000030: 98b0 a83d 79e2 713d 62c5 a3bd 2709 59bd
00000040: 7dda 2cbe 066a ef3d eab6 923d ec79 823c
00000050: 1adf b1bd 823c 3ebe 7865 98bd 41f3 ce3d
00000060: f4c1 d43d 08cc d73d fe26 74be f6ea 64bc
00000070: 8851 e0bc 80aa 53bd 946a db3d 56bc c53d
00000080: 0565 bebd b0d4 cabd a9cf cebc a6e8 f6bc
00000090: 622b b0bc f8cf 873e 8ecb 033c 1710 8c3c
000000a0: d938 cfbd 8a71 053b 2df6 2e3d 8bd8 b5b9
000000b0: 6874 9e3d ff33 3dbd e56b 033e c147 94bd
000000c0: a24f b4bd d726 99bd 8929 0cbd 3a2a 463d
000000d0: 279c 98bd d7ba d6bc 0d06 a5bc 6e8d ca3d
000000e0: a8c0 473d d966 c5bd 00bc b63d 297c 2cbd
000000f0: f46a 81bd 3b79 dcbc f7b1 0bbe 9d97 0b3d
00000100: 58ec 06bd beab 433c 7ce1 37be 6655 2cbe
00000110: 0af9 393e fe2d e23d 64bc 51be a2df 9c3d
00000120: e651 f13d fe4a 14be 0f76 17be d1fe cabd
00000130: 8359 0ebd 97d1 aebd 290e 6e3d 9abd 2a3e
00000140: 195b 3bbd 30e8 b7bc dbac a5bc f62d 3ebe
00000150: d09c 4e3d d34c b4bb 8f46 f9bd 4966 b7be
00000160: 5683 2d3a 6267 54bd 3338 a03d 2b35 cf3d
00000170: 4017 bc3d 9540 82bb e053 27be ad29 92bd
00000180: 2b7b aa3d 9a0a 17be f48d ba3d 4061 dc3d
00000190: b5d6 a2bc 0205 143e 5b3f 0fbe e850 d03c
000001a0: 0f90 9abd 5d6d 193c 9752 96bc 8b17 bc3d
000001b0: d6a4 28be 5371 903d 8a7b 55bd 824a 983d
000001c0: cd42 8d3c b97a eabb 1039 653d d2ab 3cbe
000001d0: 765c 76bc fefb 01bd 970f 573c 15fd 863a
000001e0: c54a f8bd 3597 9ebc 01db e6bd 90cd cc3d
000001f0: d78a 0a3e 9552 3c3e a71d 3abe 1916 8dbc
00000200: 2c66 96bd f3ea aeb9 2300 9c3d e3a6 f5bd
00000210: 3f15 23be f9fe 923d b527 9cbd ca38 23be
00000220: aabf b6bd 3f0b dbbd 5f45 aa3d 61e5 0d3e
00000230: b858 643d 8c04 30bd 235d 013e 1c3f f1bd
00000240: 685f a43c ee60 6d3d 1fda da3a eddd 303d
00000250: 0dc4 a43d 7928 e83d 0719 9e3c 62d7 b23d
00000260: c3d6 c6bd 45dc b1bc c258 f5bd 6c8c d03d
00000270: 799a d43d a235 123e 6f67 303e 18f8 2eba
00000280: 2375 5e3d 7d20 af3d 2805 473d 05ed bb3d
00000290: 2334 cd3d 621a 4cbd 4359 163d 4358 cfbc
000002a0: 63e2 5dbd ba6d d23d bc71 b53d a287 8dbc
000002b0: 7af5 2dbe f0f7 fdbd fd79 113e d527 863d
000002c0: 3209 ee3d 08d6 de3d 8eb9 41be 81b9 063e
000002d0: 49c9 49bd 516d f7bc e01c dabd a2d8 d53c
000002e0: bcff 86bd a343 b73d 7c81 d63a 544c abbd
000002f0: 1757 20be dabe ae3d 278f 75be e702 16be
00000300: af4d 1bbd 88a8 47bd 876a 31bd c11a 173e
00000310: b92e 333d 16f6 d43d 6ca5 2c3c d40e 12be
00000320: 99da 993d 46fb 033e 924e a63d 9455 94bd
00000330: dce3 16be a7c2 8f3d 3277 0dbe 2950 dbbc
00000340: 2bbb b13d e33b d53d 2a16 12bd b5ae 223e
00000350: 42ba dbbc d682 46be ea5e 8f3d 4248 b13d
00000360: 6077 9dbb 8691 bbbb 7f25 f1bc 77c9 2bbe
00000370: 99bb a0bd 0f9e 5d3d 07c7 163e 2537 fb3d
00000380: be56 43be 0d8e f0bc 0727 ba3d e838 adbb
00000390: 05fd 04be 4ec3 573e 72d9 933d f64f f33c
000003a0: 6a67 1cbe c3bb c6bd 76d5 e8bd 3d8d 973d
000003b0: 93ae 443e eb7a 0cbe fb16 5fbd 0722 bdbc
000003c0: 11cd 42be 4182 7c3d b85b c7bd c3aa 3f3d
000003d0: 3ab1 f13c ca42 90bd 8eb9 2a3d e9a6 ae3d
000003e0: c498 513b 9c09 afbd a0bc d73d 6947 85bd
000003f0: 297f 81bd 8581 4ebc 164f 66bd c867 7f3d

bias f4 [64]
0.017824346 -0.0064317724 -0.12884906 -0.14147763 0.0575848 -0.08267059 0.061071046 0.0522263
0.071180776 0.09354466 -0.10765732 0.1118013 0.1467662 -0.040922526 0.02147532 -0.15719824
-0.047411907 0.06471066 -0.13673528 -0.051570624 -0.01827824 0.1160045 -0.0008023325 0.11761104
-0.09271367 0.0014862709 -0.1279852 0.11951913 0.019754982 -0.0012936918 -0.10283478 -0.05576351
-0.11856393 0.054967042 0.049404867 0.08675004 0.058075115 0.02536338 0.017658044 0.100166894
0.013440224 -0.109696455 -0.05765762 0.038681887 0.020319333 -0.0898037 -0.028658174 0.029599272
-0.044772733 0.10636984 -0.11957705 -0.104076035 -0.034813758 0.019460201 0.022358926 0.022888992
-0.031946372 -0.03986991 0.06927151 0.024113385 0.09422055 -0.2665741 0.065559395 -0.023113415
00000000: 5d04 923c 9ec1 d2bb 02f1 03be 83df 10be
00000010: 0ade 6b3d 334f a9bd a225 7a3d 3feb 553d
00000020: 3ac7 913d 5894 bf3d 717b dcbd 14f8 e43d
00000030: e149 163e 619e 27bd 03ed af3c 93f8 20be
00000040: fd32 42bd 0687 843d 5504 0cbe b83b 53bd
00000050: 3fbc 95bc c493 ed3d 9f53 52ba 0fde f03d
00000060: aae0 bdbd face c23a 8d0e 03be 72c6 f43d
00000070: 33d5 a13c 1891 a9ba 0b9b d2bd 4768 64bd
00000080: a5d1 f2bd 1f25 613d c25c 4a3d 01aa b13d
00000090: 2ce0 6d3d ddc6 cf3c 9aa7 903c 4d24 cd3d
000000a0: 6334 5c3c 89a8 e0bd 662a 6cbd e670 1e3d
000000b0: bb74 a63c 01eb b7bd 8cc4 eabc 2c7a f23c
000000c0: 9d63 37bd 6ed8 d93d d0e4 f4bd d125 d5bd
000000d0: df98 0ebd 006b 9f3c 112a b73c b281 bb3c
000000e0: 33da 02bd a14e 23bd 39de 8d3d 6f89 c53c
000000f0: b4f6 c03d 677c 88be 0144 863d 5858 bdbc

weight f4 [64, 64]
-0.06258301 0.00081563496 -0.00983745 0.09807711 0.008486642 0.1608091 -0.059144687 -0.0010657475
-0.24049328 -0.0538516 -0.12446582 -0.052669194 -0.08217152 0.1741816 0.078720555 -0.028805641
0.06452559 -0.032606095 0.14738888 0.04698774 -0.054612763 0.19385222 -0.040998172 0.12194585
0.12617154 0.009353657 -0.07391104 0.07093283 -0.01443603 0.0043741604 0.07290497 -0.59687304
0.021314343 0.0018941041 0.2729643 -0.1501771 0.23049967 -0.0817637 -0.016298806 -0.03918276
-0.07804897 0.032755483 0.034980893 0.06635045 0.09308566 -0.5229106 0.2464634 0.011553064
-0.025314484 -0.11541769 0.17704307 -0.08095047 -0.0029789088 -0.028060915 0.13752265 0.14680439
-0.2000266 0.1702557 -0.03446304 -0.12146118 -7.4935604e-05 0.0590901 0.1466586 0.08840576
0.030959388 0.027006382 -0.013593958 0.3037133 -0.09500109 -0.1742176 -0.25936878 -0.013639318
-0.07007451 -0.046098445 -0.15773292 0.113800436 1.1463331e-05 0.40048677 -0.09841701 0.14418393
0.21263732 -0.13590933 -0.04202289 0.04451767 -0.06491294 0.06839476 -0.057988234 -0.043913387
-0.08743758 -0.1672036 -0.116281874 0.0029614647 0.0030717496 -0.15318455 0.03282098 0.2154981
-0.05804288 0.04422438 0.2751214 -0.034545492 -0.19209495 0.09378651 -0.031959828 -0.033969555
-0.103031725 -0.004236865 0.06912325 -0.061413832 -0.10166484 0.34445345 0.17891099 -0.15302734
-0.18950845 -0.08813149 -0.0639268 -0.00040226578 -0.01251068 0.06115033 -0.05431059 0.2519283
-0.026938967 0.13265775 -0.016399289 -0.011258089 0.032892004 -0.10480509 -0.12601268 0.12929298
0.17525081 0.13256672 -0.101646066 0.06337571 -0.084263645 -0.13515784 0.024729263 0.045369554
-0.011836052 0.059427164 -0.1992042 -0.04767527 -0.059584003 0.07492289 -0.02448973 -0.021217365
0.08374657 -0.019589875 -0.15837994 -0.041689973 0.045847815 -0.07260641 -0.12297358 -0.0744788
-0.15137759 -0.14998245 -0.17626034 -0.22692168 -0.20009932 -0.06172243 -0.22223856 0.2317102
-0.104046 0.05379308 -0.33985215 0.028235894 -0.24402355 0.045438815 0.043995284 0.07035888
0.04666386 0.0720362 -0.19555658 -0.0056628454 0.0619082 0.41000453 0.47384095 -0.13527918
0.37706545 -0.08796454 -0.3121752 0.08162859 -0.16146582 0.0751461 -0.20994866 0.048542064
-0.2835745 0.0695094 -0.10872534 -0.32549965 0.15947044 -0.47765705 -0.13963492 0.07610861
-0.28068745 0.18914205 -0.36398092 -0.13136807 -0.038340855 0.108202934 -0.51762253 -0.021509713
0.076861374 -0.021252831 0.055808235 0.021471182 -0.08489127 -0.09988384 -0.06172045 0.422331
0.27700293 0.072730675 0.1812398 -0.20917116 -0.09640416 -0.020984765 -0.10355627 0.007205327
-0.20592192 -0.1344324 0.0011886575 -0.11721511 -0.03804389 0.21323462 0.08130741 0.27690363
0.014632475 -0.0048225373 0.031184359 -0.07685552 0.12737301 -0.11433815 0.036254514 -0.0007593411
0.09261674 -0.2416127 0.115935184 -0.22714637 -0.10233197 -0.22601756 0.20086855 -0.0040891455
0.59257305 0.006898071 -0.03486887 -0.19196358 0.13406266 -0.015564762 0.1844401 0.53885114
0.14503202 0.26041722 -0.1372462 0.21322106 0.04519273 -0.097109534 0.05014924 0.10759809
00000000: 852b 80bd 56d0 553a 422d 21bc a7dc c83d
00000010: 8e0b 0b3c 24ab 243e b341 72bd 8db0 8bba
00000020: df43 76be 7f93 5cbd f0e7 febd a7bb 57bd
00000030: 8b49 a8bd a95c 323e 3e38 a13d cff9 ebbc
00000040: fe25 843d f88d 05bd 1ced 163e 3776 403d
00000050: a2b1 5fbd 3281 463e b3ed 27bd bfbe f93d
00000060: 1d33 013e 1540 193c ac5e 97bd 3b45 913d
00000070: 1985 6cbc 1e55 8f3b 334f 953d accc 18bf
00000080: 6b9b ae3c 9643 f83a fac1 8b3e 07c8 19be
00000090: 1b08 6c3e ba73 a7bd 1385 85bc 1a7e 20bd
000000a0: 23d8 9fbd 9d2a 063d 2048 0f3d bfe2 873d
000000b0: b2a3 be3d 78dd 05bf e760 7c3e 1049 3d3c
000000c0: 5260 cfbc 1c60 ecbd c74a 353e 5cc9 a5bd
000000d0: cc39 43bb 01e0 e5bc bdd2 0c3e e453 163e
000000e0: c6d3 4cbe 8357 2e3e 1e29 0dbd a4c0 f8bd
000000f0: bf26 9db8 7608 723d ac2d 163e 140e b53d
00000100: 8b9e fd3c 7d3c dd3c 31b9 5ebc 4f80 9b3e
00000110: ee8f c2bd 1966 32be fccb 84be 7277 5fbc
00000120: 3a83 8fbd b9d1 3cbd bd84 21be 3410 e93d
00000130: a252 4037 9a0c cd3e db8e c9bd f4a4 133e
00000140: 99bd 593e d12b 0bbe 3220 2cbd 2958 363d
00000150: 13f1 84bd 8d12 8c3d 1285 6dbd 86de 33bd
00000160: 7912 b3bd 6c37 2bbe 3125 eebd 2215 423b
00000170: 684f 493b 69dc 1cbe 4b6f 063d 89ab 5c3e
00000180: 5fbe 6dbd a024 353d b6dc 8c3e 937f 0dbd
00000190: 8ab4 44be 2413 c03d 4fe8 02bd a923 0bbd
000001a0: 4c02 d3bd 66d5 8abb 7e90 8d3d 128d 7bbd
000001b0: a835 d0bd 345c b03e 7134 373e 33b3 1cbe
000001c0: 810e 42be 487e b4bd 0eec 82bd 33e7 d2b9
000001d0: 98f9 4cbc c578 7a3d c874 5ebd bffc 803e
000001e0: 1caf dcbc 6fd7 073e cd57 86bc d973 38bc
000001f0: c4b9 063d 0da4 d6bd 7809 01be 6165 043e
00000200: f374 333e 92bf 073e d02b d0bd 20cb 813d
00000210: 6b92 acbd d166 0abe 0695 ca3c 6dd5 393d
00000220: 00ec 41bc e669 733d 30fc 4bbe 2547 43bd
00000230: 5b0e 74bd 2c71 993d b09e c8bc 0ad0 adbc
00000240: 5283 ab3d f27a a0bc 5a2e 22be 1bc3 2abd
00000250: ebca 3b3d abb2 94bd 93d9 fbbd 5788 98bd
00000260: ba02 1bbe 0095 19be 977d 34be 285e 68be
00000270: d6e6 4cbe a9d0 7cbd 8192 63be 7045 6d3e
00000280: 1216 d5bd 2256 5c3d 1a01 aebe f64e e73c
00000290: 4fe1 79be 0d1e 3a3d 6634 343d 5118 903d
000002a0: 9b22 3f3d b787 933d fc3f 48be 648f b9bb
000002b0: 7493 7d3d 1dec d13e 489b f23e a086 0abe
000002c0: b90e c13e c126 b4bd 6ed5 9fbe e42c a73d
000002d0: 4c57 25be 33e6 993d c8fc 56be 0bd4 463d
000002e0: ad30 91be f25a 8e3d 64ab debd e4a7 a6be
000002f0: 384c 233e 778f f4be 75fc 0ebe d5de 9b3d
00000300: 44b6 8fbe 74ae 413e b55b babe 5a85 06be
00000310: 4d0b 1dbd 8099 dd3d e982 04bf 2335 b0bc
00000320: 7f69 9d3d 6b1a aebc 2d97 643d 55e4 af3c
00000330: 79db adbd e68f ccbd 95ce 7cbd c53b d83e
00000340: 54d3 8d3e d2f3 943d ed96 393e f730 56be
00000350: 8b6f c5bd 3ee8 abbc 4f15 d4bd aa1a ec3b
00000360: 32dd 52be a6a8 09be bacc 9b3a 7a0e f0bd
00000370: e9d3 1bbd 2d5a 5a3e 8084 a63d 50c6 8d3e
00000380: 0cbd 6f3c 6006 9ebb 5776 ff3c 6d66 9dbd
00000390: 126e 023e 1f2a eabd 9d7f 143d 850e 47ba
000003a0: d8ad bd3d 5269 77be 6d6f ed3d 0f99 68be
000003b0: 6d93 d1bd 2671 67be 7cb0 4d3e 3dfe 85bb
000003c0: deb2 173f 3709 e23b a9d2 0ebd 1a92 44be
000003d0: b947 093e 5803 7fbc dedd 3c3e 26f2 093f
000003e0: 4683 143e 6855 853e 458a 0cbe 9f56 5a3e
000003f0: 031c 393d 5de1 c6bd 4a69 4d3d 635c dc3d

bias f4 [64]
0.013474604 -0.013526248 0.12104731 0.19245613 -0.11225565 -0.09447495 -0.10587425 0.117879726
-0.08644755 -0.017111592 0.008138304 -0.044665333 0.08924676 -0.19328909 0.15430482 0.030805249
0.084238715 -0.06634545 0.104485616 -0.020278323 0.07946651 -0.06613607 -0.026135921 0.08487573
0.11447581 -0.01487731 -0.079045564 0.02640898 -0.09160697 0.07782994 -0.001024362 -0.06325756
0.051671904 0.13421726 -0.13415657 0.12979978 0.04529164 0.15952191 0.047084738 0.060543682
0.08062192 -0.109802574 -0.0068184654 0.13678452 0.019776382 0.0030053079 0.10697124 -0.03168249
0.0072382283 0.17936982 -0.0740503 0.049834304 -0.10619207 0.08648177 0.06310516 -0.055807255
0.08079337 -0.0098214215 -0.082478166 -0.16069937 -0.11381631 0.00925062 0.057015587 0.17329058
00000000: 96c4 5c3c 329d 5dbc a7e7 f73d 3813 453e
00000010: 4ae6 e5bd 157c c1bd 99d4 d8bd ed6a f13d
00000020: 6a0b b1bd 9c2d 8cbc 8556 053c fff2 36bd
00000030: 01c7 b63d 93ed 45be 1502 1e3e 4a5b fc3c
00000040: 5985 ac3d 20e0 87bd 8efc d53d ba1e a6bc
00000050: 56bf a23d 5972 87bd 001b d6bc 54d3 ad3d
00000060: 4b72 ea3d f6bf 73bc a4e2 a1bd a557 d83c
00000070: 6f9c bbbd 4e65 9f3d e343 86ba 2e8d 81bd
00000080: eba5 533d 4070 093e 5760 09be 3cea 043e
00000090: ba83 393d b659 233e eddb 403d a7fc 773d
000000a0: 1b1d a53d 2ce0 e0bd 6f6d dfbb 3e11 0c3e
000000b0: 1402 a23c b3f4 443b bd13 db3d 80c5 01bd
000000c0: a92e ed3b b9ac 373e afa7 97bd 0e1f 4c3d
000000d0: 3a7b d9bd 5b1d b13d 473d 813d 2696 64bd
000000e0: ff76 a53d 07ea 20bc 50ea a8bd 608e 24be
000000f0: 8718 e9bd ea8f 173c 2d89 693d 1673 313e
