result_norm/LINUX/N2Gim/sum_none_pGinFalse_woNodeattFalse_woGraphattFalse/minvaild_0.pt (torch, 261086 bytes, 36 tensors)

weight f4 [64, 64]
000000 00 00 00 00 00 00 00 00 00 00 00 00 00 00 00 00
       0.0 0.0 0.0 0.0
000010 00 00 00 00 00 00 00 00 00 00 00 00 00 00 00 00
       0.0 0.0 0.0 0.0
000020 00 00 00 00 00 00 00 00 00 00 00 00 00 00 00 00
       0.0 0.0 0.0 0.0
000030 00 00 00 00 00 00 00 00 00 00 00 00 00 00 00 00
       0.0 0.0 0.0 0.0
000040 00 00 00 00 00 00 00 00 00 00 00 00 00 00 00 00
       0.0 0.0 0.0 0.0
000050 00 00 00 00 00 00 00 00 00 00 00 00 00 00 00 00
       0.0 0.0 0.0 0.0
000060 00 00 00 00 00 00 00 00 00 00 00 00 00 00 00 00
       0.0 0.0 0.0 0.0
000070 00 00 00 00 00 00 00 00 00 00 00 00 00 00 00 00
       0.0 0.0 0.0 0.0
000080 00 00 00 00 00 00 00 00 00 00 00 00 00 00 00 00
       0.0 0.0 0.0 0.0
000090 00 00 00 00 00 00 00 00 00 00 00 00 00 00 00 00
       0.0 0.0 0.0 0.0
0000a0 00 00 00 00 00 00 00 00 00 00 00 00 00 00 00 00
       0.0 0.0 0.0 0.0
0000b0 00 00 00 00 00 00 00 00 00 00 00 00 00 00 00 00
       0.0 0.0 0.0 0.0
0000c0 00 00 00 00 00 00 00 00 00 00 00 00 00 00 00 00
       0.0 0.0 0.0 0.0
0000d0 00 00 00 00 00 00 00 00 00 00 00 00 00 00 00 00
       0.0 0.0 0.0 0.0
0000e0 00 00 00 00 00 00 00 00 00 00 00 00 00 00 00 00
       0.0 0.0 0.0 0.0
0000f0 00 00 00 00 00 00 00 00 00 00 00 00 00 00 00 00
       0.0 0.0 0.0 0.0
000100 00 00 00 00 00 00 00 00 00 00 00 00 00 00 00 00
       0.0 0.0 0.0 0.0
000110 00 00 00 00 00 00 00 00 00 00 00 00 00 00 00 00
       0.0 0.0 0.0 0.0
000120 00 00 00 00 00 00 00 00 00 00 00 00 00 00 00 00
       0.0 0.0 0.0 0.0
000130 00 00 00 00 00 00 00 00 00 00 00 00 00 00 00 00
       0.0 0.0 0.0 0.0
000140 00 00 00 00 00 00 00 00 00 00 00 00 00 00 00 00
       0.0 0.0 0.0 0.0
000150 00 00 00 00 00 00 00 00 00 00 00 00 00 00 00 00
       0.0 0.0 0.0 0.0
000160 00 00 00 00 00 00 00 00 00 00 00 00 00 00 00 00
       0.0 0.0 0.0 0.0
000170 00 00 00 00 00 00 00 00 00 00 00 00 00 00 00 00
       0.0 0.0 0.0 0.0
000180 00 00 00 00 00 00 00 00 00 00 00 00 00 00 00 00
       0.0 0.0 0.0 0.0
000190 00 00 00 00 00 00 00 00 00 00 00 00 00 00 00 00
       0.0 0.0 0.0 0.0
0001a0 00 00 00 00 00 00 00 00 00 00 00 00 00 00 00 00
       0.0 0.0 0.0 0.0
0001b0 00 00 00 00 00 00 00 00 00 00 00 00 00 00 00 00
       0.0 0.0 0.0 0.0
0001c0 00 00 00 00 00 00 00 00 00 00 00 00 00 00 00 00
       0.0 0.0 0.0 0.0
0001d0 00 00 00 00 00 00 00 00 00 00 00 00 00 00 00 00
       0.0 0.0 0.0 0.0
0001e0 00 00 00 00 00 00 00 00 00 00 00 00 00 00 00 00
       0.0 0.0 0.0 0.0
0001f0 00 00 00 00 00 00 00 00 00 00 00 00 00 00 00 00
       0.0 0.0 0.0 0.0
000200 00 00 00 00 00 00 00 00 00 00 00 00 00 00 00 00
       0.0 0.0 0.0 0.0
000210 00 00 00 00 00 00 00 00 00 00 00 00 00 00 00 00
       0.0 0.0 0.0 0.0
000220 00 00 00 00 00 00 00 00 00 00 00 00 00 00 00 00
       0.0 0.0 0.0 0.0
000230 00 00 00 00 00 00 00 00 00 00 00 00 00 00 00 00
       0.0 0.0 0.0 0.0
000240 00 00 00 00 00 00 00 00 00 00 00 00 00 00 00 00
       0.0 0.0 0.0 0.0
000250 00 00 00 00 00 00 00 00 00 00 00 00 00 00 00 00
       0.0 0.0 0.0 0.0
000260 00 00 00 00 00 00 00 00 00 00 00 00 00 00 00 00
       0.0 0.0 0.0 0.0
000270 00 00 00 00 00 00 00 00 00 00 00 00 00 00 00 00
       0.0 0.0 0.0 0.0
000280 00 00 00 00 00 00 00 00 00 00 00 00 00 00 00 00
       0.0 0.0 0.0 0.0
000290 00 00 00 00 00 00 00 00 00 00 00 00 00 00 00 00
       0.0 0.0 0.0 0.0
0002a0 00 00 00 00 00 00 00 00 00 00 00 00 00 00 00 00
       0.0 0.0 0.0 0.0
0002b0 00 00 00 00 00 00 00 00 00 00 00 00 00 00 00 00
       0.0 0.0 0.0 0.0
0002c0 00 00 00 00 00 00 00 00 00 00 00 00 00 00 00 00
       0.0 0.0 0.0 0.0
0002d0 00 00 00 00 00 00 00 00 00 00 00 00 00 00 00 00
       0.0 0.0 0.0 0.0
0002e0 00 00 00 00 00 00 00 00 00 00 00 00 00 00 00 00
       0.0 0.0 0.0 0.0
0002f0 00 00 00 00 00 00 00 00 00 00 00 00 00 00 00 00
       0.0 0.0 0.0 0.0
000300 00 00 00 00 00 00 00 00 00 00 00 00 00 00 00 00
       0.0 0.0 0.0 0.0
000310 00 00 00 00 00 00 00 00 00 00 00 00 00 00 00 00
       0.0 0.0 0.0 0.0
000320 00 00 00 00 00 00 00 00 00 00 00 00 00 00 00 00
       0.0 0.0 0.0 0.0
000330 00 00 00 00 00 00 00 00 00 00 00 00 00 00 00 00
       0.0 0.0 0.0 0.0
000340 00 00 00 00 00 00 00 00 00 00 00 00 00 00 00 00
       0.0 0.0 0.0 0.0
000350 00 00 00 00 00 00 00 00 00 00 00 00 00 00 00 00
       0.0 0.0 0.0 0.0
000360 00 00 00 00 00 00 00 00 00 00 00 00 00 00 00 00
       0.0 0.0 0.0 0.0
000370 00 00 00 00 00 00 00 00 00 00 00 00 00 00 00 00
       0.0 0.0 0.0 0.0
000380 00 00 00 00 00 00 00 00 00 00 00 00 00 00 00 00
       0.0 0.0 0.0 0.0
000390 00 00 00 00 00 00 00 00 00 00 00 00 00 00 00 00
       0.0 0.0 0.0 0.0
0003a0 00 00 00 00 00 00 00 00 00 00 00 00 00 00 00 00
       0.0 0.0 0.0 0.0
0003b0 00 00 00 00 00 00 00 00 00 00 00 00 00 00 00 00
       0.0 0.0 0.0 0.0
0003c0 00 00 00 00 00 00 00 00 00 00 00 00 00 00 00 00
       0.0 0.0 0.0 0.0
0003d0 00 00 00 00 00 00 00 00 00 00 00 00 00 00 00 00
       0.0 0.0 0.0 0.0
0003e0 00 00 00 00 00 00 00 00 00 00 00 00 00 00 00 00
       0.0 0.0 0.0 0.0
0003f0 00 00 00 00 00 00 00 00 00 00 00 00 00 00 00 00
       0.0 0.0 0.0 0.0

bias f4 [64, 64]
000000 00 00 00 00 00 00 00 00 01 77 00 00 00 00 00 00
       0.0 0.0 4.269e-41 0.0
000010 00 00 00 00 00 00 00 00 00 00 00 00 00 00 00 00
       0.0 0.0 0.0 0.0
000020 00 00 00 00 00 00 00 00 00 00 00 00 00 00 00 00
       0.0 0.0 0.0 0.0
000030 00 00 00 00 00 00 00 00 00 00 00 00 00 00 00 00
       0.0 0.0 0.0 0.0
000040 00 00 00 00 00 00 00 00 00 00 00 00 00 00 00 00
       0.0 0.0 0.0 0.0
000050 00 00 00 00 00 00 00 00 00 00 00 00 00 00 00 00
       0.0 0.0 0.0 0.0
000060 00 00 00 00 00 00 00 00 00 00 00 00 00 00 00 00
       0.0 0.0 0.0 0.0
000070 00 00 00 00 00 00 00 00 00 00 00 00 00 00 00 00
       0.0 0.0 0.0 0.0
000080 00 00 00 00 00 00 00 00 00 00 00 00 00 00 00 00
       0.0 0.0 0.0 0.0
000090 00 00 00 00 00 00 00 00 00 00 00 00 00 00 00 00
       0.0 0.0 0.0 0.0
0000a0 00 00 00 00 00 00 00 00 00 00 00 00 00 00 00 00
       0.0 0.0 0.0 0.0
0000b0 00 00 00 00 00 00 00 00 00 00 00 00 00 00 00 00
       0.0 0.0 0.0 0.0
0000c0 00 00 00 00 00 00 00 00 00 00 00 00 00 00 00 00
       0.0 0.0 0.0 0.0
0000d0 00 00 00 00 00 00 00 00 00 00 00 00 00 00 00 00
       0.0 0.0 0.0 0.0
0000e0 00 00 00 00 00 00 00 00 00 00 00 00 00 00 00 00
       0.0 0.0 0.0 0.0
0000f0 00 00 00 00 00 00 00 00 00 00 00 00 00 00 00 00
       0.0 0.0 0.0 0.0
000100 00 00 00 00 00 00 00 00 00 00 00 00 00 00 00 00
       0.0 0.0 0.0 0.0
000110 00 00 00 00 00 00 00 00 00 00 00 00 00 00 00 00
       0.0 0.0 0.0 0.0
000120 00 00 00 00 00 00 00 00 00 00 00 00 00 00 00 00
       0.0 0.0 0.0 0.0
000130 00 00 00 00 00 00 00 00 00 00 00 00 00 00 00 00
       0.0 0.0 0.0 0.0
000140 00 00 00 00 00 00 00 00 00 00 00 00 00 00 00 00
       0.0 0.0 0.0 0.0
000150 00 00 00 00 00 00 00 00 00 00 00 00 00 00 00 00
       0.0 0.0 0.0 0.0
000160 00 00 00 00 00 00 00 00 00 00 00 00 00 00 00 00
       0.0 0.0 0.0 0.0
000170 00 00 00 00 00 00 00 00 00 00 00 00 00 00 00 00
       0.0 0.0 0.0 0.0
000180 00 00 00 00 00 00 00 00 00 00 00 00 00 00 00 00
       0.0 0.0 0.0 0.0
000190 00 00 00 00 00 00 00 00 00 00 00 00 00 00 00 00
       0.0 0.0 0.0 0.0
0001a0 00 00 00 00 00 00 00 00 00 00 00 00 00 00 00 00
       0.0 0.0 0.0 0.0
0001b0 00 00 00 00 00 00 00 00 00 00 00 00 00 00 00 00
       0.0 0.0 0.0 0.0
0001c0 00 00 00 00 00 00 00 00 00 00 00 00 00 00 00 00
       0.0 0.0 0.0 0.0
0001d0 00 00 00 00 00 00 00 00 00 00 00 00 00 00 00 00
       0.0 0.0 0.0 0.0
0001e0 00 00 00 00 00 00 00 00 00 00 00 00 00 00 00 00
       0.0 0.0 0.0 0.0
0001f0 00 00 00 00 00 00 00 00 00 00 00 00 00 00 00 00
       0.0 0.0 0.0 0.0
000200 00 00 00 00 00 00 00 00 00 00 00 00 00 00 00 00
       0.0 0.0 0.0 0.0
000210 00 00 00 00 00 00 00 00 00 00 00 00 00 00 00 00
       0.0 0.0 0.0 0.0
000220 00 00 00 00 00 00 00 00 00 00 00 00 00 00 00 00
       0.0 0.0 0.0 0.0
000230 00 00 00 00 00 00 00 00 00 00 00 00 00 00 00 00
       0.0 0.0 0.0 0.0
000240 00 00 00 00 00 00 00 00 00 00 00 00 00 00 00 00
       0.0 0.0 0.0 0.0
000250 00 00 00 00 00 00 00 00 00 00 00 00 00 00 00 00
       0.0 0.0 0.0 0.0
000260 00 00 00 00 00 00 00 00 00 00 00 00 00 00 00 00
       0.0 0.0 0.0 0.0
000270 00 00 00 00 00 00 00 00 00 00 00 00 00 00 00 00
       0.0 0.0 0.0 0.0
000280 00 00 00 00 00 00 00 00 00 00 00 00 00 00 00 00
       0.0 0.0 0.0 0.0
000290 00 00 00 00 00 00 00 00 00 00 00 00 00 00 00 00
       0.0 0.0 0.0 0.0
0002a0 00 00 00 00 00 00 00 00 00 00 00 00 00 00 00 00
       0.0 0.0 0.0 0.0
0002b0 00 00 00 00 00 00 00 00 00 00 00 00 00 00 00 00
       0.0 0.0 0.0 0.0
0002c0 00 00 00 00 00 00 00 00 00 00 00 00 00 00 00 00
       0.0 0.0 0.0 0.0
0002d0 00 00 00 00 00 00 00 00 00 00 00 00 00 00 00 00
       0.0 0.0 0.0 0.0
0002e0 00 00 00 00 00 00 00 00 00 00 00 00 00 00 00 00
       0.0 0.0 0.0 0.0
0002f0 00 00 00 00 00 00 00 00 00 00 00 00 00 00 00 00
       0.0 0.0 0.0 0.0
000300 00 00 00 00 00 00 00 00 00 00 00 00 00 00 00 00
       0.0 0.0 0.0 0.0
000310 00 00 00 00 00 00 00 00 00 00 00 00 00 00 00 00
       0.0 0.0 0.0 0.0
000320 00 00 00 00 00 00 00 00 00 00 00 00 00 00 00 00
       0.0 0.0 0.0 0.0
000330 00 00 00 00 00 00 00 00 00 00 00 00 00 00 00 00
       0.0 0.0 0.0 0.0
000340 00 00 00 00 00 00 00 00 00 00 00 00 00 00 00 00
       0.0 0.0 0.0 0.0
000350 00 00 00 00 00 00 00 00 00 00 00 00 00 00 00 00
       0.0 0.0 0.0 0.0
000360 00 00 00 00 00 00 00 00 00 00 00 00 00 00 00 00
       0.0 0.0 0.0 0.0
000370 00 00 00 00 00 00 00 00 00 00 00 00 00 00 00 00
       0.0 0.0 0.0 0.0
000380 00 00 00 00 00 00 00 00 00 00 00 00 00 00 00 00
       0.0 0.0 0.0 0.0
000390 00 00 00 00 00 00 00 00 00 00 00 00 00 00 00 00
       0.0 0.0 0.0 0.0
0003a0 00 00 00 00 00 00 00 00 00 00 00 00 00 00 00 00
       0.0 0.0 0.0 0.0
0003b0 00 00 00 00 00 00 00 00 00 00 00 00 00 00 00 00
       0.0 0.0 0.0 0.0
0003c0 00 00 00 00 00 00 00 00 00 00 00 00 00 00 00 00
       0.0 0.0 0.0 0.0
0003d0 00 00 00 00 00 00 00 00 00 00 00 00 00 00 00 00
       0.0 0.0 0.0 0.0
0003e0 00 00 00 00 00 00 00 00 00 00 00 00 00 00 00 00
       0.0 0.0 0.0 0.0
0003f0 00 00 00 00 00 00 00 00 00 00 00 00 00 00 00 00
       0.0 0.0 0.0 0.0

weight f4 [64, 64]
000000 91 1e 25 be e7 56 aa bd a3 5c 50 3e dd 53 48 be
       -0.16124941 -0.083173566 0.20347838 -0.19563241
000010 66 8a 0d be b7 0b 0e bd 28 e0 f4 bd 80 cb 34 3d
       -0.13822326 -0.03467914 -0.11956817 0.044139385
000020 6b 26 bb 3d 2f 8a d4 3d 3c 60 00 3d 62 c2 d4 bc
       0.09138187 0.10377919 0.031341776 -0.025971595
000030 f3 ca 50 be ef 33 34 3d ea 8d 8f be 27 29 80 be
       -0.20389919 0.04399484 -0.2803796 -0.25031397
000040 5d 8b ba bc bd 73 80 3c d1 50 f9 bb 0b f2 64 3d
       -0.022771532 0.015680188 -0.007608511 0.055894893
000050 8b 60 70 be 5b e6 21 3c 46 ee 0b 3e 3d cc 25 bd
       -0.23474328 0.009881581 0.13665113 -0.04047798
000060 27 bd 74 bd 24 df 95 3d 6b 43 00 3e 79 ed 4c 3d
       -0.059750702 0.07317951 0.12525718 0.05003116
000070 40 50 93 bd 44 bb 94 bd f6 23 5d 3d b4 e0 40 bd
       -0.07193041 -0.072622806 0.053989373 -0.047089294
000080 09 03 8c bb 4a f3 27 bd c4 d3 ff 3d ad 83 2d 3e
       -0.0042728228 -0.041003503 0.12491563 0.16944762
000090 55 d9 fc bd 78 fa 90 be 06 c7 d8 3d cc 2a b8 bd
       -0.1234614 -0.28316092 0.10584836 -0.08992538
0000a0 79 bd 16 3e d6 eb f4 bd a6 c8 f6 3d 5b 64 c3 bb
       0.14720716 -0.11959045 0.120499894 -0.005962891
0000b0 5e c5 b1 3c a2 68 28 3d cb e1 da 3d d4 36 e0 3c
       0.021700557 0.04111541 0.10687598 0.027369894
0000c0 21 f2 02 be 6a 7c 62 3c 4c 1c b4 bd 0e ea 12 be
       -0.12787677 0.013823608 -0.0879446 -0.14347097
0000d0 41 a4 c9 bd b1 8f 83 bd e2 37 4d 3d 50 de a4 bd
       -0.09845782 -0.06423891 0.050102122 -0.08050215
0000e0 b7 f3 ff 3c b5 c2 3c be 85 16 11 be 11 a7 9c 3c
       0.031244142 -0.1843365 -0.14168747 0.019122632
0000f0 9e a9 08 3e 80 ad b8 bd 1d 74 e8 bd b5 ac a8 bd
       0.13345954 -0.090174675 -0.11350272 -0.08236066
000100 04 c7 bc 3d 0d 30 8a be 62 7b 4d be 7a b8 1d 3e
       0.09217647 -0.26989785 -0.20066598 0.15402403
000110 88 ab 7f bd 69 28 12 bd c4 86 f7 3d 3b 78 d1 bd
       -0.062419444 -0.03568307 0.120862514 -0.1022801
000120 de 5c 0c 3d d3 20 95 bc 64 7f 9e bc 45 da 22 3d
       0.034268253 -0.018204128 -0.019347854 0.03975894
000130 26 44 e4 3d bb 1f 4a bd 70 56 97 3d da 4a 36 bd
       0.11145811 -0.049346667 0.073895335 -0.044504978
000140 10 5b 65 3d 03 a8 01 3e e4 41 4c be e2 33 82 3e
       0.055995047 0.12661748 -0.1994701 0.25430208
000150 8a 4d 0c 3e 66 43 bf bd 19 51 d7 3d dc 96 38 3e
       0.13701454 -0.09339027 0.10513515 0.18026298
000160 2a 0e b4 3b 52 88 f9 3b 80 af cb 3b 6d 0a c6 bd
       0.0054948526 0.0076151276 0.0062159896 -0.09669957
000170 88 1c 01 3c 7a b6 e5 ba 9e 54 17 3d e7 f9 d9 3d
       0.007880338 -0.0017525696 0.03694593 0.10643368
000180 2d 18 3c 3e 40 a1 e6 bd 46 d3 44 3c fe 88 c6 3d
       0.18368597 -0.11261225 0.012013262 0.09694098
000190 c9 d1 e1 bc cc f6 c5 3d 80 25 43 be 5f 6e a3 bd
       -0.027565854 0.096662134 -0.19057274 -0.07980036
0001a0 87 b9 e3 3b e4 63 11 3c 19 8c 95 bd eb e3 05 bd
       0.006949607 0.008873913 -0.07302112 -0.032688063
0001b0 85 c3 9e bd 90 03 1b 3d b3 2d 02 3e 1f 69 8a bd
       -0.07752136 0.037845194 0.12712745 -0.067583315
0001c0 44 70 16 3d 2a 91 57 3e 16 85 40 be 98 bd e7 3d
       0.03672816 0.2105147 -0.18800768 0.11315459
0001d0 ef f4 16 3d d1 5b 9d bd c0 e4 5c be 7e 0f f5 3d
       0.03685468 -0.07683528 -0.21571636 0.119658455
0001e0 8f 5a 2b bd cc 75 1c 3e 11 52 51 3e a0 24 dc 3d
       -0.04183441 0.15279311 0.20441462 0.10749173
0001f0 cf 06 26 bd 0f e7 3b be cf 8a e8 bd 1f 7d 93 bd
       -0.040533837 -0.1834986 -0.11354601 -0.07201599
000200 43 ca 84 3c f4 df 87 3d 8e b4 a2 3d 70 6a 23 3e
       0.016209727 0.066345125 0.07944594 0.15958571
000210 e0 88 38 3d a1 e3 69 bd f5 dd 3e be 78 7c b8 bd
       0.04505241 -0.05710185 -0.18639357 -0.090081155
000220 d6 89 e4 3d 33 48 0a 3e 9c 0a e3 bd c8 75 c4 bc
       0.111591026 0.13504104 -0.11086008 -0.023981944
000230 42 84 19 3e 01 36 56 3e 18 c9 0b 3e 8e 42 7e bc
       0.14991859 0.20919038 0.1365093 -0.015518798
000240 79 ba 42 bb cd 69 9d 3d 97 c6 47 be 81 16 46 3d
       -0.0029713197 0.076861955 -0.1950935 0.048361305
000250 69 15 c5 bd b7 16 7a 3e 70 d7 58 3d 5a ac c5 3d
       -0.09623224 0.24422728 0.052939832 0.09652014
000260 22 90 5a be 03 9e 3f 3c 62 8b 02 3e 7d 5e 86 3c
       -0.21344045 0.011695388 0.12748483 0.016402477
000270 51 ef 17 3e 55 f1 a4 3c b0 df 1c bd 9f d4 73 3d
       0.14837386 0.020134607 -0.038299263 0.059528943
000280 c2 cc 73 be 6e a9 5b 3d c9 29 88 3d 2d 96 9e bd
       -0.23808578 0.053628378 0.06648595 -0.077434875
000290 31 ab 46 bc 38 9c 81 3e 82 1d 61 3c 3f 57 ff 3c
       -0.012125776 0.25314498 0.013739945 0.031169532
0002a0 00 6d a8 bd 34 6e c4 bc 03 11 66 bd b9 24 8a be
       -0.08223915 -0.02397833 -0.056168567 -0.26981142
0002b0 49 84 82 3d 17 5c 48 3e 84 17 33 be db 1e af 3d
       0.06372888 0.1956638 -0.17489439 0.08550807
0002c0 a0 c5 7c bd da 8f 5c bd 80 aa 49 bc c0 b7 35 3d
       -0.061711907 -0.053848125 -0.012308717 0.04436469
0002d0 f0 ea 92 bc 3a 3a 9b ba 03 d5 81 3d 01 ac f0 3d
       -0.017934293 -0.0011842914 0.06339457 0.11751557
0002e0 3e be 1d bc b8 4a 65 3e 9d fd c6 3d a1 2f 9a bd
       -0.009627877 0.22391784 0.09716342 -0.07528616
0002f0 59 ae b2 bd 28 a7 58 bd a7 16 5a 3d 06 3b 10 3c
       -0.087246604 -0.052893788 0.05324426 0.008803135
000300 e5 9e ac bc 07 e8 8e bd fe f3 01 3e 4c 80 53 3d
       -0.02107186 -0.069778495 0.12690732 0.051636025
000310 c1 01 34 be 5f 31 ff 3c 55 ca 98 bc 53 df 68 bd
       -0.17578794 0.031151472 -0.018651167 -0.056853604
000320 38 27 bb bd 5e eb ed 3c 72 67 df bd db f7 d7 bc
       -0.0913834 0.029042896 -0.109084025 -0.026363304
000330 50 72 a0 bd 43 14 c7 3d 66 c0 b3 bb b1 1a 23 3e
       -0.078343034 0.097206615 -0.005485582 0.1592815
000340 dd 8a da 3c 78 07 dc bc 80 58 f6 3d c0 d8 3a bd
       0.026677543 -0.02685903 0.12028599 -0.045616865
000350 e8 6d 73 bd 6b eb 04 be a3 65 99 bd e7 be 0d 3e
       -0.059430987 -0.1298043 -0.07490089 0.13842355
000360 a9 fd 46 bd 9b 63 e6 bd e1 30 dd 3c 06 9e 59 bd
       -0.048581753 -0.11249467 0.027000846 -0.05312922
000370 71 3b 0a 3e 0d d9 a2 3c 02 8e ef bc b3 3c 18 be
       0.13499238 0.019878889 -0.02924252 -0.14866905
000380 70 2a c5 bd b3 a0 64 bc a5 29 5c 3b c3 93 32 3d
       -0.09627235 -0.013954329 0.0033594158 0.043597948
000390 04 f8 6c 3d ba 61 4d 3d 78 de 62 3d 39 0e 94 3c
       0.057853714 0.050142027 0.055387944 0.018073188
0003a0 9c 9d ce 3d 91 7f fe bc 89 ae c1 3d 63 a0 3b be
       0.10088655 -0.031066688 0.09457118 -0.18322901
0003b0 3c de 06 3d 4f 5a 17 bd 5e 35 28 be eb d7 95 3b
       0.032926783 -0.03695136 -0.16426608 0.0045728586
0003c0 1b af 47 bb bd 8b 30 bd 1b bd b9 bd ba 80 fd ba
       -0.0030469361 -0.043102015 -0.09069272 -0.0019340732
0003d0 31 81 d8 3c d0 19 06 be 28 41 77 3c 5e 59 bd 3c
       0.02642879 -0.13095784 0.015091218 0.023113903
0003e0 6a 2a 91 3d e9 fb 69 3d d8 31 c0 bd 4d 3f a9 bd
       0.07088168 0.057125006 -0.09384507 -0.08264027
0003f0 f1 32 f3 3d 56 77 59 be 39 18 e9 bc 60 ba dd 3c
       0.11874951 -0.2123693 -0.028453933 0.02706641

bias f4 [64]
000000 5a 1b 18 3e e8 eb 93 3c 53 a8 4f 3d 2e fe eb bc
       0.14854184 0.018056825 0.050697636 -0.028807726
000010 a1 da d7 bc f9 bf c3 ba 7f d4 28 3d 6d 88 0a 3e
       -0.026349368 -0.0014934532 0.041218277 0.13528605
000020 4d 32 9c 3d 63 9f 09 bd a8 0f 47 bd 06 66 c8 bd
       0.076267816 -0.03359927 -0.048598915 -0.097850844
000030 f7 03 a1 bd 78 c2 e1 bd 29 8d f3 3d 98 90 08 3d
       -0.07862084 -0.1102342 0.118921585 0.03334102
000040 1e ea ed 3b 5b 95 ca 3c 65 d9 ba 3a 19 58 98 bd
       0.007260575 0.024729421 0.0014255462 -0.07438678
000050 4b f8 10 be 7b 9c c9 3d 77 da 87 3d aa 9a ba 3d
       -0.14157216 0.098442994 0.06633466 0.09111531
000060 ba 45 a2 3d ec f4 d5 bd e9 13 eb bd 11 66 ec 3d
       0.079234555 -0.10447106 -0.11478407 0.11542905
000070 f3 ea 36 3e 2b 82 03 3d c3 df 54 3d 44 20 3b 3d
       0.17863064 0.03210656 0.05197121 0.045685068
000080 ea 89 8e 3d a7 b7 36 bd 17 f1 59 bd ef 21 b1 bc
       0.06959899 -0.04460874 -0.053208437 -0.021622626
000090 9f ac ad 3d 38 b4 9d 3d 54 1b f0 bd 43 d0 91 3d
       0.084801905 0.077003896 -0.117239624 0.07119801
0000a0 1f e0 3e 3e ea 80 40 3d 48 86 c5 bd 08 21 22 bd
       0.18640183 0.046997942 -0.09644753 -0.039582282
0000b0 77 b6 cf 3d 38 05 78 3d 5a 6a 97 bd b1 f9 9d bd
       0.10142224 0.060551852 -0.07393332 -0.077136405
0000c0 ce d2 04 3d be 4e e8 bd b8 c5 f9 3d 56 3c a6 3c
       0.0324276 -0.11343144 0.12195915 0.020292442
0000d0 2a cc a7 3d fd 64 e3 3d 08 a4 e6 3d 6e fe 3e 3d
       0.08193238 0.11103246 0.11261755 0.04662936
0000e0 f7 18 97 bd 46 0c 06 3e 35 1d c2 bd c5 b2 26 bd
       -0.073778085 0.1309062 -0.09478227 -0.04069783
0000f0 a0 79 05 3e 8d 49 2f bb 88 e0 bc bd 4d 25 bf 3d
       0.13034678 -0.002674672 -0.092225134 0.093332864

weight f4 [64, 8]
000000 db 8b 78 3e 68 f4 3c 3e 9d a9 44 3d e7 cf b0 3e
       0.242721 0.18452609 0.04801332 0.34533617
000010 84 53 40 3e c2 51 5e bd 9b 0b 04 bf 4f 71 c7 bd
       0.18781859 -0.05427719 -0.5158021 -0.09738409
000020 f6 f9 5f 3d c8 ee ba be 40 36 80 3e ae cd b6 be
       0.05468174 -0.365103 0.2504139 -0.35703796
000030 15 46 bc 3e 05 3b fc 3c 31 26 a2 3e 47 d8 aa be
       0.36772218 0.030789861 0.31669763 -0.33368132
000040 21 ef 27 3e 39 7e 2c 3e 70 3a fd 3d 5a 75 2f 3e
       0.16399814 0.16845025 0.12364662 0.1713461
000050 b5 6f 2c 3d dd 52 d9 3e 56 01 f0 bb 22 e9 e6 3d
       0.04209872 0.42446032 -0.007324378 0.11274935
000060 cf 83 ec bd dc 8a 83 be 1f ef a9 be 09 02 d8 3d
       -0.11548578 -0.2569188 -0.33190247 0.10547263
000070 f8 c7 e6 3e d0 a7 b0 3e 8d 47 ac 3e f1 60 7c 3e
       0.4507444 0.3450303 0.3364834 0.24646355
000080 79 3e 87 be d0 ae 59 be 0d c0 76 3e f2 da 90 bd
       -0.2641485 -0.21258092 0.24096699 -0.070730105
000090 6a 93 b8 be 99 94 03 be ff f5 1e bf cc af 88 3e
       -0.36049968 -0.12849654 -0.6209411 0.26696622
0000a0 35 14 33 bc f3 d9 b0 be db 1d 31 3e c6 79 1d 3e
       -0.010930111 -0.34541282 0.17296545 0.15378484
0000b0 89 1b 63 3e 7f 38 2e be 3c f2 f5 3b 5a 7c 76 be
       0.22178473 -0.17013739 0.007505683 -0.24070874
0000c0 b6 79 df 3c e4 0c 4c 3e 14 a6 b9 3d 1a 7b 9f be
       0.027279716 0.19926792 0.0906488 -0.31148607
0000d0 28 4d df be 3b 60 b8 3d ba eb 19 3f 30 3e 92 bd
       -0.43613553 0.090027295 0.60125315 -0.071407676
0000e0 85 70 bd 3d 21 34 89 3e e4 5b a0 be 5d 94 17 3e
       0.09249977 0.26797584 -0.31320107 0.1480269
0000f0 37 e3 5b be a7 c1 78 be d5 70 75 3e 5c 55 ad 3e
       -0.21473394 -0.24292623 0.23968823 0.33854187
000100 6b 57 2e 3e 2e 13 bf bd 60 f8 9b 3e 4a 6c c0 bc
       0.17025535 -0.0932983 0.30462933 -0.023489136
000110 59 82 31 3d ed c0 fd 3b e3 b7 ae be de 28 b1 be
       0.0433372 0.007743946 -0.3412467 -0.34601492
000120 74 52 9b 3e e0 d5 1f be 04 b7 63 be c2 13 e0 3c
       0.30336344 -0.1560893 -0.22237784 0.027353171
000130 8a 26 b0 bd 9a a3 2f 3d 85 93 c8 3e 42 65 8a 3e
       -0.08601101 0.042880632 0.39175048 0.2703038
000140 b7 03 99 be 71 e4 46 3e 96 f7 56 be ff b0 81 bd
       -0.29885647 0.19423081 -0.20992884 -0.063325875
000150 f9 62 08 3e 29 75 b6 be c1 6a ea be ce f0 b7 bd
       0.13319005 -0.3563626 -0.45784572 -0.08981477
000160 b8 f5 20 3e eb 75 9f be 77 33 12 ba a8 83 aa bd
       0.15718734 -0.31144652 -0.0005577127 -0.08325893
000170 0e 04 3f be e2 64 47 3e 81 ef c5 3d 49 19 9e be
       -0.1865389 0.19472077 0.09664822 -0.30878666
000180 d5 d4 e9 bd 89 cc 80 3e 54 9a c7 3d d5 95 b3 be
       -0.114175476 0.25156048 0.09746233 -0.3507525
000190 36 de 56 be b3 08 44 bf 77 14 bd 3d 34 45 dc 3d
       -0.20983204 -0.76575774 0.09232419 0.10755387
0001a0 e4 34 85 3e 11 28 bc 39 19 95 17 3e 78 74 bd be
       0.26016915 0.00035888006 0.1480297 -0.3700292
0001b0 8d 0a 83 be 3a 99 99 3e b8 66 9e 3e 73 5a 3c be
       -0.25593987 0.29999715 0.30937743 -0.18393879
0001c0 53 81 aa bd 94 23 34 3d 20 d7 8a 3d 28 c2 25 be
       -0.08325448 0.043979242 0.06779313 -0.16187346
0001d0 12 75 3b bd 3e 68 6e be 4c b4 b1 be 56 a1 a0 be
       -0.045765944 -0.23281953 -0.34707868 -0.3137309
0001e0 e3 e1 7f 3e dc 3d d3 bd 34 16 42 3e ed f1 03 3e
       0.24988513 -0.10314533 0.18953782 0.12885256
0001f0 3f 43 8c 3e 10 a6 e2 3e 21 8d f8 be b1 fd 14 be
       0.27395055 0.4426732 -0.48545173 -0.145499
000200 6c 5b c9 3d c3 38 73 be 2c 64 95 bd 8f 3d 27 3d
       0.098318905 -0.23752122 -0.07294497 0.04083019
000210 a9 c3 57 be 37 96 0e 3c e9 12 12 be bc 06 21 bd
       -0.21070732 0.008702806 -0.14265026 -0.039313063
000220 6c 20 0e 3e 37 ae 62 be aa 71 61 3e 08 92 cc be
       0.13879555 -0.2213677 0.22016016 -0.39955163
000230 7d 56 03 3e 80 aa 4e 3e 2c d5 e9 3e e8 18 7c 3e
       0.12825961 0.20182228 0.4567045 0.24618876
000240 ec 7a 8e 3e 19 2b 67 3e 4f bd 64 3d 7f 90 a8 be
       0.27828157 0.22575034 0.0558446 -0.32922742
000250 a8 1f 1f 3d a0 f0 e8 be 99 90 99 be e0 6c 41 bd
       0.03884855 -0.45496082 -0.29993132 -0.047222972
000260 de 48 56 be 15 58 ac 3d 1e 5b 3f be 99 10 4b 3e
       -0.20926234 0.08415238 -0.18687102 0.1983055
000270 78 3b a5 be d6 d9 e6 bd 34 d7 ef 3d 42 0a f7 bd
       -0.32271934 -0.11272018 0.117109686 -0.120625034
000280 03 97 31 3e 8c ba 13 3e 66 b7 c4 3d 82 a0 9f bd
       0.17342763 0.1442663 0.09605293 -0.07794286
000290 cd 15 c0 be 27 c0 09 bf b2 c0 02 bf ae 67 90 3e
       -0.37516633 -0.53808826 -0.5107528 0.282041
0002a0 1b 44 da bd b7 40 a3 bd 8f 02 60 be 64 8e 8c be
       -0.10657521 -0.07971328 -0.21875976 -0.27452385
0002b0 c1 18 7c 3e c0 30 95 3e a8 a1 3f 3d 7c 52 90 3e
       0.24618818 0.29138756 0.046785027 0.2818793
0002c0 4b 68 5c 3d c8 f3 21 be 61 b2 87 3e f6 29 f0 3d
       0.0538104 -0.15815651 0.2650328 0.117267534
0002d0 0f ed b4 3e cc ed 87 bd bc e2 c7 be 18 f2 03 3e
       0.3533711 -0.06637153 -0.39040172 0.1288532
0002e0 1b 4c 87 be 68 e7 09 3e 31 2f 02 be 28 c6 30 be
       -0.2642525 0.1346718 -0.12713315 -0.1726309
0002f0 83 f4 fb 3c 59 57 2a 3d 53 74 25 3f 2e a4 8b be
       0.03075624 0.041587207 0.6463062 -0.27273697
000300 74 fd 26 3e fb c8 0e be a6 85 a0 3c b6 b1 d0 bd
       0.16307622 -0.13943855 0.019594979 -0.10190146
000310 47 20 82 3e 7f 95 78 be 65 0e 26 bd 00 05 16 3e
       0.2541525 -0.24275778 -0.04054107 0.14650345
000320 74 79 75 3e 23 26 b0 be 53 41 08 3d 9e 6b 03 3e
       0.23972112 -0.34404096 0.033265423 0.12834021
000330 90 10 e9 bd 31 7a 8c be 94 38 0f 3c cb 21 fb 3c
       -0.11380112 -0.27436975 0.008741517 0.030655762
000340 2c 4e 9d bd cd 40 4e 3d 46 55 a1 be d1 b8 99 3e
       -0.07680926 0.050354768 -0.3151037 0.30023816
000350 a9 fb 51 be 8a 6e b0 3e 9e 30 39 3e e2 51 81 be
       -0.20506157 0.34459335 0.18084952 -0.25257784
000360 39 6a 54 3e e6 34 27 3d 83 3f b6 3d b7 8e 8b 3d
       0.20743646 0.040821932 0.08898833 0.0681433
000370 67 6b d0 be e5 c9 8a be e5 38 b4 be 79 30 5a be
       -0.4070694 -0.27107158 -0.35199657 -0.21307553
000380 b2 7f fd 3d b9 9a d0 3d 94 b6 52 be b3 22 1c be
       0.123778716 0.10185761 -0.2057746 -0.15247612
000390 69 26 e7 3d 17 cd 84 be bc af 14 bf 93 ce b3 3d
       0.11286623 -0.2593772 -0.5808065 0.08779635
0003a0 ea 83 71 3d 66 c4 ea bd 28 4e 51 be 86 5e 27 be
       0.058963694 -0.11463241 -0.2043997 -0.16344652
0003b0 b0 00 05 3e 97 46 d4 3e 26 1b 0a be 4c dc 0f be
       0.12988544 0.41460106 -0.13486919 -0.1404888
0003c0 94 e2 a8 be 89 79 a8 3e 3b 5f 01 be ce 59 c4 3e
       -0.32985365 0.32905224 -0.12633984 0.38349766
0003d0 11 72 7f bd 03 a7 71 be fe fe 24 bf 83 f5 41 be
       -0.06236464 -0.23598866 -0.6445159 -0.18941312
0003e0 e8 2b ae be 92 8c 0d be 2c 19 10 be 47 e8 87 3d
       -0.34017873 -0.13823155 -0.14072102 0.066361
0003f0 83 1f 82 3c b8 28 38 3e 2e 8d 7a 3d 5a b0 3c 3e
       0.015884167 0.17984283 0.061169796 0.18426648

bias f4 [64]
000000 33 66 31 3d d3 cd 24 be da c6 13 be bb 5d af bd
       0.043310355 -0.1609414 -0.14431325 -0.085627995
000010 48 3e 57 3e e6 53 b2 bd 20 40 9b bc ae b5 ed 3b
       0.21019852 -0.087074086 -0.018951476 0.007254324
000020 47 fc fd bb b4 2d 2a 3e bb 7a 7d bd f5 56 53 be
       -0.007751021 0.16618997 -0.061884623 -0.2063864
000030 7a 7d 45 3e 7a 13 95 be 4d 0d e9 bd fe 4f d8 bd
       0.19286147 -0.29116422 -0.1137949 -0.10562132
000040 a5 f3 11 be 7f 77 78 be e5 95 a7 3c 0c fc 80 be
       -0.142531 -0.24264334 0.020457217 -0.25192297
000050 7b bf ec 3d ad df 22 be 60 9b 1c be ef eb 42 be
       0.115599595 -0.15905638 -0.15293646 -0.19035314
000060 a1 10 16 3e 0c 36 60 3e 80 39 d8 3b 13 c9 d1 bd
       0.14654781 0.21895617 0.0065986514 -0.1024343
000070 29 cd a8 3e 47 c9 1e be d4 c9 98 be 00 18 c9 bd
       0.32969025 -0.15506469 -0.29841483 -0.09819031
000080 ca 28 9c 3d d8 6e 83 be c6 f4 8e 3d 4c fa 70 bd
       0.076249674 -0.25670505 0.069802806 -0.05883245
000090 8b 06 de 3d b3 80 21 3e 58 e9 ff 3c 9e 48 cf bd
       0.10841092 0.15771751 0.031239197 -0.101212725
0000a0 e5 d1 2d be a5 08 84 3e d8 72 a2 bd 4a d2 21 3e
       -0.169746 0.25787845 -0.07932061 0.15802875
0000b0 4e b4 0e 3e be 2b 34 3e 85 e1 b8 bd 60 d5 37 3e
       0.13935968 0.17594811 -0.090273894 0.1795249
0000c0 74 5d 95 be e2 5d 75 3e ab 75 e6 bc 6e ad 2b be
       -0.29172862 0.23961595 -0.02813228 -0.16765377
0000d0 72 a9 dd bd b0 08 22 be 0e 6b a3 3d 28 04 ab 3c
       -0.10823335 -0.15823627 0.079794034 0.020876005
0000e0 6e 99 1d 3e 9e 83 1d bc da e6 42 be cb 19 54 3e
       0.1539056 -0.0096138995 -0.19033375 0.20712964
0000f0 8b e0 54 3d 8b 4b c7 3c d8 da 42 bd 49 fe 94 3e
       0.051971953 0.024328014 -0.047571987 0.29100254

weight f4 [64, 64]
000000 e9 1c 42 3c a1 1e d5 3d 4a 52 ee 3c 5b c7 9b 3d
       0.011847713 0.104062326 0.029091973 0.076063834
000010 ff 21 b0 bd 46 8c 46 3e f2 ba 28 be b0 cf 62 bd
       -0.08600234 0.19389448 -0.16477564 -0.055373847
000020 6a a6 27 bd 5b 7c ed 3d bf 61 3f bd e2 d5 47 3d
       -0.04093019 0.115959845 -0.046724077 0.04878796
000030 18 2c b1 3d e1 6c f8 bd f0 25 82 3d d1 b9 20 3e
       0.08650988 -0.12130142 0.06354892 0.15695883
000040 57 3e e8 bd e4 a0 76 bd b7 34 9b bd 84 56 b5 bd
       -0.113400154 -0.06021203 -0.07578414 -0.08854392
000050 0d e6 0f be 9c ba da bc 69 cc 10 3e 9e d6 df bd
       -0.14052601 -0.02670031 0.14140476 -0.10929607
000060 7b 0a 2d bd 13 32 ea 3d 05 e2 59 bd d1 4b 0c be
       -0.042246323 0.11435332 -0.053194065 -0.13700797
000070 90 1a fd bd f0 07 98 bd 7c 0d 11 be f2 9b 9c 3d
       -0.12358582 -0.07423389 -0.141653 0.07646932
000080 2a 2c bf 3b 0f d4 ab bd 64 8a b5 bd 72 5b c8 bb
       0.005834122 -0.08390056 -0.088642865 -0.0061144168
000090 8e 4d 5d 3c 9c ea e4 ba 86 d9 45 3d b0 3a a5 3d
       0.01350726 -0.0017464939 0.04830315 0.080678344
0000a0 72 91 e4 3c ff 1f 74 3d 3c a2 81 3d 01 48 b1 bb
       0.027901385 0.059600826 0.06329772 -0.005410195
0000b0 42 c2 64 be 85 a2 2d 3d 53 40 3f bd f0 d7 12 bd
       -0.22339728 0.04239132 -0.046692204 -0.035850465
0000c0 9d 94 3e bd b5 40 ff bd 8f 09 7f 3d 7d 16 13 be
       -0.046528447 -0.12463514 0.062264975 -0.14364047
0000d0 14 82 cc bb 5e 9b c2 3d 52 7f c3 3b 33 ec ff 3d
       -0.0062410925 0.0950229 0.0059661055 0.12496223
0000e0 9e ab 0b bc b7 61 bc bd 07 f7 d9 bd 2b e2 5b bd
       -0.008524803 -0.09198325 -0.1064282 -0.053682487
0000f0 c8 e4 e1 bb 79 b3 41 3e 12 59 81 3c d8 6f f6 3d
       -0.006893728 0.1891612 0.015789542 0.12033051
000100 f8 97 26 bd 35 c2 0e bd 47 31 52 3d 29 31 d9 bd
       -0.040672272 -0.03485318 0.051316526 -0.1060508
000110 94 52 0e 3c 31 8c 2c bd bc 4a c3 3d 2b 02 ce bc
       0.00868668 -0.042125884 0.09535739 -0.025147518
000120 b9 09 06 be 95 f2 67 3d 90 2f 16 3d 0f f2 cd bd
       -0.13089646 0.05662783 0.036666453 -0.10055935
000130 39 0e 97 3d 0f b5 a8 3d a4 bd c1 bc dc 86 25 be
       0.0737576 0.08237659 -0.023649998 -0.16164726
000140 64 15 97 bd f4 23 cb ba ad 51 a1 3d b7 c9 d7 bd
       -0.07377127 -0.0015498386 0.078769065 -0.10536521
000150 d6 f7 c9 bd fe 8d 2a 3c af 20 94 bd b4 6a b8 bd
       -0.09861724 0.01040983 -0.072327964 -0.09004727
000160 51 76 99 bd 9c 28 66 3d 76 7a ad 3d 6f b3 a0 bd
       -0.0749327 0.056191072 0.08470623 -0.07846724
000170 82 e4 96 bd b0 0c c9 bd e8 ab 24 bd 2d 78 5f 3d
       -0.07367803 -0.09816873 -0.040203005 0.054557968
000180 5f a5 2f bd 17 27 b2 3d a2 0d ea 3c f9 19 65 bd
       -0.04288232 0.08698862 0.028570954 -0.055932973
000190 75 f7 5d 3d 7c 9b 15 be 21 5e f4 bd 78 d0 80 bd
       0.05419107 -0.14610094 -0.11932016 -0.06289762
0001a0 34 2f cb bc 11 fc 6e 3c 53 39 20 bd 1b 25 c4 3d
       -0.024802782 0.0145864645 -0.03911717 0.0957739
0001b0 d0 28 11 3e 69 a6 59 3d 13 ea e4 bd 09 b2 dd 3d
       0.14175725 0.053137217 -0.111774586 0.10824973
0001c0 d8 d9 8a bd 40 29 13 3e 96 9e 0e 3e b3 6b ac 3d
       -0.06779832 0.14371204 0.13927683 0.084189795
0001d0 4c 44 9a bd 58 e7 65 3d fd 2d 79 3d 83 e7 ce bd
       -0.07532558 0.05612883 0.060834873 -0.10102751
0001e0 f6 a7 7f 3d 14 67 b4 3c 70 29 56 3b bb e1 dd bd
       0.06241604 0.022021808 0.0032678507 -0.1083407
0001f0 9e 54 c5 3d 0c c2 e9 bd 2f 11 4e 3d 8e 1a a6 bc
       0.0963528 -0.11413965 0.050309356 -0.020276334
000200 74 1c 3d bd 71 4b 05 3e a2 5f ed bc 48 57 30 bd
       -0.046169713 0.1301706 -0.028976265 -0.043051988
000210 9b e6 0c 3d c4 24 85 3d 26 7d 58 3c 47 77 04 be
       0.03439961 0.06501153 0.013213431 -0.12936126
000220 68 24 96 bd a0 3d cb bd c2 cb 89 3d 59 5e e9 3d
       -0.07331163 -0.099238634 0.06728317 0.113949485
000230 ae af 94 3d c3 92 b6 3d ea 31 a8 bd 8c ca 2b 3e
       0.07260071 0.08914711 -0.08212645 0.16776484
000240 bb 81 9a 3d d7 80 2b 3e 8d a9 cc 3c 79 bf e4 3c
       0.075442754 0.16748367 0.024983192 0.027923333
000250 32 ab 38 3d 91 37 94 3d f1 d6 0c 3e ec ad c0 3d
       0.04508514 0.07237161 0.13753869 0.09408173
000260 6b 18 d9 3d 69 aa ba bc 05 af fc bd 0e 38 e4 bc
       0.106003605 -0.022786336 -0.1233807 -0.02785876
000270 e1 07 12 be b9 71 dc bd e3 40 a5 3d 2f 16 6a 3d
       -0.14260818 -0.107638784 0.08069017 0.057150062
000280 d3 1f d9 bd f6 67 ba bd 8d b6 b9 3b b2 74 15 3d
       -0.10601773 -0.0910186 0.0056675137 0.036488242
000290 e5 04 1c bc 55 a7 e9 bc 9b f0 13 bc 56 17 89 3d
       -0.009522651 -0.028522173 -0.009029533 0.06693904
0002a0 01 0c 67 3d 34 5b 98 3d 74 67 9d 39 79 d6 be bc
       0.056407932 0.074392706 0.00030022452 -0.023295628
0002b0 3d 4e 4d bc 74 a1 ca 3d a4 d2 d8 bd f6 b0 95 39
       -0.0125308605 0.09894076 -0.105870515 0.0002855134
0002c0 91 85 99 3d 2d e7 48 be f3 88 ae 3d b2 b0 2a 3e
       0.07496179 -0.19619437 0.08522215 0.16668966
0002d0 d2 bc 17 bd 88 20 85 3d fc bc b4 3d f1 b5 c0 3c
       -0.037045307 0.065003455 0.088251084 0.023524256
0002e0 1c b1 ec bd 8b 04 f9 3d 2c 7a 99 3d ba 54 43 bd
       -0.115572184 0.1215907 0.074940056 -0.047688223
0002f0 4c 41 6f 3c 9f 7a ca bd 5c 14 93 bc dd c8 bf bd
       0.01460297 -0.09886669 -0.017954044 -0.093644835
000300 e9 1a cf 3d e3 cf 71 3c f6 46 f4 3d 4a e9 b0 bc
       0.101125546 0.014759037 0.11927597 -0.021595616
000310 24 c2 40 be 18 aa db bc 8e 8e 79 3d b3 be 31 3e
       -0.18824059 -0.026814505 0.060926966 0.17357902
000320 38 66 53 bd 97 7b 07 bd e6 00 4a 3e 20 9c 25 be
       -0.051611155 -0.03307685 0.19726905 -0.16172838
000330 bc 5a b1 3d fa 66 73 bd c9 11 b3 bd 2e 93 46 3d
       0.08659884 -0.059424378 -0.087436266 0.048480205
000340 5f ce 84 3c 39 f2 94 3d 00 e5 4b 3d e4 8f 4d 3d
       0.016211687 0.07272763 0.04977894 0.050186053
000350 7b e7 3b bd 06 2b 18 3d 5d 23 52 bc 1f e5 bc 3c
       -0.045875054 0.037150405 -0.012825814 0.023058472
000360 51 8a b5 bd 3e 97 9e 3b 07 3f a8 3c 3e 0c 38 be
       -0.088642724 0.004839807 0.020537866 -0.1797342
000370 40 6c 18 3e 8a 44 bc 3d b6 04 a9 3a e9 30 d2 bd
       0.14885044 0.0919276 0.0012895081 -0.10263235
000380 b7 54 07 3e ca 76 d1 39 dd 7b 42 38 ec 6a cd 3c
       0.1321591 0.0003995209 4.636856e-05 0.025075398
000390 82 7f 5a 3d 3c d7 15 3d bd 20 22 bd a2 51 04 3e
       0.053344257 0.036582217 -0.039582003 0.12921765
0003a0 54 af d7 3d 88 0f 92 bb 20 14 62 be 9f 05 de bc
       0.10531488 -0.004457418 -0.2207799 -0.02710229
0003b0 69 b3 18 3e d8 df a4 3d cc 23 8b 3d 4e 8e ad bd
       0.1491219 0.08050507 0.06793937 -0.08474408
0003c0 71 66 05 3d e6 37 a5 3d 62 94 da 3c cd d3 1c bd
       0.0325684 0.080673024 0.026682083 -0.038287926
0003d0 77 2c ed bd bc db d3 3c 09 f8 47 bd 84 ba 70 3d
       -0.115807466 0.025861613 -0.04882053 0.058771625
0003e0 f1 f3 ab 3d de 22 07 bc 26 e7 4e 3b ed 07 b4 3d
       0.083961375 -0.008248059 0.003157088 0.08790574
0003f0 93 81 fd bd f7 83 1a be 28 8b 20 3d 0c 24 46 3e
       -0.1237823 -0.15089403 0.03919521 0.19349688

bias f4 [64]
000000 58 4a df bd 63 32 af 3d 09 ac c4 bd eb f9 8f bd
       -0.10902852 0.085545324 -0.096031256 -0.0703009
000010 fb 95 b3 bd d9 5a 85 3d 97 24 80 bd 08 a8 ee 3d
       -0.08768841 0.065114684 -0.06256979 0.11653143
000020 cc 13 f4 3d df 32 7a bc 63 40 5d bd 4e 27 02 be
       0.119178385 -0.015270918 -0.054016482 -0.12710306
000030 ac 17 d9 3d 12 02 1a 3d e7 41 91 3c 0e c4 7a 3d
       0.10600218 0.03759963 0.01773162 0.06122213
000040 ab 92 e1 bd 2e 8e c2 bd 8b 67 e8 bc 2a 3d 03 3d
       -0.11014303 -0.09499775 -0.028369686 0.032040752
000050 51 e3 1b bc e2 35 14 3d c9 c0 1c bd 0b f2 07 3a
       -0.009514646 0.0361842 -0.03826979 0.00051859085
000060 1d 6c b3 3d a2 90 9c bd 70 46 2e bd 95 df 23 3c
       0.08760855 -0.07644774 -0.042547643 0.010002037
000070 70 c8 38 3d 77 03 07 3d 92 93 da bd b7 35 cc 3d
       0.045113027 0.03296229 -0.10672678 0.09971183
000080 45 d8 5d bd 13 28 15 bd 32 45 4b bd fc 69 56 3d
       -0.05416133 -0.03641517 -0.049626537 0.05234717
000090 eb bc 32 3d 52 5d d5 3c 3d 87 01 3d bf fb cd bd
       0.043637197 0.026045475 0.031623114 -0.100577824
0000a0 f9 8c 93 bd e3 6b c8 3d e2 94 a5 3d ab 2e d3 bc
       -0.07204623 0.09786203 0.08085038 -0.025779089
0000b0 de c3 07 bd b8 86 95 3c e4 ce d3 bd 73 82 0b be
       -0.033145778 0.018252715 -0.10342196 -0.13623981
0000c0 89 0e f9 bc 5f 88 a9 bd b2 de 19 bd c3 83 5f bc
       -0.030402439 -0.08277964 -0.037565894 -0.013642254
0000d0 f4 c6 c4 3a 24 ef dd bd 9d c0 af 3d 7d 15 91 3d
       0.0015012906 -0.10836628 0.0858166 0.07084177
0000e0 a6 dd f2 bd 6f 21 a2 3d 4f de 18 3d bf 77 86 3d
       -0.11858682 0.07916533 0.037321385 0.065658085
0000f0 6d 50 b3 3c 88 fc 4c 3d 42 a4 f5 3c 91 b1 05 bd
       0.021888936 0.05004552 0.02998555 -0.032640044

weight f4 [64, 64]
000000 12 39 da 3d 94 1d 3b bb bc db db bd 5c 8b b0 3d
       0.106554165 -0.0028551565 -0.107352704 0.08620331
000010 0e d7 54 3c ac 50 6a 3d d8 d5 4d be bd 43 08 3e
       0.012990726 0.05720584 -0.20101106 0.1330709
000020 c0 39 b5 bd a7 54 10 be ff f8 b5 3e 16 cb 31 3e
       -0.088489056 -0.14094792 0.3554153 0.17362627
000030 57 7e 22 3e 28 b9 20 3c 5e ef 02 bd 38 d2 d7 3b
       0.15868507 0.00980977 -0.03196656 0.0065863393
000040 41 8d ef bd f3 ce 8e 3e d6 c7 1e 3e 17 7b ba 3b
       -0.11696864 0.27892265 0.15505919 0.005690943
000050 6d 43 8f 3c e4 5e 5d bd e4 81 bd bd b9 84 ac 3e
       0.017488206 -0.054045573 -0.0925329 0.3369501
000060 f7 c8 80 3d 43 32 81 3d 15 df 77 be 5b 93 25 3d
       0.06288331 0.06308415 -0.24206193 0.040423732
000070 fe 5b 5b 3d 08 af 9d bc b7 23 5f 3e 31 a4 e6 3d
       0.053554527 -0.0192485 0.21790968 0.11261786
000080 c6 95 c4 3d 90 b5 1c bd 38 91 73 bb 20 94 8c 3d
       0.095988795 -0.03825909 -0.0037165415 0.0686419
000090 cf 4f 9c bd 0d 06 3e 3e 39 3e 6b 3c ae cc 4c bc
       -0.0763241 0.18556996 0.014358097 -0.012499971
0000a0 7d 6b 8a bd af 09 a2 bd 9f 3b 41 3e a1 a0 b6 bc
       -0.06758783 -0.07912003 0.188704 -0.02229339
0000b0 36 16 07 3d a6 4d c1 bd 5a 14 26 3e ec bd ac bc
       0.032980166 -0.094386384 0.16218701 -0.021086656
0000c0 a8 00 84 3e 17 55 56 be f4 b5 aa bd fe 79 03 3e
       0.2578175 -0.20930897 -0.08335486 0.12839505
0000d0 06 61 79 bc ed a8 da 3d f0 d5 70 3d d4 67 d6 bd
       -0.015220886 0.10676751 0.058797777 -0.104690224
0000e0 ba 41 23 3d d7 c7 8b bc 8f fe 3c 3e fb 44 d5 3d
       0.039857604 -0.017063065 0.18456481 0.104135476
0000f0 97 43 40 bd e3 6a 04 be e1 23 91 be 1f 42 e3 bd
       -0.04693946 -0.12931399 -0.28347686 -0.11096596
000100 2a 51 2a bd f6 94 6c bc d1 3c 8a bd 24 a4 aa bd
       -0.04158131 -0.014439812 -0.06749881 -0.083320886
000110 8d 26 0f 3d e2 28 6a 3d 41 82 12 be c7 5e 7a 3d
       0.034948874 0.057167895 -0.143075 0.061125543
000120 71 6a bc 3d fe 95 f1 bd 1d b3 40 be 84 7a f6 bd
       0.091999896 -0.11796187 -0.18818326 -0.12035087
000130 49 a0 90 bc 2b e9 ce bd 65 8a f7 3d 98 a0 22 3d
       -0.017654555 -0.10103067 0.120869435 0.039703935
000140 bd ba 6d bd f4 76 3f 3c e0 e8 5a 3d 80 61 60 bd
       -0.058039416 0.0116860755 0.053444743 -0.054780483
000150 1f 13 86 3d 23 b0 95 3c 60 88 11 be da e5 77 be
       0.06546616 0.018272465 -0.14212179 -0.24208775
000160 62 94 f7 bc 73 ef 03 be 5e 67 0e 3e 77 81 cf 3d
       -0.030222122 -0.12884311 0.13906619 0.10132115
000170 f4 6e ec 3d b6 33 77 3d 63 3f fe 3b 38 82 2e bd
       0.115446 0.06035205 0.007759021 -0.042604655
000180 a4 d1 73 3d e1 f2 7e bd 22 87 5b 3d cf ac e8 3d
       0.0595261 -0.062243346 0.05359567 0.113610856
000190 51 20 11 bd 3a 7b 25 3d 76 ea 01 be 53 5c 9e 3d
       -0.03543121 0.04040072 -0.12687096 0.07732453
0001a0 e4 66 fc bc 8d 5f 2c bd 80 fe cd bc 26 cc e7 3c
       -0.03081078 -0.04208331 -0.02514577 0.028295588
0001b0 6e 9b cb bd 5e 2f 2a 3d 8e f8 0d bd 9d 53 45 3d
       -0.09941755 0.04154908 -0.03466087 0.048175443
0001c0 88 2b 93 3d 11 5b c0 3d d3 57 94 3c 83 7f 16 be
       0.07186037 0.093923695 0.018108284 -0.1469708
0001d0 60 e8 99 3c e1 ac 9c bd 6a 6f 8f bc 04 94 98 3d
       0.018787563 -0.076501615 -0.017509181 0.07450107
0001e0 4a 07 c7 bd 32 65 89 3c a0 d3 17 be 7f a5 f9 3c
       -0.09718187 0.016771886 -0.14826822 0.030474422
0001f0 06 ef 16 3d 1e 01 0b 3e 95 91 78 bd 2c 8f 6b 3d
       0.036849044 0.13574645 -0.060685713 0.057509586
000200 d1 86 c4 bd 9e a1 37 bc fb 7c 21 3e b2 b2 d9 bd
       -0.09596027 -0.011207966 0.15770333 -0.106297866
000210 dd da 1e be d4 a7 a7 3b 9d 6f 19 3d 2d 0b 9e 3c
       -0.15513177 0.005116442 0.03745996 0.019292438
000220 c2 4a 12 be 94 08 ce 3c d3 38 19 3e bf 08 b1 3d
       -0.1428633 0.025150575 0.14963083 0.08644246
000230 61 87 81 3c be 01 39 be 7f a5 b5 3d ad 34 f9 bd
       0.015811624 -0.18067071 0.088694565 -0.1216825
000240 ec 74 5b bc e2 18 26 ba 24 25 15 bd 55 32 c0 3d
       -0.013394576 -0.0006336105 -0.036412373 0.093846
000250 50 48 6b 3d e5 80 1c 3e aa 5f 8f bd 13 75 39 38
       0.05744201 0.15283544 -0.07000668 4.421647e-05
000260 86 f5 e5 bd 95 16 aa 3c 57 ed 05 3d 1f de ff 3d
       -0.112284705 0.020762721 0.032697048 0.12493538
000270 bb ca 05 3e dd 41 fc 3d 70 c2 33 3e 1d e7 bb bc
       0.13065617 0.1231725 0.17554641 -0.022937352
000280 dd 59 0f 3d 5f ec 4d 3d 02 a8 42 3d 6d 87 cf 3d
       0.03499781 0.05027425 0.047523506 0.10133252
000290 8b d0 84 3d 30 98 42 3e 10 ac a7 3c 18 f8 f8 bc
       0.06485089 0.19003367 0.020467788 -0.030391738
0002a0 c4 62 60 bd ce 9b c5 3d dd 79 00 3d e4 20 11 3d
       -0.05478169 0.09648858 0.031366218 0.035431758
0002b0 d4 d3 d7 bd 38 98 b4 bd cf 3d af 3d 4f 75 61 3d
       -0.1053845 -0.08818096 0.08556711 0.055043515
0002c0 95 be 99 3d c3 54 b5 3d 86 70 a3 bd 52 d3 d3 3d
       0.07507054 0.08854058 -0.079804465 0.103430405
0002d0 e9 d0 58 bd 13 0f ca bd 12 46 0a be 37 88 fd bc
       -0.052933607 -0.098661564 -0.13503292 -0.030948741
0002e0 c4 95 20 bd 68 b0 f8 3d d7 61 b3 bc d6 75 07 be
       -0.039205328 0.12143022 -0.02189724 -0.13228545
0002f0 0d e9 1e be 4d cf 92 3d 9b 29 db bd 84 90 fa bd
       -0.1551859 0.07168446 -0.10701295 -0.122345954
000300 10 78 2a 3d 61 33 e1 bb 53 d2 5c 3e 8b 66 4a 3d
       0.041618407 -0.00687258 0.21564607 0.0494142
000310 6d 6c f4 3d 47 05 c4 3d d7 2b 0d bd 62 ce ef bd
       0.11934743 0.09571319 -0.034465637 -0.11709286
000320 b2 23 27 3e da 19 02 3e 9e 27 46 3d 1f 3b 46 bd
       0.1632221 0.12705174 0.048377626 -0.048396226
000330 27 47 eb bd f1 90 ca 3d 67 21 d3 bd 08 b5 0f 3e
       -0.114881806 0.09890927 -0.10309105 0.14033902
000340 8a f0 54 3e 21 00 37 3d 9c 6a 5d bd 0c f9 bc 3d
       0.20794883 0.044677857 -0.05405675 0.092271894
000350 03 39 a8 3d dd c6 48 be 00 7b a5 3d 31 a4 83 3e
       0.08213999 -0.1960711 0.08080101 0.25711206
000360 00 24 5e bb 4f c4 ac 3c aa 5d 2b bd b3 84 20 be
       -0.003389597 0.021089701 -0.041837372 -0.1567562
000370 83 b7 a9 3b 19 9f dd bb 1a ce 46 3d 06 b3 90 3d
       0.005179347 -0.0067633507 0.048536398 0.07065396
000380 ff 4e 99 bd d5 2f ad bd f4 a3 1f 3e 04 4a e0 3c
       -0.074857704 -0.08456389 0.15589887 0.027379043
000390 89 e7 13 be 84 44 10 3e 41 7d 14 3d bf 84 14 bd
       -0.14443792 0.14088637 0.036252264 -0.03625941
0003a0 8f 81 47 be a1 d1 a9 bd ae 7d e2 3c 8a a4 c6 3d
       -0.19483016 -0.08291937 0.02764782 0.09699352
0003b0 72 31 e4 3d 53 8a b6 bd f6 27 fb bd 8d da a4 3c
       0.111422434 -0.08913102 -0.12263481 0.020123744
0003c0 7c c0 b8 3d 12 53 34 bb 5b e9 0e be 53 62 d1 3d
       0.090210885 -0.0027515334 -0.13956206 0.10223832
0003d0 c7 01 d2 3d 1f 2b 70 3d 46 89 46 3e 5a e4 9e 3d
       0.10254245 0.058634873 0.19388303 0.07758398
0003e0 74 28 96 3c 33 6f f9 bc ff 1e 73 3e 1b ac ef 3d
       0.018329836 -0.030448532 0.23742293 0.117027484
0003f0 f0 01 1d 3d 3d 21 7d 3d af 88 4b be 8c 5c 8b be
       0.038331926 0.061799277 -0.1987636 -0.27219045

bias f4 [64]
000000 86 40 e6 bc fa b1 01 bd 63 83 ca bd 3c 1a ed bd
       -0.028106939 -0.031663872 -0.09888341 -0.115772694
000010 ec de 8f 3d 2f 9c 35 bd 1b 90 45 3c c0 84 ce 3a
       0.07024941 -0.0443384 0.012058283 0.0015756115
000020 c0 5d 86 3d 79 be bc 3d 78 a3 0c be 89 8a aa 3d
       0.0656085 0.09216017 -0.13734233 0.08327205
000030 73 67 b8 3d ab 62 9d bd 2e 23 99 bc c5 ee e1 bd
       0.090041064 -0.07684835 -0.018693533 -0.1103187
000040 41 65 47 bc cb 4a d4 3d c1 f4 a9 bd b0 f1 99 3c
       -0.012170137 0.10365828 -0.08298636 0.018792003
000050 9e c5 26 3d a5 8b bc 3d ef 39 49 bc 7d 75 a0 3d
       0.040715806 0.092063226 -0.012281879 0.07834909
000060 cc 9f b8 bd 54 dc a3 bc b4 36 1d be f2 39 c8 3d
       -0.09014854 -0.020002522 -0.15352899 0.09776677
000070 9e 1d 04 3d 78 41 3a bc f1 b3 b4 bd 80 a9 fa bc
       0.032254808 -0.011368148 -0.088233836 -0.030598402
000080 e0 01 00 be 6a 82 d8 3d 4c 37 d3 3d a8 6e 67 3d
       -0.12500715 0.105717495 0.103132814 0.056502014
000090 c1 4c 88 3d 60 b9 59 3d 64 a3 07 3d c0 94 cf 3d
       0.06655265 0.053155303 0.033114806 0.10135794
0000a0 a6 f3 9c 3d 26 ae 42 bd 81 48 7a bd 1c 4c 69 3d
       0.0766366 -0.047529362 -0.0611043 0.05695735
0000b0 67 92 51 bc 0e 01 27 3b 7a 2b b8 3c 44 fe 2a 3d
       -0.012791253 0.0025482806 0.022481669 0.041746393
0000c0 97 d9 99 3c 11 53 04 3e 92 59 a9 bd c4 7a c0 bd
       0.018780513 0.12922312 -0.08269037 -0.09398416
0000d0 7b 57 cc 3b 30 0c 03 3c f3 ea 99 3c 7f d0 24 3d
       0.0062360144 0.007998511 0.01878879 0.0402379
0000e0 10 1b d7 bc a3 6a 4c bd 56 5c 0e 3d d0 35 a4 3d
       -0.026258022 -0.049906384 0.034756027 0.080180764
0000f0 d5 35 02 3e 04 94 8e bd cf a5 18 3d f7 20 22 bd
       0.12715848 -0.069618255 0.037267502 -0.03958222
