result_norm/AIDS700nef/N2Gim/sum_none_pGinFalse_woNodeattFalse_woGraphattFalse/minvaild_0.pt (torch, 268254 bytes, 36 tensors)

weight f4 [64, 64]
00000000: 0000 0000 0000 0000 0000 0000 0000 0000
00000010: 0000 0000 0000 0000 0000 0000 0000 0000
00000020: 0000 0000 0000 0000 0000 0000 0000 0000
00000030: 0000 0000 0000 0000 0000 0000 0000 0000
00000040: 0000 0000 0000 0000 0000 0000 0000 0000
00000050: 0000 0000 0000 0000 0000 0000 0000 0000
00000060: 0000 0000 0000 0000 0000 0000 0000 0000
00000070: 0000 0000 0000 0000 0000 0000 0000 0000
00000080: 0000 0000 0000 0000 0000 0000 0000 0000
00000090: 0000 0000 0000 0000 0000 0000 0000 0000
000000a0: 0000 0000 0000 0000 0000 0000 0000 0000
000000b0: 0000 0000 0000 0000 0000 0000 0000 0000
000000c0: 0000 0000 0000 0000 0000 0000 0000 0000
000000d0: 0000 0000 0000 0000 0000 0000 0000 0000
000000e0: 0000 0000 0000 0000 0000 0000 0000 0000
000000f0: 0000 0000 0000 0000 0000 0000 0000 0000
00000100: 0000 0000 0000 0000 0000 0000 0000 0000
00000110: 0000 0000 0000 0000 0000 0000 0000 0000
00000120: 0000 0000 0000 0000 0000 0000 0000 0000
00000130: 0000 0000 0000 0000 0000 0000 0000 0000
00000140: 0000 0000 0000 0000 0000 0000 0000 0000
00000150: 0000 0000 0000 0000 0000 0000 0000 0000
00000160: 0000 0000 0000 0000 0000 0000 0000 0000
00000170: 0000 0000 0000 0000 0000 0000 0000 0000
00000180: 0000 0000 0000 0000 0000 0000 0000 0000
00000190: 0000 0000 0000 0000 0000 0000 0000 0000
000001a0: 0000 0000 0000 0000 0000 0000 0000 0000
000001b0: 0000 0000 0000 0000 0000 0000 0000 0000
000001c0: 0000 0000 0000 0000 0000 0000 0000 0000
000001d0: 0000 0000 0000 0000 0000 0000 0000 0000
000001e0: 0000 0000 0000 0000 0000 0000 0000 0000
000001f0: 0000 0000 0000 0000 0000 0000 0000 0000
00000200: 0000 0000 0000 0000 0000 0000 0000 0000
00000210: 0000 0000 0000 0000 0000 0000 0000 0000
00000220: 0000 0000 0000 0000 0000 0000 0000 0000
00000230: 0000 0000 0000 0000 0000 0000 0000 0000
00000240: 0000 0000 0000 0000 0000 0000 0000 0000
00000250: 0000 0000 0000 0000 0000 0000 0000 0000
00000260: 0000 0000 0000 0000 0000 0000 0000 0000
00000270: 0000 0000 0000 0000 0000 0000 0000 0000
00000280: 0000 0000 0000 0000 0000 0000 0000 0000
00000290: 0000 0000 0000 0000 0000 0000 0000 0000
000002a0: 0000 0000 0000 0000 0000 0000 0000 0000
000002b0: 0000 0000 0000 0000 0000 0000 0000 0000
000002c0: 0000 0000 0000 0000 0000 0000 0000 0000
000002d0: 0000 0000 0000 0000 0000 0000 0000 0000
000002e0: 0000 0000 0000 0000 0000 0000 0000 0000
000002f0: 0000 0000 0000 0000 0000 0000 0000 0000
00000300: 0000 0000 0000 0000 0000 0000 0000 0000
00000310: 0000 0000 0000 0000 0000 0000 0000 0000
00000320: 0000 0000 0000 0000 0000 0000 0000 0000
00000330: 0000 0000 0000 0000 0000 0000 0000 0000
00000340: 0000 0000 0000 0000 0000 0000 0000 0000
00000350: 0000 0000 0000 0000 0000 0000 0000 0000
00000360: 0000 0000 0000 0000 0000 0000 0000 0000
00000370: 0000 0000 0000 0000 0000 0000 0000 0000
00000380: 0000 0000 0000 0000 0000 0000 0000 0000
00000390: 0000 0000 0000 0000 0000 0000 0000 0000
000003a0: 0000 0000 0000 0000 0000 0000 0000 0000
000003b0: 0000 0000 0000 0000 0000 0000 0000 0000
000003c0: 0000 0000 0000 0000 0000 0000 0000 0000
000003d0: 0000 0000 0000 0000 0000 0000 0000 0000
000003e0: 0000 0000 0000 0000 0000 0000 0000 0000
000003f0: 0000 0000 0000 0000 0000 0000 0000 0000
0.0 0.0 0.0 0.0 0.0 0.0 0.0 0.0
0.0 0.0 0.0 0.0 0.0 0.0 0.0 0.0
0.0 0.0 0.0 0.0 0.0 0.0 0.0 0.0
0.0 0.0 0.0 0.0 0.0 0.0 0.0 0.0
0.0 0.0 0.0 0.0 0.0 0.0 0.0 0.0
0.0 0.0 0.0 0.0 0.0 0.0 0.0 0.0
0.0 0.0 0.0 0.0 0.0 0.0 0.0 0.0
0.0 0.0 0.0 0.0 0.0 0.0 0.0 0.0
0.0 0.0 0.0 0.0 0.0 0.0 0.0 0.0
0.0 0.0 0.0 0.0 0.0 0.0 0.0 0.0
0.0 0.0 0.0 0.0 0.0 0.0 0.0 0.0
0.0 0.0 0.0 0.0 0.0 0.0 0.0 0.0
0.0 0.0 0.0 0.0 0.0 0.0 0.0 0.0
0.0 0.0 0.0 0.0 0.0 0.0 0.0 0.0
0.0 0.0 0.0 0.0 0.0 0.0 0.0 0.0
0.0 0.0 0.0 0.0 0.0 0.0 0.0 0.0
0.0 0.0 0.0 0.0 0.0 0.0 0.0 0.0
0.0 0.0 0.0 0.0 0.0 0.0 0.0 0.0
0.0 0.0 0.0 0.0 0.0 0.0 0.0 0.0
0.0 0.0 0.0 0.0 0.0 0.0 0.0 0.0
0.0 0.0 0.0 0.0 0.0 0.0 0.0 0.0
0.0 0.0 0.0 0.0 0.0 0.0 0.0 0.0
0.0 0.0 0.0 0.0 0.0 0.0 0.0 0.0
0.0 0.0 0.0 0.0 0.0 0.0 0.0 0.0
0.0 0.0 0.0 0.0 0.0 0.0 0.0 0.0
0.0 0.0 0.0 0.0 0.0 0.0 0.0 0.0
0.0 0.0 0.0 0.0 0.0 0.0 0.0 0.0
0.0 0.0 0.0 0.0 0.0 0.0 0.0 0.0
0.0 0.0 0.0 0.0 0.0 0.0 0.0 0.0
0.0 0.0 0.0 0.0 0.0 0.0 0.0 0.0
0.0 0.0 0.0 0.0 0.0 0.0 0.0 0.0
0.0 0.0 0.0 0.0 0.0 0.0 0.0 0.0

bias f4 [64, 64]
00000000: 0000 0000 0000 0000 0000 0000 0000 0000
00000010: 0000 0000 0000 0000 716c 0000 0000 0000
00000020: 0000 0000 0000 0000 0000 0000 0000 0000
00000030: 0000 0000 0000 0000 0000 0000 0000 0000
00000040: 0000 0000 0000 0000 0000 0000 0000 0000
00000050: 0000 0000 0000 0000 0000 0000 0000 0000
00000060: 0000 0000 0000 0000 0000 0000 0000 0000
00000070: 0000 0000 0000 0000 0000 0000 0000 0000
00000080: 0000 0000 0000 0000 0000 0000 0000 0000
00000090: 0000 0000 0000 0000 0000 0000 0000 0000
000000a0: 0000 0000 0000 0000 0000 0000 0000 0000
000000b0: 0000 0000 0000 0000 0000 0000 0000 0000
000000c0: 0000 0000 0000 0000 0000 0000 0000 0000
000000d0: 0000 0000 0000 0000 0000 0000 0000 0000
000000e0: 0000 0000 0000 0000 0000 0000 0000 0000
000000f0: 0000 0000 0000 0000 0000 0000 0000 0000
00000100: 0000 0000 0000 0000 0000 0000 0000 0000
00000110: 0000 0000 0000 0000 0000 0000 0000 0000
00000120: 0000 0000 0000 0000 0000 0000 0000 0000
00000130: 0000 0000 0000 0000 0000 0000 0000 0000
00000140: 0000 0000 0000 0000 0000 0000 0000 0000
00000150: 0000 0000 0000 0000 0000 0000 0000 0000
00000160: 0000 0000 0000 0000 0000 0000 0000 0000
00000170: 0000 0000 0000 0000 0000 0000 0000 0000
00000180: 0000 0000 0000 0000 0000 0000 0000 0000
00000190: 0000 0000 0000 0000 0000 0000 0000 0000
000001a0: 0000 0000 0000 0000 0000 0000 0000 0000
000001b0: 0000 0000 0000 0000 0000 0000 0000 0000
000001c0: 0000 0000 0000 0000 0000 0000 0000 0000
000001d0: 0000 0000 0000 0000 0000 0000 0000 0000
000001e0: 0000 0000 0000 0000 0000 0000 0000 0000
000001f0: 0000 0000 0000 0000 0000 0000 0000 0000
00000200: 0000 0000 0000 0000 0000 0000 0000 0000
00000210: 0000 0000 0000 0000 0000 0000 0000 0000
00000220: 0000 0000 0000 0000 0000 0000 0000 0000
00000230: 0000 0000 0000 0000 0000 0000 0000 0000
00000240: 0000 0000 0000 0000 0000 0000 0000 0000
00000250: 0000 0000 0000 0000 0000 0000 0000 0000
00000260: 0000 0000 0000 0000 0000 0000 0000 0000
00000270: 0000 0000 0000 0000 0000 0000 0000 0000
00000280: 0000 0000 0000 0000 0000 0000 0000 0000
00000290: 0000 0000 0000 0000 0000 0000 0000 0000
000002a0: 0000 0000 0000 0000 0000 0000 0000 0000
000002b0: 0000 0000 0000 0000 0000 0000 0000 0000
000002c0: 0000 0000 0000 0000 0000 0000 0000 0000
000002d0: 0000 0000 0000 0000 0000 0000 0000 0000
000002e0: 0000 0000 0000 0000 0000 0000 0000 0000
000002f0: 0000 0000 0000 0000 0000 0000 0000 0000
00000300: 0000 0000 0000 0000 0000 0000 0000 0000
00000310: 0000 0000 0000 0000 0000 0000 0000 0000
00000320: 0000 0000 0000 0000 0000 0000 0000 0000
00000330: 0000 0000 0000 0000 0000 0000 0000 0000
00000340: 0000 0000 0000 0000 0000 0000 0000 0000
00000350: 0000 0000 0000 0000 0000 0000 0000 0000
00000360: 0000 0000 0000 0000 0000 0000 0000 0000
00000370: 0000 0000 0000 0000 0000 0000 0000 0000
00000380: 0000 0000 0000 0000 0000 0000 0000 0000
00000390: 0000 0000 0000 0000 0000 0000 0000 0000
000003a0: 0000 0000 0000 0000 0000 0000 0000 0000
000003b0: 0000 0000 0000 0000 0000 0000 0000 0000
000003c0: 0000 0000 0000 0000 0000 0000 0000 0000
000003d0: 0000 0000 0000 0000 0000 0000 0000 0000
000003e0: 0000 0000 0000 0000 0000 0000 0000 0000
000003f0: 0000 0000 0000 0000 0000 0000 0000 0000
0.0 0.0 0.0 0.0 0.0 0.0 3.8901e-41 0.0
0.0 0.0 0.0 0.0 0.0 0.0 0.0 0.0
0.0 0.0 0.0 0.0 0.0 0.0 0.0 0.0
0.0 0.0 0.0 0.0 0.0 0.0 0.0 0.0
0.0 0.0 0.0 0.0 0.0 0.0 0.0 0.0
0.0 0.0 0.0 0.0 0.0 0.0 0.0 0.0
0.0 0.0 0.0 0.0 0.0 0.0 0.0 0.0
0.0 0.0 0.0 0.0 0.0 0.0 0.0 0.0
0.0 0.0 0.0 0.0 0.0 0.0 0.0 0.0
0.0 0.0 0.0 0.0 0.0 0.0 0.0 0.0
0.0 0.0 0.0 0.0 0.0 0.0 0.0 0.0
0.0 0.0 0.0 0.0 0.0 0.0 0.0 0.0
0.0 0.0 0.0 0.0 0.0 0.0 0.0 0.0
0.0 0.0 0.0 0.0 0.0 0.0 0.0 0.0
0.0 0.0 0.0 0.0 0.0 0.0 0.0 0.0
0.0 0.0 0.0 0.0 0.0 0.0 0.0 0.0
0.0 0.0 0.0 0.0 0.0 0.0 0.0 0.0
0.0 0.0 0.0 0.0 0.0 0.0 0.0 0.0
0.0 0.0 0.0 0.0 0.0 0.0 0.0 0.0
0.0 0.0 0.0 0.0 0.0 0.0 0.0 0.0
0.0 0.0 0.0 0.0 0.0 0.0 0.0 0.0
0.0 0.0 0.0 0.0 0.0 0.0 0.0 0.0
0.0 0.0 0.0 0.0 0.0 0.0 0.0 0.0
0.0 0.0 0.0 0.0 0.0 0.0 0.0 0.0
0.0 0.0 0.0 0.0 0.0 0.0 0.0 0.0
0.0 0.0 0.0 0.0 0.0 0.0 0.0 0.0
0.0 0.0 0.0 0.0 0.0 0.0 0.0 0.0
0.0 0.0 0.0 0.0 0.0 0.0 0.0 0.0
0.0 0.0 0.0 0.0 0.0 0.0 0.0 0.0
0.0 0.0 0.0 0.0 0.0 0.0 0.0 0.0
0.0 0.0 0.0 0.0 0.0 0.0 0.0 0.0
0.0 0.0 0.0 0.0 0.0 0.0 0.0 0.0

weight f4 [64, 64]
00000000: 7740 133d 8a33 583d 8c75 1c3e 39eb 0a3e
00000010: 287d 45bd 1ae2 8ebd c26d 18be 67e3 b43c
00000020: 6c84 1a3b bcd8 afbd de79 733d e6b9 00be
00000030: af3b 153d 6fd7 8d3d 918c b3bd 095c 5d3d
00000040: 6258 413d 3fb1 3b3c 2e23 653c 9b34 343e
00000050: 3c75 b7bd a0dd 103d 4d0b 833d 820a 3c3d
00000060: 1d00 a0bd 1dd1 1d3e 8b1e 0fbc 08b4 273d
00000070: d6e9 05be 134e 873d e821 a0bc cc80 a13d
00000080: a226 bd3d b60d 1b3d 5f78 043e bdb8 c33c
00000090: bd5d 2f3d 6dce 4d3e ee9f a43d 45ee 013e
000000a0: e79d 193e 8ec7 8abd e12a 463e d626 bebc
000000b0: e931 fd3d f86d e73c ae6e 0ebe d24a babc
000000c0: 38cb 17be 5918 833d ccdd 373d 2aa5 253e
000000d0: e606 1fbe 85aa a6bd 73b5 66bc 8a3d e4bc
000000e0: 697f e13d 6bc7 623d 3297 aabd 907c 383e
000000f0: 7784 ccbd 825f fc3c 625a ff3c 4505 183d
00000100: 2c37 163d f2cc cd3d 3e7d 41be 6a27 01bd
00000110: 31e7 b73d 1524 6a3c 1c38 8a3d d98f f03c
00000120: a1d4 0b3d f543 82be 7be1 143e 557c b43d
00000130: c9ce b4bc 081c e0bd 45d5 36be 8df7 08bd
00000140: 7d5e 4c3b 125a cfbd 226b 883e d9f4 1bbe
00000150: 029c 05bc 8871 1b3d cf93 f23c 9924 8cbc
00000160: 5995 94bd 7ae5 083e cbeb 87bc 8508 3cbe
00000170: 0227 0d3e 0e6e 343e 74d7 1cbd a30b bbbd
00000180: ff83 53bc 510d 9ebc d076 ed3c f91b 363e
00000190: 947a 5a3d 2f6f 693d 7d47 3dbe c51f 47be
000001a0: 7181 9f3d e4e0 b6bd 3978 48bd 7657 02be
000001b0: 23ec a2bd cb35 0a3e 6907 a2bd d149 d53c
000001c0: 729e d4bc dced 803d 7636 363d 7aa6 173e
000001d0: 6d40 1c3d bd6c 7abe 5967 b7bd 6dff 9ebd
000001e0: 79a8 c3bd 2070 c73c 2070 593d 0b96 76be
000001f0: 1a0e 5dbe b1de 42bc 704a 06bd ffba 3a3e
00000200: 0274 3bbe c932 dfbd 52ad b0bc 41bb 413e
00000210: 3567 27bd b004 3a3e 39d7 0dbd bca8 4dbb
00000220: 2aa7 bbbd 25aa 6fbd 6cf4 463e 5882 4cbc
00000230: 793c debd ce29 323e 497e f23d c78f 4fbd
00000240: 0b52 19bd c4d9 223d baf3 ecbd c5e1 12be
00000250: 53f0 b23d 67d4 d13a 39cb 1d3d febd d2bc
00000260: 728b 943d d514 303c cb9e e3bd 946e f83c
00000270: feb4 383d 979c 3e3d 6ac7 273d 8f6f d93d
00000280: 4ebe efbd 1967 513e 7d50 7d3d 1e93 373e
00000290: 703a 663d c79a a7bd c3aa 0fbd 0ed8 46bd
000002a0: 12c9 b7bd aac5 3dbe ef69 83bd a4d5 e53c
000002b0: 06dd b6bd 1308 81bd 7ac9 df3d a029 d03c
000002c0: 4e7d 8ebc 0f08 b33d a1ba 923d fdf3 4a3c
000002d0: b3c9 44bd a8b4 2fba a394 5e3e 5e79 883d
000002e0: 8f78 b33b 5c5d 68be 2b2f 1fbc 0490 9f3d
000002f0: 4b49 af3d 99d8 4abd daa5 ca3c 2ba0 f03d
00000300: 8f80 3e3c f580 4fbe 254a eabc 32c3 ffbd
00000310: 861b f3bc 6bc5 ca3d 03c0 ddbc d695 a5bd
00000320: 81bf dfbd 3277 873b e418 a43d 4f0d 493d
00000330: e714 9f3d c617 273e dc74 44bd 985d d03d
00000340: 1d13 7dbe f8e3 393d fefc 923d 86ea 6dbe
00000350: ae5c 55bd 53f3 043e 3192 81bd b2ac 333e
00000360: 31de b93d 5b87 42bd ba0c de3d 99df 183a
00000370: a58b 31bc bbe4 833d a78f fe3a 8827 093e
00000380: a441 a6bc f744 98bd 122f 823d 1c1e ce3d
00000390: f55b a53d 75b0 2dbc 969a 9abd df86 49bd
000003a0: 9f4b 043c e301 d0bd 92a6 ff3c adf3 c73d
000003b0: e0af c1bd 20db 00bd 9fc3 57bd b309 08bd
000003c0: fc99 b7bd 33c4 0fbe 5d25 be3d 345e a9bd
000003d0: e5d9 6dbd 0eed d9bd ffd5 78be 773b 303d
000003e0: b8f0 9d3d ed3c af3d c5e1 cf3d 84a8 83bd
000003f0: d51e 9ebe 57ba 07bd 5f5a 86be d871 69be
0.03595015 0.052783526 0.15279216 0.13566293 -0.04821506 -0.06976719 -0.1488562 0.02208109
0.0023577465 -0.08586261 0.059442393 -0.12570915 0.03643387 0.06925856 -0.08767045 0.05404285
0.04720343 0.011455833 0.013985438 0.17598192 -0.089579076 0.035367608 0.0639864 0.04590846
-0.078125216 0.15411802 -0.008735309 0.040943176 -0.13077483 0.06606688 -0.019547418 0.07885894
0.09235884 0.037854873 0.12936543 0.023891801 0.042814005 0.20098276 0.08038317 0.12688549
0.15001641 -0.06776343 0.19352295 -0.023211878 0.12363035 0.02825068 -0.13909408 -0.022740755
-0.14823616 0.06401128 0.044889256 0.16176286 -0.15529975 -0.08137993 -0.014081347 -0.027861375
0.1101063 0.05536596 -0.083296195 0.18016267 -0.09986203 0.03080726 0.031171028 0.0371144
0.03667371 0.10048856 -0.18895432 -0.03153173 0.08979643 0.014290829 0.06748983 0.029365467
0.034138326 -0.25442472 0.14539139 0.08812777 -0.02207126 -0.109428465 -0.17854793 -0.033439208
0.003118425 -0.101246014 0.26644236 -0.1523012 -0.008154871 0.03795007 0.029611496 -0.017107295
-0.07255048 0.13368788 -0.016591927 -0.18362625 0.13784412 0.17620108 -0.03829141 -0.09133079
-0.012909888 -0.01929346 0.028987318 0.17784108 0.053339556 0.0569908 -0.18484302 -0.19445713
0.07788361 -0.08929613 -0.04894278 -0.12728676 -0.07955196 0.13497083 -0.079115696 0.026036175
-0.025954459 0.06295368 0.04448553 0.148096 0.03814738 -0.24455543 -0.08955259 -0.07763562
-0.09553618 0.024345458 0.053085446 -0.24080674 -0.2158741 -0.011893914 -0.032785833 0.18235396
-0.18305972 -0.108983584 -0.02156702 0.18919088 -0.04086991 0.1816585 -0.03462908 -0.003138109
-0.091627434 -0.05851187 0.19429177 -0.012482248 -0.10851378 0.1739876 0.11840493 -0.050674226
-0.037431758 0.03975846 -0.11569925 -0.14343937 0.087372445 0.0016008735 0.038523886 -0.025725361
0.072531596 0.010747154 -0.11114272 0.030326165 0.045094483 0.046536054 0.04096166 0.10616981
-0.117062196 0.20449485 0.061844338 0.17927215 0.056208074 -0.08183818 -0.03507496 -0.04854589
-0.08973898 -0.18532434 -0.064166896 0.028055973 -0.089288756 -0.06300368 0.109271005 0.025410473
-0.017393734 0.087417714 0.07164503 0.012387273 -0.048043918 -0.000670264 0.21736388 0.06663774
0.005477018 -0.22691864 -0.009715836 0.07791141 0.085589014 -0.04952297 0.024737287 0.117492996
0.01162733 -0.20264037 -0.028599808 -0.124884024 -0.02967621 0.09900936 -0.027069097 -0.080852196
-0.10925198 0.0041340822 0.0801256 0.049084958 0.07767659 0.16317663 -0.04796301 0.101741016
-0.24714322 0.045383424 0.07177161 -0.23233995 -0.05209034 0.12983446 -0.06326712 0.17546347
0.09075583 -0.047492366 0.10842271 0.00058316585 -0.0108365165 0.06440111 0.0019421474 0.13393986
-0.020294972 -0.07435029 0.06356634 0.10064337 0.0807418 -0.010601153 -0.07549016 -0.04920089
0.00807467 -0.1015661 0.031207357 0.09763274 -0.094573736 -0.031458974 -0.052676793 -0.033212375
-0.08964917 -0.14039688 0.0928447 -0.08269921 -0.05806913 -0.10640918 -0.24300383 0.04302546
0.07711929 0.085565425 0.10150484 -0.06428626 -0.30882898 -0.033136692 -0.26240823 -0.22797334

bias f4 [64]
00000000: 8b76 babd 1d3b 373d 0cb0 ccbb 0285 b3bd
00000010: 388b a03c 016d bfbc 772b dd3d f65f 56bd
00000020: 3f14 26bd 3ee5 08be a58f e9bd afb6 f6bc
00000030: ff2e b2bc 3369 c2bd a969 0c3e f354 2ebd
00000040: e2dc d43d 317d 77bd a505 2c3e 96e3 28bd
00000050: b4c0 903c ca40 643c e7fa e93d 2a1d 023c
00000060: 5a1e 1e3b b5f4 1b3d a812 053e 6556 b03d
00000070: 0bf1 ef3d cbff 2d3e 6838 23bd 53a4 e73d
00000080: 3a83 dabd be8b 34bd 5157 65bd 5520 b0bd
00000090: 3f45 b03d 50fa 2c3e 3f12 abbd e125 b93d
000000a0: 08b7 183e d561 903d 40ba 22bd 6980 843d
000000b0: 76fa dabd c69b 2a3e 5a0c ba3b 4551 ac3d
000000c0: 0774 8eba be78 eb3c 3af7 89bd 49c7 e53c
000000d0: 1ebf 6d3d 6b72 003e 365d 373d 26af dd3d
000000e0: 9e23 9d3d 31f2 953d 7c70 0b3c d18d 643c
000000f0: a91b 9abc 0261 033e 2204 853e cc3c c63c
-0.091046415 0.04473411 -0.0062465724 -0.087656036 0.019597635 -0.023367407 0.10799306 -0.05233761
-0.040546652 -0.13368699 -0.11404351 -0.030116407 -0.021750925 -0.094927214 0.13712181 -0.042561483
0.103936926 -0.060422126 0.16799028 -0.041232668 0.017670013 0.013931463 0.11424809 0.007941524
0.0024126978 0.038075168 0.12995398 0.086102284 0.11715897 0.16992109 -0.039848715 0.11310639
-0.10669561 -0.04407858 -0.055991475 -0.08599917 0.08606958 0.16892362 -0.083530895 0.09040428
0.14913571 0.0704991 -0.039728403 0.06469805 -0.10692303 0.16660985 0.005677742 0.084139384
-0.0010868319 0.028744098 -0.06736608 0.028049128 0.05804359 0.12543647 0.044766627 0.108244225
0.07672809 0.07321585 0.008510705 0.013949827 -0.018812018 0.12829974 0.25979716 0.024198912

weight f4 [64, 36]
00000000: 480a 963d 0479 f73d 1980 463d 9e54 2b3d
00000010: dfcb 5abd 7479 d83d 1a9d 6a3e 22a5 9abd
00000020: 3a9b f43c 3dff b3bd fbe1 05bd 4a9b 093e
00000030: 9e59 51be 4218 383d 2adc dcbd 2e08 ad3e
00000040: f33e 05bf 3e60 4b3e 3f55 113e e322 d7be
00000050: 5fd1 fabe 4a26 a6bc f115 6abe a27c 01be
00000060: 7320 c43d 509d 87be d0b0 f13d 76cf d0bd
00000070: 581d f83d 5b92 e33d e277 b3bd a22e 0b3e
00000080: bc89 1b3d e696 46be 7e35 b63d 6a97 4cbe
00000090: a97e d4bd 6493 7cbe d13c 98bc c2b9 ec3d
000000a0: 50af 593e 4e01 a13d b74c cebd 57ee 1fbe
000000b0: edfa 103f 5d50 593e 571d 263e cfd0 283d
000000c0: c020 453e 4c59 cb3d 7da9 353b 8df6 473c
000000d0: d7f3 bc3e 9993 c03d 1619 8e3c ad51 523e
000000e0: 3778 493e 4326 963d 8052 1a3f 9675 e1bd
000000f0: 73bb b53d 9d7a 153e 6bd5 183c 2f3f 19be
00000100: f0d3 15be 4b19 77bd ddeb 2f3e 5519 67bd
00000110: 6131 b4bc 69b0 8f3d e39c debd cf83 393d
00000120: 20f2 b8bc 889a 743e ac94 c23c e0e7 15be
00000130: fad4 7e3e 873b 55be 6074 96bd 62a8 353e
00000140: 4ffc ebbe 32f2 7f3d 2014 dabd fed2 5dbd
00000150: 9ade 943d c73a d2bb 97ea 04be afe1 40be
00000160: 293e ad3d 01d6 b8be 561f ba3d 0fc1 c6bd
00000170: 32d9 f4bc 8901 31be 48a0 fabd 9b8c 9abc
00000180: cb86 073d fba0 923e b671 313d 1b9d 223d
00000190: 8600 2d3d 4350 c03d cb07 2d3e 6e12 283a
000001a0: 2f3a 65bc 59ed 153d 4650 27bd be78 ba3d
000001b0: 7e91 893d 53a0 2fbd a3b8 99bd cbe2 e9bd
000001c0: 3584 723e ab5e c7be 53d8 b83e fda3 8dbe
000001d0: 3acd 8c3e 0397 29bf c632 4bbd 1874 f3bd
000001e0: 368e 0ebe 5f30 09bd 8520 743b 4a86 263e
000001f0: bf6d 2b3e 9fad 113d 3b8c 843d 4197 08be
00000200: cddd a73d 25a0 493e 953f db3d de44 b93e
00000210: 332d 173e 41c0 7c3d 9b51 3a3d 666b 6f3d
00000220: 5e85 c5bd 90d9 27be 9b7c 4dbd 3fde 013e
00000230: 710c 5d3e cd39 d4bd a6ba 2e3d 7a0a b63e
00000240: 6f39 7c3e ad6d d33d e0b4 35be c08a 0bbe
00000250: aedd a93d 413c 4a3e ea8f eb3d 5c0c 48be
00000260: 8918 5e3e 590e c33d 4377 993d 0e9f 643e
00000270: 9b66 373e 2a07 d7bd 7efe 7d3d ea6f a9be
00000280: b991 cabc f79b 8dbe 0222 06be bac3 89bd
00000290: effc cc3e a9bc 44bc 6f61 cd3e 1d20 80bd
000002a0: 5b46 143d 9c4b 43bd 9739 28be e091 0e3e
000002b0: 6b61 713d ebda 7abd ae69 4ebe 5410 c4bd
000002c0: cb5a 013e fa30 eabd d076 46bd ccb7 11be
000002d0: 2149 df3c cb64 483d 721e 04be bba3 373e
000002e0: d0eb 1b3e 7170 4dbd 069d b93c ba85 64be
000002f0: 7f2f 583e d505 a33c 6cde 173e bf0e bd3d
00000300: bc16 9b3e 0e48 38be 1743 95bd 9a9c 87bd
00000310: 66a9 afbd 63b8 eabd 9687 f23d 77a2 c53d
00000320: 5686 583e ccea 8fbe f30e a2be 8029 6d3d
00000330: 20d1 243e 32e6 1dbe 3b3e b63d 739b a03d
00000340: 2635 7b3d 56c2 2ebd 65d5 5dbe f37d 35bd
00000350: f68a 103e 4a08 403e 03c2 08be 5253 323e
00000360: c75a 073e 4626 653e ded6 6dbe d119 a5bd
00000370: faf1 2ebb 0f53 3c3e d7f8 10be 7528 44be
00000380: 3ee3 5cbd 6276 d7be 1014 b93d 4f8f 293e
00000390: cbad bf3e df59 efbd 0064 553e 9afe 5d3e
000003a0: 3fdd 06bf 5f71 853e 033b f5bd b0f3 1d3e
000003b0: 5eb6 083e 13b0 b43e 94f1 9d3d 9614 a8be
000003c0: eb54 ea3d fd1f 6c3e a688 343d aa8f 263e
000003d0: a85b c53d 8b25 acbc 104d 1bbe ac95 66bd
000003e0: bffb c13d 4daa 8dbe ae43 f23d 8a25 edbe
000003f0: 7a18 093e 28dd 82bd fad2 763c af69 23be
0.0732618 0.12083629 0.048462007 0.041828744 -0.053417083 0.1057004 0.22911492 -0.07551028
0.029859174 -0.08788917 -0.032686215 0.13438144 -0.20444342 0.04494501 -0.107841805 0.33795303
-0.5204918 0.19860932 0.14192675 -0.42018804 -0.48987862 -0.02028193 -0.22859932 -0.126452
0.09576502 -0.26487207 0.118013024 -0.1019582 0.12114972 0.111118995 -0.087631 0.13592008
0.03797315 -0.193935 0.088969216 -0.19979635 -0.10375721 -0.246656 -0.018583687 0.11558868
0.21258283 0.07861577 -0.10073226 -0.15618263 0.5663288 0.21222062 0.1622213 0.04121476
0.19250774 0.099291414 0.002771943 0.012204778 0.36904785 0.09403152 0.017345946 0.2053897
0.19674765 0.073315166 0.60282135 -0.11008756 0.08873644 0.14597555 0.009328227 -0.14965509
-0.14631629 -0.060326856 0.17179818 -0.056420643 -0.021996202 0.070160694 -0.108697675 0.045291718
-0.022576392 0.23887074 0.023752533 -0.14639235 0.24885932 -0.20823489 -0.073464155 0.17740014
-0.46090934 0.062486835 -0.1064837 -0.054156296 0.072690204 -0.006415698 -0.12980114 -0.18836091
0.08459122 -0.36100772 0.09088008 -0.09704792 -0.029888723 -0.17285742 -0.122376025 -0.018865874
0.033087533 0.28638443 0.043321334 0.03970061 0.042236827 0.09390309 0.16897504 0.00064114376
-0.013990923 0.036603305 -0.04084804 0.09105061 0.067172036 -0.042877506 -0.0750592 -0.114202105
0.23683245 -0.38939413 0.36102542 -0.27664176 0.27500325 -0.6624605 -0.04960897 -0.118873775
-0.13921437 -0.033493396 0.0037250828 0.16262165 0.16741084 0.03556597 0.06472059 -0.13338949
0.08196602 0.19689997 0.10705487 0.36185354 0.14763336 0.061706785 0.04548798 0.058452033
-0.096445784 -0.16391587 -0.05016766 0.12682436 0.21586777 -0.10362587 0.04265847 0.35554868
0.24631284 0.10323653 -0.1774478 -0.13627148 0.08294235 0.19749548 0.11502059 -0.19535965
0.21689047 0.09524221 0.074934505 0.223263 0.17910235 -0.10499413 0.06201028 -0.33093196
-0.02472769 -0.27658054 -0.1309891 -0.06726785 0.40036723 -0.012007871 0.40113398 -0.06256125
0.03619991 -0.04767953 -0.16428219 0.13922834 0.058930796 -0.061243933 -0.20157501 -0.09573427
0.12632291 -0.11435123 -0.048453152 -0.14230269 0.02725655 0.04892425 -0.12902239 0.17933552
0.15226674 -0.05015606 0.022657882 -0.22316638 0.21111868 0.019900242 0.14830941 0.09231328
0.30290782 -0.17996237 -0.07288187 -0.06621666 -0.08577232 -0.1146095 0.11842267 0.09650128
0.21144995 -0.28108823 -0.3165203 0.057900906 0.160954 -0.15419844 0.08898588 0.078421496
0.061329983 -0.042665802 -0.21663435 -0.044309568 0.1411551 0.18753162 -0.1335526 0.17414597
0.13218223 0.22377881 -0.23226497 -0.08061565 -0.0026694522 0.1839106 -0.14157425 -0.19156058
-0.053927653 -0.42082506 0.0903703 0.16558574 0.3743728 -0.116870634 0.20838928 0.21679154
-0.52681345 0.26063058 -0.11974146 0.1542499 0.13350818 0.35290584 0.07712093 -0.32828206
0.11441978 0.23059078 0.04407563 0.16265741 0.09636623 -0.021013996 -0.15166116 -0.056295082
0.09471845 -0.27668992 0.11829315 -0.46317703 0.13388243 -0.063898385 0.015064949 -0.15958284

bias f4 [64]
00000000: 5565 1b3b f649 7bbd ef7b c7bd 0fb3 b9bd
00000010: 5922 083e 1a25 333d 8d05 9e3d c4e5 d23d
00000020: 0465 ca3d b68d 15be 649e 603c eadc 013e
00000030: bb6f e63d 154c c5bd 3109 d1bd 7c87 9e3d
00000040: e9c1 ef3c 2c20 d03d 7214 0cbe a3d6 43bc
00000050: c374 423d 8de1 43bd 310f dabd 117a ef3d
00000060: 169f 8cbd d600 1bbe 600f 82bd 98f8 b0bd
00000070: 2b6c 93bd 8ebe 17be 4cdb 603d d9c3 d03d
00000080: d7c4 a53c b373 c63d 9aea 19be 3a74 cfbd
00000090: 4dea 8e3d b5ca 993d e9e5 acbc e8a8 c63d
000000a0: bdc0 963d 323b 1bbe e36e 333d 0585 cbbd
000000b0: 448d 1bbe 01c5 9eba 1cf9 ebbc 537f 313d
000000c0: 77f8 a43c 758c b23d eae5 fe3d e796 9f3d
000000d0: 6847 6d3d 53d9 bc3d 8bc0 fb3c ee9a e0bd
000000e0: a1b2 933d a3fb 4b3b ca33 2cbe 9c94 583d
000000f0: 3493 b83d f7ef 1ebd 64dc 1b3d f2f1 a13d
0.0023711522 -0.06134983 -0.09740435 -0.09067356 0.13294353 0.043736555 0.077159025 0.102977306
0.098825485 -0.1460484 0.013709638 0.12681928 0.1125178 -0.09633652 -0.10206831 0.07740685
0.029267268 0.10162386 -0.13679674 -0.011953029 0.047474634 -0.047822524 -0.10647429 0.11693204
-0.06866281 -0.15137038 -0.06350589 -0.086411655 -0.07198366 -0.14818785 0.054896638 0.10193605
0.020235462 0.096900366 -0.150309 -0.1012959 0.06978283 0.075093664 -0.021105723 0.09700185
0.07360981 -0.151593 0.04380692 -0.09937481 -0.15190607 -0.0012113155 -0.028805308 0.043334316
0.020138009 0.08718196 0.124461964 0.07792454 0.057929426 0.09221139 0.03073146 -0.109670505
0.07211805 0.003112533 -0.16816631 0.0528761 0.09012452 -0.038803067 0.038051978 0.079074755

weight f4 [64, 64]
00000000: 4475 d23d a826 a83d 1ec8 f83d d8b3 c4bd
00000010: c678 cc3d af03 8d3d 28d4 993c f387 c83d
00000020: ae9e 81bd a470 29bd 4b78 3d3e c7b0 e8bc
00000030: 3157 8dbd fc7b d4bc 95da 823d 2938 883d
00000040: e4d4 26be 4ff3 cd3d 584d 20be 63d8 753c
00000050: ad05 373a a2a9 6c3d 7c00 963c 9699 5bbd
00000060: 181d 523d 7a5b f1bd e40d a4bd d372 da3d
00000070: ecc0 40bd 8769 10be 2d79 19bc bfb4 853d
00000080: d447 3d3d 93f3 293c ebbf 6fbd 9d74 b8bd
00000090: f853 45bc 1bb4 35bd c951 aabd 4b56 0ebe
000000a0: 2a6f e6bb a72b 93bd a28c 9e3c 6c61 123d
000000b0: bffe 113d 7769 29bd 6acc 00bd f326 cf3d
000000c0: 12ec aabd dbc9 2bbd 7ee5 313c 1c0d 87bd
000000d0: 07dc 34bd dae3 103e d350 7b3d c7ab 05be
000000e0: 8e3a b1bc ff65 59bd 0370 403d 9f7b 97bd
000000f0: 86b2 003e 9bff f13d 08b6 c63d a3e2 0dbe
00000100: 359e 103d cafc d1bb e322 153d 56b4 08be
00000110: c15a 31be f9fd 80bd d4f6 9dbd edfb 67bd
00000120: d813 d2bc 4976 d83d 32bf 2ebe b037 dabd
00000130: 5480 0f3e c2eb 19bc a7e0 10be 6194 6ebd
00000140: 8472 923c 8f30 273c 815c 9ebd 6ed3 32bd
00000150: 44bc 193d 35a9 91be 0c6b ab3d 18d7 4cbb
00000160: e3f6 f03c ba7d f73c 41a4 c03d 000d 52bc
00000170: a64e 2b3e cb99 d0bc 10ad 84bd 50c9 f83d
00000180: d495 f4bd 9b59 b2bd 6928 db3c 4712 e83d
00000190: 0e8b 893d 4bab 9a3d a240 47bc 36bb 123e
000001a0: 9e28 97bd 7304 1ebc 51ea 1a3d ba6e d9bc
000001b0: 48b5 9e3d 4c67 e23d 2193 2c3d 1072 c13d
000001c0: 4ffc c6bb 828c 7abd cb52 7ebc e85c 0f3e
000001d0: 04d1 af3b 02e7 adbc 2377 843e 99dc 073e
000001e0: 34c2 0fbc 8688 4f3e 2a0d e6bd 5e54 b0bc
000001f0: 6ed6 3c3c 668d 61bd 5937 34bd ac88 c2bc
00000200: 3ba6 f2bd 1f36 073e 330e 073d 69fe 0a3e
00000210: bb48 e7bd c249 cebd 304b d2bd 6d6a 743d
00000220: d730 14bd 085c b5bd 2237 bcbd 98af 1fbc
00000230: 7393 47bd 8d69 413c 7d5d 2bbd 8fb4 1b3e
00000240: b7c7 023d 4fd9 b13d 11f1 c73d 43e0 813d
00000250: f568 7abd b038 e0bc a9aa c83d 2e83 07be
00000260: b055 ac3b 4ab9 c73d ae24 72bc 5d8c 6c3c
00000270: fb00 dabd 005c c53c 2518 f9bd 6c5e a8bb
00000280: 9edc a13c 8d73 4a3d a575 95bd 3910 283e
00000290: e033 b7bd 4185 093d e0ab 223e 174b bf3d
000002a0: e3eb 4a3d 1fe1 f5bc 7564 983d 4f36 1a3d
000002b0: cfc4 d33d 47b7 b03d 26f1 94bd c814 93bd
000002c0: 202a 093e d982 d03d 94be 49bd 92df 9ebd
000002d0: 427f 673d 6af4 96bd d7a1 2b3d 0d92 1bbd
000002e0: 1a99 e23c 5bdd 763d 4483 a5bd eded 0fbc
000002f0: c6f2 dfbc 069a 5abe 5637 0abe dc17 0b3e
00000300: 3661 bbbd 05a7 88bd 8307 50bd 2cad d43d
00000310: 676c 8dbd cbf6 d1bc b20e 1fbd c515 24be
00000320: abfa 0dbd 5bd8 ed3c 6611 c4bd c3c2 0dbe
00000330: be8d c23d 58c1 7ebd 5140 f53d 7ea0 d93c
00000340: b6ce 69bd 900a b03c 8376 ec3d 6384 ae3d
00000350: 2eec 153d f0c4 0dbe d313 82bd fb01 1dbd
00000360: eb9d bcbd 12b9 bbbb e5a7 02be fa47 b13d
00000370: de05 433e c5f9 213e b80b 7dbd 6b29 7dbd
00000380: d583 783d 6e15 d13d 3be8 e0bd f5bd 8b3d
00000390: f37a 35be 361f 1fbd 5361 fdbc b104 85bd
000003a0: 844b 1c3d e572 903d 6360 623d d181 cabc
000003b0: 7520 353d 145f 2bbc 39a8 0abe f16b e8bd
000003c0: b0ec fe3d f0c6 32bc 71da a9bd e686 a1bd
000003d0: 14a3 4dbe 9894 0e3d 83b6 e03d 4160 d73d
000003e0: 092b c53d 2960 d63c cf7b 973d cf14 7abd
000003f0: e066 aabd 928b 6f3d f13f fabb 8856 91bb
0.10276273 0.08210498 0.12147544 -0.09604615 0.09983973 0.06885468 0.018777922 0.09791555
-0.06329094 -0.041367188 0.1850292 -0.028404607 -0.06901396 -0.025938027 0.063893475 0.06651337
-0.16292149 0.10056173 -0.15654504 0.015005204 0.0006981742 0.057778962 0.018310778 -0.053613268
0.051297277 -0.11785026 -0.08010462 0.10666432 -0.047058985 -0.14102755 -0.009367269 0.06528615
0.04621108 0.010373014 -0.058532637 -0.09006617 -0.0120439455 -0.044361215 -0.083163805 -0.13900106
-0.0070322948 -0.071860604 0.019354168 0.03573744 0.035643335 -0.041360345 -0.031444944 0.10114851
-0.08345808 -0.04194055 0.010857938 -0.06594297 -0.044155147 0.14149418 0.061356377 -0.13053809
-0.021634366 -0.053075787 0.046981823 -0.07396626 0.12568101 0.11816331 0.097026885 -0.13855986
0.035307128 -0.0064083086 0.036410224 -0.13350043 -0.17319776 -0.062984414 -0.07713094 -0.05663674
-0.025644228 0.10569436 -0.17065123 -0.10655153 0.14013797 -0.009394588 -0.14148198 -0.058246974
0.01787687 0.010204448 -0.077324875 -0.043658666 0.03753306 -0.28449407 0.08370027 -0.0031256136
0.0294146 0.030211318 0.09406329 -0.012820482 0.16729221 -0.02546396 -0.064783216 0.12147772
-0.1194264 -0.08708497 0.026752668 0.11331611 0.06715976 0.07552203 -0.012161406 0.14329228
-0.07380794 -0.009644615 0.037821118 -0.026542056 0.077494204 0.110548586 0.0421325 0.09445584
-0.006072558 -0.061169155 -0.015522669 0.14000285 0.005365493 -0.021228317 0.25872144 0.13267745
-0.008774329 0.20266923 -0.112329796 -0.021524604 0.011525733 -0.05506649 -0.043998096 -0.02374681
-0.11848112 0.1320424 0.032972526 0.13573612 -0.11293169 -0.10072662 -0.10268247 0.059671808
-0.03617939 -0.08855444 -0.09190203 -0.009746455 -0.048724603 0.01180495 -0.041837204 0.15205596
0.031928744 0.086840264 0.09762777 0.06341603 -0.06113525 -0.02737078 0.09798176 -0.13233635
0.005259238 0.09752138 -0.014779253 0.014437762 -0.10644718 0.02409172 -0.12162808 -0.005138209
0.019758519 0.049426604 -0.072978295 0.16412438 -0.08945441 0.033574346 0.15885878 0.09340494
0.049541365 -0.030014573 0.07441036 0.03764945 0.10340273 0.086287074 -0.07272558 -0.07181698
0.13394976 0.10181207 -0.049254015 -0.077574864 0.056517847 -0.07370837 0.04190239 -0.03798108
0.027660895 0.060269695 -0.080816776 -0.008784753 -0.027337443 -0.21347818 -0.13497671 0.1358332
-0.09149401 -0.066724814 -0.050788414 0.103845924 -0.06905442 -0.025630375 -0.038832374 -0.1602393
-0.034662884 0.02903383 -0.09573631 -0.13843827 0.094996914 -0.062196106 0.11975158 0.026565786
-0.0570819 0.021489412 0.11546042 0.085213445 0.03660219 -0.13844657 -0.063514374 -0.038331967
-0.09209808 -0.005728849 -0.12759359 0.086563066 0.19045207 0.15817936 -0.061778754 -0.061807077
0.0606726 0.102091655 -0.109817944 0.06823341 -0.17722683 -0.038848124 -0.030930197 -0.064950354
0.038157955 0.070531644 0.055267703 -0.024720104 0.044220407 -0.01045968 -0.13540734 -0.11348713
0.12447488 -0.010911688 -0.082936175 -0.07887058 -0.2008174 0.03480968 0.10972311 0.10516406
0.09627349 0.0261689 0.073966615 -0.061055 -0.08320403 0.058482714 -0.007637017 -0.004435364

bias f4 [64]
00000000: 17af f9bd 7901 06be 6dd5 a1bd b95f 1e3c
00000010: ab30 f0bd c641 7ebd 2a9f a03d cfd3 3fbc
00000020: 59fe 983c 389b 6c3c 79a7 4a3c e3af debd
00000030: b9dc 013e a901 79be fd54 53bd de72 9b3c
00000040: 1b98 a9bc eea4 dfbc 91b0 ddbd c847 313d
00000050: b7a1 073d 1dfd c53d e07e dabd cd62 833d
00000060: e19a d33d 4618 c83d cfaa 073e 6d84 d4bd
00000070: 1e37 10be c9df 57be ff86 d73d 2ee2 283e
00000080: 2e0e 0fbd 5b7f 603d fa8c 6b3a 7f99 323e
00000090: 8d2b 07be 6ef8 b0bd 0633 943d 3866 4d3d
000000a0: 472e cebd 4655 9e3c 8e9a cebd 5e36 f5bd
000000b0: 3ed4 1c3e 108e 9a38 8404 f9bd 3e8c 143e
000000c0: e395 c0bd 60d7 5a3b d3a8 173b 7ff4 23be
000000d0: 67d1 54bd 0b9f 87bd d9ec 313d 3fe0 04be
000000e0: 960e 8a3d ab74 e73d f103 d03d 3b49 e53c
000000f0: c791 9a3d 15a3 523d d74c bf3d b555 5abd
-0.12191599 -0.130865 -0.07902036 0.009666377 -0.11728033 -0.062074445 0.07842858 -0.011708214
0.01867597 0.014441304 0.01236903 -0.108733915 0.12681855 -0.2431704 -0.051594723 0.018975671
-0.020702412 -0.027300324 -0.10824693 0.043281347 0.033113208 0.09667418 -0.10668731 0.06415329
0.10332275 0.09770255 0.13248752 -0.10376821 -0.14083526 -0.21081461 0.10523795 0.1649253
-0.034925632 0.054808956 0.0008985546 0.17441367 -0.13200207 -0.08641134 0.072362944 0.05014631
-0.100674205 0.01932777 -0.10088073 -0.1197326 0.15315339 7.3697534e-05 -0.121590644 0.14506623
-0.094035886 0.0033392534 0.0023141399 -0.16011237 -0.051957514 -0.06622132 0.043438766 -0.12976168
0.06741063 0.113015495 0.10157002 0.02798902 0.07547336 0.05142506 0.09340828 -0.053304393

weight f4 [64, 64]
00000000: efe4 b9bd 9fea 993d ecf2 b43e 7f11 c43c
00000010: 2aa4 203e 0158 09be 14fe 5c3e b86f 1c3d
00000020: 39b5 063e a037 373b 17e2 5b3e 39f0 913d
00000030: d92b 41bd 5289 16be ef2e 1d3e 32e1 a0bc
00000040: 9855 58be 54d0 39bd 60a5 bdbc 4136 7abc
00000050: 3d4b 693e 6da5 cdbc 2855 cebe a7f0 f13d
00000060: 0e66 92bd ed1a 4dbd 8d1e 2dbe 039e 4ebe
00000070: f025 b2bd b3c3 06be 4783 66be 80ea bcbe
00000080: a00e f83c a953 023e 31a7 5c3e 64d4 5ebe
00000090: fd5e 8dbd 49cc 46bd f28b 213d 00df 38bd
000000a0: 7592 2c3e e4ff 583e 30ef cf3d 404e 3d3e
000000b0: 689d 4b3d bacd 083d a3e9 093e 1bf7 23be
000000c0: ab6b 0abe f1a4 323e 77d4 61bc f605 7cbe
000000d0: 92d6 a53e addc 38bd aff8 06be 84cc b93d
000000e0: 0adf 57bd e862 eb3d a8d7 303e 0bbc 663d
000000f0: 32b3 6e3d a5f5 813d 9abc e7bc c572 19be
00000100: e0ec 583d ca41 993d 4126 853c fc90 8e3d
00000110: bbfa 30be 3323 9d3d 0c8d a6bd af13 393d
00000120: 5915 283c 502a 343b 9ca3 be3d 0ab7 48bd
00000130: 9c7f 093e 86c8 8ebd df07 45be ae7c 223e
00000140: 2ecc e6bd c3fe eabd 6296 b339 ef59 6cbc
00000150: 4f28 5cbc 14c4 953d c4bb 713d 989c a3bd
00000160: 3eb8 57bd 4c13 383d 17f2 bdba bf64 c23d
00000170: e088 d7bd 4f9e 593e cb4e 07be b565 353e
00000180: e94e 9b3b 867b a1bd f0b9 dcbc 7199 b1bc
00000190: f73b a4be 59ff f73d a176 713d 57c4 7e3e
000001a0: 6c8c 983a e6fd 8dbd 017b 27be 5a04 563d
000001b0: 066a 433d ddc1 10be 79c7 213e 6e5a b3bd
000001c0: 9529 233e 8bfc 15bb 5f2f 11bd 9bc2 d6bd
000001d0: 73e3 31bc 8d8a dbbc 834e 993d 4e69 bcbd
000001e0: b18d eb3c 00ac 17bd b411 85bc 271e 253e
000001f0: e0d4 333d 9aa9 8dbd d7b8 7e3c 915c dfbd
00000200: e945 fabd 49cb 6c3e 1ef4 be3d 4bd6 8b3d
00000210: b38a 953b 3e96 c6bd 3530 28be 8c74 e9bd
00000220: 0828 b03d 7d51 3b3e 1dbb eabd 1201 0bbd
00000230: 163d a6bc b18d 443e 8d23 3a3d b5ba 1bbe
00000240: 0740 983c 817c 073d 5aea d2bd a5b2 71bd
00000250: 6f0a 993c 6094 af3d 943a 313e 9ecb 9ebc
00000260: 2836 21be 0bed b53d 39b1 963d d485 acbd
00000270: d289 863c d10e 9b3d f298 67bd bbc2 493d
00000280: 3973 863d e651 803d 7d50 1ebe 0e5c bbbb
00000290: 25bd 9ebd a709 35be cbc1 9c3d 0999 3e3e
000002a0: 6b0a e8bd 2e02 133e bab1 cf3b 6b11 aa3e
000002b0: c1ef 0b3e 1d0e c4bc 80e7 55be 1481 05be
000002c0: 7209 913c 2c74 703d f5fa 6bbe 5afc a1bc
000002d0: b351 1f3c 1f80 94bd 8ba7 37be 2c36 d4bd
000002e0: 1098 f3bd 31e9 a53d c28e 6a3d bf9b 73bd
000002f0: 5577 3fbe ccf0 acbd b7b3 72bc 175f 56be
00000300: 6e4c e83d 4b88 ffbd 22df bcbd 0098 183d
00000310: ab45 51be 27de 833d 548e 49be 7d6b 0b3d
00000320: 6ddb 82bc d00e dbbd 731c 87bd ec25 af39
00000330: 5803 babb 0bbb eabd 7376 3dbe e2fd b9bd
00000340: b93f 253e caf2 2a3e ce26 3a3d a97c 8cbd
00000350: f003 02bd 1ce1 aabd a73d 86bd 14cd 2fba
00000360: 7a9b b7bd db01 89bd a262 9d3d 48af 993d
00000370: 2199 77be 5a70 c5be b921 5ebc baff 1b3e
00000380: 5030 1f3d 3838 643d c29a 843c 66d8 a0bd
00000390: 22cd 8fbd 29bc ce3c 229d 8bba b261 973d
000003a0: 50da ee3c b0d4 8ebe f4dc 6dbd c904 153d
000003b0: 1cc6 aabd 650e d23d ab0a b6bc 2062 f43c
000003c0: 4c10 11be 146c abbd b92e 233e 2e99 dfbd
000003d0: f51b 6ebd e6d4 023d 7da5 09bd 7772 5abd
000003e0: c3e9 2fbd 4d1a f23c 3707 30bd 84fb 88bd
000003f0: 4d23 a73c d64f d83c c6d2 9fbd 3186 2c3e
-0.09076869 0.075154535 0.35341585 0.023934124 0.15687624 -0.13412477 0.21581298 0.03819248
0.13155068 0.002795674 0.21472965 0.07125897 -0.047160957 -0.14700821 0.15349935 -0.019638631
-0.21126401 -0.045364693 -0.023150146 -0.015271724 0.22782607 -0.025103295 -0.40299344 0.11813479
-0.07148372 -0.050074507 -0.16906185 -0.20177464 -0.08698642 -0.13160591 -0.22511016 -0.3689766
0.030280411 0.12727226 0.21548153 -0.21760708 -0.06902883 -0.048534665 0.039440103 -0.045134544
0.16852744 0.21191365 0.10153043 0.18486881 0.04971066 0.03339932 0.13468032 -0.16012232
-0.13517635 0.17445733 -0.013783566 -0.24611649 0.32390267 -0.045132328 -0.13180803 0.090722114
-0.05270294 0.11493474 0.17269766 0.056331675 0.058276363 0.06345681 -0.028288174 -0.14985187
0.052960277 0.074832514 0.016253592 0.06961247 -0.17283146 0.07672729 -0.08132371 0.045184787
0.010258996 0.002749104 0.0930855 -0.049002685 0.13427585 -0.069718406 -0.19241284 0.15867874
-0.11269413 -0.11474373 0.00034253584 -0.014425739 -0.013437345 0.073127896 0.059016958 -0.07988852
-0.05266594 0.044940278 -0.0014491704 0.09491872 -0.10524154 0.21251796 -0.13213651 0.1771458
0.0047396314 -0.07884888 -0.02694413 -0.021679612 -0.32077 0.121092506 0.058951024 0.24879585
0.0011638529 -0.06933193 -0.16355516 0.052250244 0.047708534 -0.14136453 0.15798749 -0.087574825
0.15933831 -0.0022886123 -0.035445567 -0.10486337 -0.010857451 -0.026799465 0.07485678 -0.09199773
0.028754087 -0.037029266 -0.016243793 0.16124783 0.043904185 -0.069171146 0.015546999 -0.109063275
-0.122203656 0.23124422 0.093239054 0.068279825 0.0045636534 -0.09696625 -0.1642464 -0.11399183
0.08601385 0.18292804 -0.1146147 -0.033936568 -0.0202928 0.19194676 0.04544406 -0.15207942
0.018585218 0.03307772 -0.10298605 -0.05900826 0.018681733 0.08573222 0.17307502 -0.019384202
-0.15743315 0.08883103 0.07358021 -0.08423963 0.01642314 0.075711854 -0.056542344 0.049257975
0.06564946 0.06265621 -0.15460391 -0.005717761 -0.0775092 -0.17679463 0.076541506 0.18613066
-0.11330112 0.143563 0.0063383253 0.33216414 0.13665678 -0.023932511 -0.20889091 -0.1303752
0.0177047 0.05870454 -0.23044951 -0.01977365 0.009724068 -0.07251 -0.17935006 -0.10361895
-0.11894238 0.08101118 0.05726505 -0.059474703 -0.18697865 -0.08444366 -0.014813355 -0.20934711
0.11342703 -0.12477168 -0.09222247 0.037254333 -0.20436732 0.064388566 -0.196832 0.034038056
-0.015973771 -0.10696185 -0.06597223 0.00033406855 -0.005676668 -0.11461457 -0.18502216 -0.090816274
0.1613759 0.16694179 0.045447163 -0.068597145 -0.031742036 -0.083437175 -0.06554728 -0.0006706279
-0.08965202 -0.06689807 0.07684828 0.07504135 -0.24179508 -0.3856228 -0.013557845 0.1523427
0.038864434 0.055717677 0.016187076 -0.07853775 -0.07021548 0.025236206 -0.0010651688 0.07391681
0.029156834 -0.27896643 -0.058072045 0.036381517 -0.083385676 0.10256652 -0.022221884 0.029831946
-0.14166373 -0.08370224 0.15935792 -0.109178886 -0.05813213 0.031941317 -0.033605088 -0.05333182
-0.042947542 0.029553557 -0.04297563 -0.06688598 0.020402575 0.026405256 -0.07803874 0.16848065

bias f4 [64]
00000000: f8de 30be d901 703d a5b7 b53d a88f a73d
00000010: 0a87 85bd d58f 933b 35c5 32bd a100 d03d
00000020: 8113 07be 696b 0abd 132e eebd 6d41 9bbd
00000030: 9770 d93d 8c87 24bc 3212 afbd 2d9b 23bd
00000040: 3ad3 f33c fe9f e43c 6d4c afbd 33a4 c8bd
00000050: 0401 1e3c 36ab 07bd 4281 013e d50b cdbd
00000060: 8858 93bd f0a5 c43d d16a 643d 0570 673d
00000070: 70ff bcbd b682 6fbd 55d8 9cbd c39c b23d
00000080: 5d04 933c 3486 c9bb 6d29 10bd 72bb fb3d
00000090: 888c 86bd f9ca 893c 89ab 613d 6a3e c1bd
000000a0: 4706 30be 5149 a13d 785a bb3d b235 ffba
000000b0: 3928 9a3d 9f3a 053e ef9f 1dbd c723 a1bd
000000c0: 57b9 6a3a d6bd 1b3e 79da ffb9 5935 a43d
000000d0: f3d5 063d b8d5 1dbe 710c 003d 26f5 be3c
000000e0: 7005 273c 41d5 2ebd cbb7 35bd eb50 9b3d
000000f0: c959 cbbd 3b31 4a3e 1a5b b6bd eea2 5f3d
-0.17272556 0.058595512 0.08872918 0.08181697 -0.06519897 0.00450323 -0.043645103 0.1015637
-0.13191034 -0.03379384 -0.11629882 -0.07580838 0.10617178 -0.0100420825 -0.08548392 -0.03994291
0.029763807 0.027908321 -0.08559499 -0.097969435 0.009643797 -0.033122264 0.12646964 -0.100120224
-0.0719462 0.096019626 0.05576593 0.056503315 -0.09228408 -0.058474265 -0.076584496 0.08721306
0.017946417 -0.0061500315 -0.035195757 0.12291612 -0.06569773 0.016820418 0.05509523 -0.09435733
-0.17189895 0.07875312 0.09148115 -0.0019470959 0.07527203 0.13010643 -0.038482603 -0.07868152
0.00089540094 0.15209135 -0.00048800165 0.08017988 0.03291888 -0.15413558 0.031261865 0.023310255
0.0101941675 -0.042683844 -0.04436473 0.07583793 -0.099292345 0.19745342 -0.08904095 0.05459874

weight f4 [64, 64]
00000000: aa33 acbe 03a9 b2bb d069 f03e c2c2 06be
00000010: b3d9 233c 0359 57be d2df 0fbe 3ecc a33e
00000020: a2f7 ac3d 802f 9ebd 93a0 5a3d 4423 293d
00000030: d880 a63e 3ef0 4dbe 7d02 15be 2620 73bc
00000040: e83b 80bc a062 c4be 6f75 773e c72f a93e
00000050: ea8a 81bd 8da7 73be 0acb 6abe 201d 86be
00000060: 9e3b 8c3e ec6a aebd 4591 273d 1d44 ce3d
00000070: e091 84be 0427 043e 3f44 063f f14c 403d
00000080: 6e9d 58be b956 d73e ea2b 163e f7ea 37be
00000090: c5c5 a8bc cf93 b43d 6e69 29be 1682 ccbe
000000a0: 4359 453e 0d0d cbbd 27a4 083d 9622 d4bd
000000b0: f358 24bc faff 4ebc 98d0 fcbe 662b 10bd
000000c0: 1b23 aabd 201c 9a3d 4bdb f2bc 3280 aabd
000000d0: 5572 9f3c 94a2 16bf cfe3 2abe 150a 593c
000000e0: 8922 0bbe 488b 4abe 1f1f 6abe f886 423e
000000f0: 9acc 833e 922d 10bc 8422 8c3d 064c 47be
00000100: 7061 303c 5e79 0c3c a1ea 96be b030 323c
00000110: 42e7 b03d 92f4 0dbd e2b2 e63c 7e10 913d
00000120: ca10 0cbe 12a9 9cbd 3798 63be d0db 43bd
00000130: 9896 41bd 72a4 80be 1ff2 7abd 930a 14bd
00000140: dde0 67bc 9c82 65be a863 d23c f436 3c3d
00000150: c3d1 4b3d d276 dcbe 2016 ab3c 0e67 33bd
00000160: 049f 56bb 61ab d83c d927 9fbb 113d 08be
00000170: 2e14 95bc e079 46bd da31 fbbd b703 0ebe
00000180: 6a10 6bbd 4943 953d b7d3 0bbe 4084 ed3e
00000190: 2275 eebc 7cd6 ae3d 23d7 c4bd bafa f838
000001a0: 69bd 103e f1cd 06be 3613 12bd e7da 303d
000001b0: 6cd1 8fbd 28e4 ea3c 013b a2be 4e61 debd
000001c0: 6388 38be 61b0 99bd 583b dc3c 2776 e6bb
000001d0: 6cbc f43c 6101 a03c 2ffb 2f3d 49f8 e03d
000001e0: 706f 7e3d ddd3 03bd 9e90 b03d 5197 ccbe
000001f0: d161 bebd 288e 10be c3ea 9d3c e178 d5bc
00000200: 6690 a13d dda7 c83d 1090 bc3c 10b3 163e
00000210: b62c b4bc b853 abbc fc5f 813d 7997 093e
00000220: e3a0 5c3d 8b67 11be 646f fcbd 07d8 a1bd
00000230: d294 963d 8571 06bd 9ddb 82bd a103 dcbd
00000240: 06da ed3c 2896 273e d25a f2bd 6c32 893c
00000250: ae50 943d 70da d0be 9338 fb3d 1840 cc3d
00000260: b015 1f3e e198 223e 6413 b33d 761e 47bd
00000270: e253 adbd 09ee 023e 00e8 d23e ea62 923c
00000280: f2ac b5bc 35f8 7abe 9329 4cbe dd53 0d3f
00000290: 2b13 70bd 9410 b8bd 2b7c 30bd 1a0d 5d3e
000002a0: e261 85bd a16e 9d3d 954c 0abe ffe0 9cbd
000002b0: e587 0abe 05ca 863d 2734 69bc 0cc1 173e
000002c0: a0e3 2abe 0bf1 fb3d c4cd 553d 9b9e 34be
000002d0: 71e8 b3bd b846 80bd e499 a0bd bbcc 14bc
000002e0: 5752 45bd 8a48 483d 3369 e33d c426 32be
000002f0: aba8 493e 6a8f 343d c155 543d 5056 44bc
00000300: 3207 2f3f db3e 34be c081 63bf 89d1 d03d
00000310: b753 763d 44e1 953d 4561 e3bd edb6 edbe
00000320: 7657 1fbe 2252 193d 4675 88be 3a5a 9cbd
00000330: 75cc f93d 1404 dabd 422e 0abe 9483 41be
00000340: 191f e6bd 0673 3dbe f140 363e 0a3b 18be
00000350: 9f1c 8cbc 8f7e acbe cdaf 82bd 1b70 5e3d
00000360: 93aa cb3e 07ef cf3d a47d 55be f555 04be
00000370: 2b1d 3ab8 cfb1 1bbe 4a72 b2bb 4d56 57be
00000380: 380e a3bd ce4b 07be 98b5 f8bd 1b58 0a3f
00000390: abbd 5c3e a554 463e d574 933e 4e5a 8b3d
000003a0: e1c2 9b3e 8c51 d3bd 0c79 2c3e 72b2 aebb
000003b0: 941b 353e 0e54 663d 2505 8c3d a1f7 05be
000003c0: e1ac 303e d3df e93c 9e74 1c3e 64db a13d
000003d0: 2fea 90be fcdd 12be 8900 87bb 4e63 ea3d
000003e0: 768c 8dbd 863b 0e3e ae37 b73c ef31 4c3d
000003f0: 8e84 883d c998 2cbd 0075 a93e 408a 17bc
-0.33633167 -0.0054522767 0.4695573 -0.13160232 0.010000634 -0.21030049 -0.14050224 0.31991762
0.0844567 -0.07723904 0.05337579 0.041293398 0.32520175 -0.20111176 -0.1455173 -0.014839208
-0.015653566 -0.38356495 0.24165891 0.33044264 -0.06325324 -0.23794384 -0.22929016 -0.26194096
0.27389234 -0.085164875 0.040910024 0.10071585 -0.25892544 0.12905508 0.52447885 0.046948377
-0.21153805 0.42058352 0.1466519 -0.17960726 -0.020602116 0.08817255 -0.16544124 -0.39942998
0.19272332 -0.099145986 0.033359673 -0.10358159 -0.010030973 -0.012634272 -0.49377894 -0.035197638
-0.08307477 0.07524896 -0.029645583 -0.083252326 0.019463697 -0.58841825 -0.16688465 0.013247033
-0.13587393 -0.19779694 -0.22863434 0.18996799 0.25742036 -0.008799927 0.06842521 -0.19462594
0.010765418 0.008573858 -0.29475883 0.010875866 0.08637859 -0.03465707 0.02816147 0.07083224
-0.1367828 -0.07649435 -0.22226034 -0.04781705 -0.047262758 -0.25125462 -0.06126606 -0.036142897
-0.014152733 -0.22413105 0.025682285 0.045950845 0.04976059 -0.43059403 0.020884573 -0.043799452
-0.003274859 0.026448907 -0.004857045 -0.13304545 -0.018198099 -0.048456073 -0.12265368 -0.13868605
-0.0573887 0.07288224 -0.13654982 0.4638996 -0.029108588 0.085370034 -0.096113466 0.00011872263
0.14134754 -0.13164498 -0.035662852 0.04317751 -0.07022366 0.028673247 -0.3168564 -0.10858403
-0.18020777 -0.07504345 0.026883766 -0.007033128 0.029875003 0.019531908 0.042964157 0.10984857
0.062117994 -0.03218447 0.086213335 -0.39959195 -0.09296001 -0.14116728 0.019276982 -0.026058616
0.0788887 0.097976424 0.023017913 0.14716744 -0.021993976 -0.020913944 0.06317136 0.13436688
0.05386437 -0.14199655 -0.123259336 -0.07902532 0.07352604 -0.032823104 -0.06389544 -0.1074288
0.029034626 0.16365874 -0.11833729 0.016747676 0.07241951 -0.40791655 0.1226665 0.099731624
0.15535617 0.15878631 0.08743933 -0.048613034 -0.08463265 0.12786116 0.41192627 0.017869432
-0.022177193 -0.24508746 -0.19937734 0.5520609 -0.05861203 -0.08987537 -0.043087166 0.21587029
-0.0651281 0.076871164 -0.13505776 -0.07660102 -0.13528402 0.06581501 -0.0142336255 0.14819735
-0.16688395 0.12301835 0.052198187 -0.17638628 -0.08784569 -0.062634885 -0.07841852 -0.009082015
-0.04817423 0.048897304 0.111040495 -0.173976 0.19693248 0.044082083 0.051839594 -0.011983469
0.68370354 -0.17602102 -0.8886986 0.10196216 0.06013843 0.07318357 -0.11102537 -0.46428624
-0.15560707 0.037431844 -0.26651973 -0.07634397 0.121972 -0.10645309 -0.13494208 -0.1889785
-0.112364 -0.18500909 0.1779821 -0.14866272 -0.017103491 -0.33690307 -0.063811876 0.05430613
0.39778575 0.10153013 -0.2084871 -0.12923415 -4.437302e-05 -0.15204547 -0.005445753 -0.21029015
-0.079616964 -0.13212511 -0.12144011 0.5404069 0.21556728 0.19368227 0.28800073 0.068043336
0.30422118 -0.10318288 0.1684305 -0.005331331 0.17686301 0.056232505 0.06836919 -0.13082744
0.17253448 0.02854911 0.15278861 0.079031736 -0.28303668 -0.14342493 -0.004119937 0.11444722
-0.069115564 0.13889894 0.022365417 0.049852308 0.06665908 -0.042137895 0.33097076 -0.00924927

bias f4 [64]
00000000: 6210 f4bc 86e8 27bd 52b2 133e f7e4 cb3d
00000010: 0026 ccbd 6ee5 d2bd 2245 43be a4ee c7bc
00000020: 5bd6 6fbc 5768 753d eacb 8ebd b2ee ab3d
00000030: 3e8e c5bc 93d1 8d3d 2937 883d e627 b5bc
00000040: ae5d c23d 7ed8 773d 2593 d63d e27e 5d3d
00000050: 884c d7bd 0a0c 33bc 49f0 fabd 3e8e e03c
00000060: 45d2 013c 4f27 42be 9140 c73d cfaf ee3b
00000070: 5059 f7bd f6d9 ddbd 4696 fcbd 7b49 60bd
00000080: d717 3bbb e967 62bd 1859 273e fe34 b93d
00000090: 11c5 343e 0c70 05be ba3f 9e3d 75e1 b7bc
000000a0: e19e e93d a30f f53c b622 6b3d 91c1 d6bd
000000b0: ceba 11be 0b4e be3d eccc 70bd 1b83 3c3e
000000c0: 0ed3 3abd c0b8 d83d 5529 863d 218a e53d
000000d0: 1267 26be daa8 00be 0c15 c8bd a04a 013d
000000e0: 57d0 383e 4865 ae3d 2ab4 f4bd af1f 163e
000000f0: 4024 873d 9bf5 613d ba38 663c 8ff1 473d
-0.029792968 -0.040993236 0.14423493 0.09955781 -0.099681854 -0.102976665 -0.19069341 -0.024405785
-0.014638509 0.05991396 -0.06972487 0.08395137 -0.024115678 0.06924739 0.06651146 -0.022113752
0.09490524 0.060509197 0.10477284 0.054076083 -0.10512644 -0.010928163 -0.12252862 0.027411576
0.007923667 -0.18960308 0.09729112 0.0072841416 -0.12077582 -0.108325884 -0.1233335 -0.054757576
-0.0028548145 -0.055274878 0.1634258 0.090433106 0.176533 -0.13031024 0.077269986 -0.022446373
0.11407257 0.029914683 0.05740615 -0.104861386 -0.14231417 0.09292229 -0.05878918 0.18409388
-0.045611434 0.10582113 0.06550852 0.112079866 -0.16250256 -0.12564412 -0.097696394 0.03156531
0.18048225 0.085154116 -0.11948426 0.14660524 0.06598711 0.05516587 0.014051611 0.048814353
